7767517
1000 1783
Input                    data                        0 1 data
Reorg                    /Reshape_1               1 1 data /Reshape_1_output_0 0=2
Convolution              /conv_first/Conv         1 1 /Reshape_1_output_0 /conv_first/Conv_output_0 0=64 1=3 4=1 5=1 6=6912
Split                    splitncnn_0              1 8 /conv_first/Conv_output_0 /conv_first/Conv_output_0_splitncnn_0 /conv_first/Conv_output_0_splitncnn_1 /conv_first/Conv_output_0_splitncnn_2 /conv_first/Conv_output_0_splitncnn_3 /conv_first/Conv_output_0_splitncnn_4 /conv_first/Conv_output_0_splitncnn_5 /conv_first/Conv_output_0_splitncnn_6 /conv_first/Conv_output_0_splitncnn_7
Convolution              /body/body.0/rdb1/conv1/Conv 1 1 /conv_first/Conv_output_0_splitncnn_7 /body/body.0/rdb1/lrelu/LeakyRelu_output_0 0=32 1=3 4=1 5=1 6=18432 9=2 -23310=1,2.000000e-01
Split                    splitncnn_1              1 4 /body/body.0/rdb1/lrelu/LeakyRelu_output_0 /body/body.0/rdb1/lrelu/LeakyRelu_output_0_splitncnn_0 /body/body.0/rdb1/lrelu/LeakyRelu_output_0_splitncnn_1 /body/body.0/rdb1/lrelu/LeakyRelu_output_0_splitncnn_2 /body/body.0/rdb1/lrelu/LeakyRelu_output_0_splitncnn_3
Concat                   /body/body.0/rdb1/Concat 2 1 /conv_first/Conv_output_0_splitncnn_6 /body/body.0/rdb1/lrelu/LeakyRelu_output_0_splitncnn_3 /body/body.0/rdb1/Concat_output_0
Convolution              /body/body.0/rdb1/conv2/Conv 1 1 /body/body.0/rdb1/Concat_output_0 /body/body.0/rdb1/lrelu_1/LeakyRelu_output_0 0=32 1=3 4=1 5=1 6=27648 9=2 -23310=1,2.000000e-01
Split                    splitncnn_2              1 3 /body/body.0/rdb1/lrelu_1/LeakyRelu_output_0 /body/body.0/rdb1/lrelu_1/LeakyRelu_output_0_splitncnn_0 /body/body.0/rdb1/lrelu_1/LeakyRelu_output_0_splitncnn_1 /body/body.0/rdb1/lrelu_1/LeakyRelu_output_0_splitncnn_2
Concat                   /body/body.0/rdb1/Concat_1 3 1 /conv_first/Conv_output_0_splitncnn_5 /body/body.0/rdb1/lrelu/LeakyRelu_output_0_splitncnn_2 /body/body.0/rdb1/lrelu_1/LeakyRelu_output_0_splitncnn_2 /body/body.0/rdb1/Concat_1_output_0
Convolution              /body/body.0/rdb1/conv3/Conv 1 1 /body/body.0/rdb1/Concat_1_output_0 /body/body.0/rdb1/lrelu_2/LeakyRelu_output_0 0=32 1=3 4=1 5=1 6=36864 9=2 -23310=1,2.000000e-01
Split                    splitncnn_3              1 2 /body/body.0/rdb1/lrelu_2/LeakyRelu_output_0 /body/body.0/rdb1/lrelu_2/LeakyRelu_output_0_splitncnn_0 /body/body.0/rdb1/lrelu_2/LeakyRelu_output_0_splitncnn_1
Concat                   /body/body.0/rdb1/Concat_2 4 1 /conv_first/Conv_output_0_splitncnn_4 /body/body.0/rdb1/lrelu/LeakyRelu_output_0_splitncnn_1 /body/body.0/rdb1/lrelu_1/LeakyRelu_output_0_splitncnn_1 /body/body.0/rdb1/lrelu_2/LeakyRelu_output_0_splitncnn_1 /body/body.0/rdb1/Concat_2_output_0
Convolution              /body/body.0/rdb1/conv4/Conv 1 1 /body/body.0/rdb1/Concat_2_output_0 /body/body.0/rdb1/lrelu_3/LeakyRelu_output_0 0=32 1=3 4=1 5=1 6=46080 9=2 -23310=1,2.000000e-01
Concat                   /body/body.0/rdb1/Concat_3 5 1 /conv_first/Conv_output_0_splitncnn_3 /body/body.0/rdb1/lrelu/LeakyRelu_output_0_splitncnn_0 /body/body.0/rdb1/lrelu_1/LeakyRelu_output_0_splitncnn_0 /body/body.0/rdb1/lrelu_2/LeakyRelu_output_0_splitncnn_0 /body/body.0/rdb1/lrelu_3/LeakyRelu_output_0 /body/body.0/rdb1/Concat_3_output_0
Convolution              /body/body.0/rdb1/conv5/Conv 1 1 /body/body.0/rdb1/Concat_3_output_0 /body/body.0/rdb1/conv5/Conv_output_0 0=64 1=3 4=1 5=1 6=110592
Eltwise                  /body/body.0/rdb1/Add    2 1 /body/body.0/rdb1/conv5/Conv_output_0 /conv_first/Conv_output_0_splitncnn_2 /body/body.0/rdb1/Add_output_0 0=1 -23301=2,2.000000e-01,1.000000e+00
Split                    splitncnn_4              1 6 /body/body.0/rdb1/Add_output_0 /body/body.0/rdb1/Add_output_0_splitncnn_0 /body/body.0/rdb1/Add_output_0_splitncnn_1 /body/body.0/rdb1/Add_output_0_splitncnn_2 /body/body.0/rdb1/Add_output_0_splitncnn_3 /body/body.0/rdb1/Add_output_0_splitncnn_4 /body/body.0/rdb1/Add_output_0_splitncnn_5
Convolution              /body/body.0/rdb2/conv1/Conv 1 1 /body/body.0/rdb1/Add_output_0_splitncnn_5 /body/body.0/rdb2/lrelu/LeakyRelu_output_0 0=32 1=3 4=1 5=1 6=18432 9=2 -23310=1,2.000000e-01
Split                    splitncnn_5              1 4 /body/body.0/rdb2/lrelu/LeakyRelu_output_0 /body/body.0/rdb2/lrelu/LeakyRelu_output_0_splitncnn_0 /body/body.0/rdb2/lrelu/LeakyRelu_output_0_splitncnn_1 /body/body.0/rdb2/lrelu/LeakyRelu_output_0_splitncnn_2 /body/body.0/rdb2/lrelu/LeakyRelu_output_0_splitncnn_3
Concat                   /body/body.0/rdb2/Concat 2 1 /body/body.0/rdb1/Add_output_0_splitncnn_4 /body/body.0/rdb2/lrelu/LeakyRelu_output_0_splitncnn_3 /body/body.0/rdb2/Concat_output_0
Convolution              /body/body.0/rdb2/conv2/Conv 1 1 /body/body.0/rdb2/Concat_output_0 /body/body.0/rdb2/lrelu_1/LeakyRelu_output_0 0=32 1=3 4=1 5=1 6=27648 9=2 -23310=1,2.000000e-01
Split                    splitncnn_6              1 3 /body/body.0/rdb2/lrelu_1/LeakyRelu_output_0 /body/body.0/rdb2/lrelu_1/LeakyRelu_output_0_splitncnn_0 /body/body.0/rdb2/lrelu_1/LeakyRelu_output_0_splitncnn_1 /body/body.0/rdb2/lrelu_1/LeakyRelu_output_0_splitncnn_2
Concat                   /body/body.0/rdb2/Concat_1 3 1 /body/body.0/rdb1/Add_output_0_splitncnn_3 /body/body.0/rdb2/lrelu/LeakyRelu_output_0_splitncnn_2 /body/body.0/rdb2/lrelu_1/LeakyRelu_output_0_splitncnn_2 /body/body.0/rdb2/Concat_1_output_0
Convolution              /body/body.0/rdb2/conv3/Conv 1 1 /body/body.0/rdb2/Concat_1_output_0 /body/body.0/rdb2/lrelu_2/LeakyRelu_output_0 0=32 1=3 4=1 5=1 6=36864 9=2 -23310=1,2.000000e-01
Split                    splitncnn_7              1 2 /body/body.0/rdb2/lrelu_2/LeakyRelu_output_0 /body/body.0/rdb2/lrelu_2/LeakyRelu_output_0_splitncnn_0 /body/body.0/rdb2/lrelu_2/LeakyRelu_output_0_splitncnn_1
Concat                   /body/body.0/rdb2/Concat_2 4 1 /body/body.0/rdb1/Add_output_0_splitncnn_2 /body/body.0/rdb2/lrelu/LeakyRelu_output_0_splitncnn_1 /body/body.0/rdb2/lrelu_1/LeakyRelu_output_0_splitncnn_1 /body/body.0/rdb2/lrelu_2/LeakyRelu_output_0_splitncnn_1 /body/body.0/rdb2/Concat_2_output_0
Convolution              /body/body.0/rdb2/conv4/Conv 1 1 /body/body.0/rdb2/Concat_2_output_0 /body/body.0/rdb2/lrelu_3/LeakyRelu_output_0 0=32 1=3 4=1 5=1 6=46080 9=2 -23310=1,2.000000e-01
Concat                   /body/body.0/rdb2/Concat_3 5 1 /body/body.0/rdb1/Add_output_0_splitncnn_1 /body/body.0/rdb2/lrelu/LeakyRelu_output_0_splitncnn_0 /body/body.0/rdb2/lrelu_1/LeakyRelu_output_0_splitncnn_0 /body/body.0/rdb2/lrelu_2/LeakyRelu_output_0_splitncnn_0 /body/body.0/rdb2/lrelu_3/LeakyRelu_output_0 /body/body.0/rdb2/Concat_3_output_0
Convolution              /body/body.0/rdb2/conv5/Conv 1 1 /body/body.0/rdb2/Concat_3_output_0 /body/body.0/rdb2/conv5/Conv_output_0 0=64 1=3 4=1 5=1 6=110592
Eltwise                  /body/body.0/rdb2/Add    2 1 /body/body.0/rdb2/conv5/Conv_output_0 /body/body.0/rdb1/Add_output_0_splitncnn_0 /body/body.0/rdb2/Add_output_0 0=1 -23301=2,2.000000e-01,1.000000e+00
Split                    splitncnn_8              1 6 /body/body.0/rdb2/Add_output_0 /body/body.0/rdb2/Add_output_0_splitncnn_0 /body/body.0/rdb2/Add_output_0_splitncnn_1 /body/body.0/rdb2/Add_output_0_splitncnn_2 /body/body.0/rdb2/Add_output_0_splitncnn_3 /body/body.0/rdb2/Add_output_0_splitncnn_4 /body/body.0/rdb2/Add_output_0_splitncnn_5
Convolution              /body/body.0/rdb3/conv1/Conv 1 1 /body/body.0/rdb2/Add_output_0_splitncnn_5 /body/body.0/rdb3/lrelu/LeakyRelu_output_0 0=32 1=3 4=1 5=1 6=18432 9=2 -23310=1,2.000000e-01
Split                    splitncnn_9              1 4 /body/body.0/rdb3/lrelu/LeakyRelu_output_0 /body/body.0/rdb3/lrelu/LeakyRelu_output_0_splitncnn_0 /body/body.0/rdb3/lrelu/LeakyRelu_output_0_splitncnn_1 /body/body.0/rdb3/lrelu/LeakyRelu_output_0_splitncnn_2 /body/body.0/rdb3/lrelu/LeakyRelu_output_0_splitncnn_3
Concat                   /body/body.0/rdb3/Concat 2 1 /body/body.0/rdb2/Add_output_0_splitncnn_4 /body/body.0/rdb3/lrelu/LeakyRelu_output_0_splitncnn_3 /body/body.0/rdb3/Concat_output_0
Convolution              /body/body.0/rdb3/conv2/Conv 1 1 /body/body.0/rdb3/Concat_output_0 /body/body.0/rdb3/lrelu_1/LeakyRelu_output_0 0=32 1=3 4=1 5=1 6=27648 9=2 -23310=1,2.000000e-01
Split                    splitncnn_10             1 3 /body/body.0/rdb3/lrelu_1/LeakyRelu_output_0 /body/body.0/rdb3/lrelu_1/LeakyRelu_output_0_splitncnn_0 /body/body.0/rdb3/lrelu_1/LeakyRelu_output_0_splitncnn_1 /body/body.0/rdb3/lrelu_1/LeakyRelu_output_0_splitncnn_2
Concat                   /body/body.0/rdb3/Concat_1 3 1 /body/body.0/rdb2/Add_output_0_splitncnn_3 /body/body.0/rdb3/lrelu/LeakyRelu_output_0_splitncnn_2 /body/body.0/rdb3/lrelu_1/LeakyRelu_output_0_splitncnn_2 /body/body.0/rdb3/Concat_1_output_0
Convolution              /body/body.0/rdb3/conv3/Conv 1 1 /body/body.0/rdb3/Concat_1_output_0 /body/body.0/rdb3/lrelu_2/LeakyRelu_output_0 0=32 1=3 4=1 5=1 6=36864 9=2 -23310=1,2.000000e-01
Split                    splitncnn_11             1 2 /body/body.0/rdb3/lrelu_2/LeakyRelu_output_0 /body/body.0/rdb3/lrelu_2/LeakyRelu_output_0_splitncnn_0 /body/body.0/rdb3/lrelu_2/LeakyRelu_output_0_splitncnn_1
Concat                   /body/body.0/rdb3/Concat_2 4 1 /body/body.0/rdb2/Add_output_0_splitncnn_2 /body/body.0/rdb3/lrelu/LeakyRelu_output_0_splitncnn_1 /body/body.0/rdb3/lrelu_1/LeakyRelu_output_0_splitncnn_1 /body/body.0/rdb3/lrelu_2/LeakyRelu_output_0_splitncnn_1 /body/body.0/rdb3/Concat_2_output_0
Convolution              /body/body.0/rdb3/conv4/Conv 1 1 /body/body.0/rdb3/Concat_2_output_0 /body/body.0/rdb3/lrelu_3/LeakyRelu_output_0 0=32 1=3 4=1 5=1 6=46080 9=2 -23310=1,2.000000e-01
Concat                   /body/body.0/rdb3/Concat_3 5 1 /body/body.0/rdb2/Add_output_0_splitncnn_1 /body/body.0/rdb3/lrelu/LeakyRelu_output_0_splitncnn_0 /body/body.0/rdb3/lrelu_1/LeakyRelu_output_0_splitncnn_0 /body/body.0/rdb3/lrelu_2/LeakyRelu_output_0_splitncnn_0 /body/body.0/rdb3/lrelu_3/LeakyRelu_output_0 /body/body.0/rdb3/Concat_3_output_0
Convolution              /body/body.0/rdb3/conv5/Conv 1 1 /body/body.0/rdb3/Concat_3_output_0 /body/body.0/rdb3/conv5/Conv_output_0 0=64 1=3 4=1 5=1 6=110592
Eltwise                  /body/body.0/rdb3/Add    2 1 /body/body.0/rdb3/conv5/Conv_output_0 /body/body.0/rdb2/Add_output_0_splitncnn_0 /body/body.0/rdb3/Add_output_0 0=1 -23301=2,2.000000e-01,1.000000e+00
Eltwise                  /body/body.0/Add         2 1 /body/body.0/rdb3/Add_output_0 /conv_first/Conv_output_0_splitncnn_1 /body/body.0/Add_output_0 0=1 -23301=2,2.000000e-01,1.000000e+00
Split                    splitncnn_12             1 7 /body/body.0/Add_output_0 /body/body.0/Add_output_0_splitncnn_0 /body/body.0/Add_output_0_splitncnn_1 /body/body.0/Add_output_0_splitncnn_2 /body/body.0/Add_output_0_splitncnn_3 /body/body.0/Add_output_0_splitncnn_4 /body/body.0/Add_output_0_splitncnn_5 /body/body.0/Add_output_0_splitncnn_6
Convolution              /body/body.1/rdb1/conv1/Conv 1 1 /body/body.0/Add_output_0_splitncnn_6 /body/body.1/rdb1/lrelu/LeakyRelu_output_0 0=32 1=3 4=1 5=1 6=18432 9=2 -23310=1,2.000000e-01
Split                    splitncnn_13             1 4 /body/body.1/rdb1/lrelu/LeakyRelu_output_0 /body/body.1/rdb1/lrelu/LeakyRelu_output_0_splitncnn_0 /body/body.1/rdb1/lrelu/LeakyRelu_output_0_splitncnn_1 /body/body.1/rdb1/lrelu/LeakyRelu_output_0_splitncnn_2 /body/body.1/rdb1/lrelu/LeakyRelu_output_0_splitncnn_3
Concat                   /body/body.1/rdb1/Concat 2 1 /body/body.0/Add_output_0_splitncnn_5 /body/body.1/rdb1/lrelu/LeakyRelu_output_0_splitncnn_3 /body/body.1/rdb1/Concat_output_0
Convolution              /body/body.1/rdb1/conv2/Conv 1 1 /body/body.1/rdb1/Concat_output_0 /body/body.1/rdb1/lrelu_1/LeakyRelu_output_0 0=32 1=3 4=1 5=1 6=27648 9=2 -23310=1,2.000000e-01
Split                    splitncnn_14             1 3 /body/body.1/rdb1/lrelu_1/LeakyRelu_output_0 /body/body.1/rdb1/lrelu_1/LeakyRelu_output_0_splitncnn_0 /body/body.1/rdb1/lrelu_1/LeakyRelu_output_0_splitncnn_1 /body/body.1/rdb1/lrelu_1/LeakyRelu_output_0_splitncnn_2
Concat                   /body/body.1/rdb1/Concat_1 3 1 /body/body.0/Add_output_0_splitncnn_4 /body/body.1/rdb1/lrelu/LeakyRelu_output_0_splitncnn_2 /body/body.1/rdb1/lrelu_1/LeakyRelu_output_0_splitncnn_2 /body/body.1/rdb1/Concat_1_output_0
Convolution              /body/body.1/rdb1/conv3/Conv 1 1 /body/body.1/rdb1/Concat_1_output_0 /body/body.1/rdb1/lrelu_2/LeakyRelu_output_0 0=32 1=3 4=1 5=1 6=36864 9=2 -23310=1,2.000000e-01
Split                    splitncnn_15             1 2 /body/body.1/rdb1/lrelu_2/LeakyRelu_output_0 /body/body.1/rdb1/lrelu_2/LeakyRelu_output_0_splitncnn_0 /body/body.1/rdb1/lrelu_2/LeakyRelu_output_0_splitncnn_1
Concat                   /body/body.1/rdb1/Concat_2 4 1 /body/body.0/Add_output_0_splitncnn_3 /body/body.1/rdb1/lrelu/LeakyRelu_output_0_splitncnn_1 /body/body.1/rdb1/lrelu_1/LeakyRelu_output_0_splitncnn_1 /body/body.1/rdb1/lrelu_2/LeakyRelu_output_0_splitncnn_1 /body/body.1/rdb1/Concat_2_output_0
Convolution              /body/body.1/rdb1/conv4/Conv 1 1 /body/body.1/rdb1/Concat_2_output_0 /body/body.1/rdb1/lrelu_3/LeakyRelu_output_0 0=32 1=3 4=1 5=1 6=46080 9=2 -23310=1,2.000000e-01
Concat                   /body/body.1/rdb1/Concat_3 5 1 /body/body.0/Add_output_0_splitncnn_2 /body/body.1/rdb1/lrelu/LeakyRelu_output_0_splitncnn_0 /body/body.1/rdb1/lrelu_1/LeakyRelu_output_0_splitncnn_0 /body/body.1/rdb1/lrelu_2/LeakyRelu_output_0_splitncnn_0 /body/body.1/rdb1/lrelu_3/LeakyRelu_output_0 /body/body.1/rdb1/Concat_3_output_0
Convolution              /body/body.1/rdb1/conv5/Conv 1 1 /body/body.1/rdb1/Concat_3_output_0 /body/body.1/rdb1/conv5/Conv_output_0 0=64 1=3 4=1 5=1 6=110592
Eltwise                  /body/body.1/rdb1/Add    2 1 /body/body.1/rdb1/conv5/Conv_output_0 /body/body.0/Add_output_0_splitncnn_1 /body/body.1/rdb1/Add_output_0 0=1 -23301=2,2.000000e-01,1.000000e+00
Split                    splitncnn_16             1 6 /body/body.1/rdb1/Add_output_0 /body/body.1/rdb1/Add_output_0_splitncnn_0 /body/body.1/rdb1/Add_output_0_splitncnn_1 /body/body.1/rdb1/Add_output_0_splitncnn_2 /body/body.1/rdb1/Add_output_0_splitncnn_3 /body/body.1/rdb1/Add_output_0_splitncnn_4 /body/body.1/rdb1/Add_output_0_splitncnn_5
Convolution              /body/body.1/rdb2/conv1/Conv 1 1 /body/body.1/rdb1/Add_output_0_splitncnn_5 /body/body.1/rdb2/lrelu/LeakyRelu_output_0 0=32 1=3 4=1 5=1 6=18432 9=2 -23310=1,2.000000e-01
Split                    splitncnn_17             1 4 /body/body.1/rdb2/lrelu/LeakyRelu_output_0 /body/body.1/rdb2/lrelu/LeakyRelu_output_0_splitncnn_0 /body/body.1/rdb2/lrelu/LeakyRelu_output_0_splitncnn_1 /body/body.1/rdb2/lrelu/LeakyRelu_output_0_splitncnn_2 /body/body.1/rdb2/lrelu/LeakyRelu_output_0_splitncnn_3
Concat                   /body/body.1/rdb2/Concat 2 1 /body/body.1/rdb1/Add_output_0_splitncnn_4 /body/body.1/rdb2/lrelu/LeakyRelu_output_0_splitncnn_3 /body/body.1/rdb2/Concat_output_0
Convolution              /body/body.1/rdb2/conv2/Conv 1 1 /body/body.1/rdb2/Concat_output_0 /body/body.1/rdb2/lrelu_1/LeakyRelu_output_0 0=32 1=3 4=1 5=1 6=27648 9=2 -23310=1,2.000000e-01
Split                    splitncnn_18             1 3 /body/body.1/rdb2/lrelu_1/LeakyRelu_output_0 /body/body.1/rdb2/lrelu_1/LeakyRelu_output_0_splitncnn_0 /body/body.1/rdb2/lrelu_1/LeakyRelu_output_0_splitncnn_1 /body/body.1/rdb2/lrelu_1/LeakyRelu_output_0_splitncnn_2
Concat                   /body/body.1/rdb2/Concat_1 3 1 /body/body.1/rdb1/Add_output_0_splitncnn_3 /body/body.1/rdb2/lrelu/LeakyRelu_output_0_splitncnn_2 /body/body.1/rdb2/lrelu_1/LeakyRelu_output_0_splitncnn_2 /body/body.1/rdb2/Concat_1_output_0
Convolution              /body/body.1/rdb2/conv3/Conv 1 1 /body/body.1/rdb2/Concat_1_output_0 /body/body.1/rdb2/lrelu_2/LeakyRelu_output_0 0=32 1=3 4=1 5=1 6=36864 9=2 -23310=1,2.000000e-01
Split                    splitncnn_19             1 2 /body/body.1/rdb2/lrelu_2/LeakyRelu_output_0 /body/body.1/rdb2/lrelu_2/LeakyRelu_output_0_splitncnn_0 /body/body.1/rdb2/lrelu_2/LeakyRelu_output_0_splitncnn_1
Concat                   /body/body.1/rdb2/Concat_2 4 1 /body/body.1/rdb1/Add_output_0_splitncnn_2 /body/body.1/rdb2/lrelu/LeakyRelu_output_0_splitncnn_1 /body/body.1/rdb2/lrelu_1/LeakyRelu_output_0_splitncnn_1 /body/body.1/rdb2/lrelu_2/LeakyRelu_output_0_splitncnn_1 /body/body.1/rdb2/Concat_2_output_0
Convolution              /body/body.1/rdb2/conv4/Conv 1 1 /body/body.1/rdb2/Concat_2_output_0 /body/body.1/rdb2/lrelu_3/LeakyRelu_output_0 0=32 1=3 4=1 5=1 6=46080 9=2 -23310=1,2.000000e-01
Concat                   /body/body.1/rdb2/Concat_3 5 1 /body/body.1/rdb1/Add_output_0_splitncnn_1 /body/body.1/rdb2/lrelu/LeakyRelu_output_0_splitncnn_0 /body/body.1/rdb2/lrelu_1/LeakyRelu_output_0_splitncnn_0 /body/body.1/rdb2/lrelu_2/LeakyRelu_output_0_splitncnn_0 /body/body.1/rdb2/lrelu_3/LeakyRelu_output_0 /body/body.1/rdb2/Concat_3_output_0
Convolution              /body/body.1/rdb2/conv5/Conv 1 1 /body/body.1/rdb2/Concat_3_output_0 /body/body.1/rdb2/conv5/Conv_output_0 0=64 1=3 4=1 5=1 6=110592
Eltwise                  /body/body.1/rdb2/Add    2 1 /body/body.1/rdb2/conv5/Conv_output_0 /body/body.1/rdb1/Add_output_0_splitncnn_0 /body/body.1/rdb2/Add_output_0 0=1 -23301=2,2.000000e-01,1.000000e+00
Split                    splitncnn_20             1 6 /body/body.1/rdb2/Add_output_0 /body/body.1/rdb2/Add_output_0_splitncnn_0 /body/body.1/rdb2/Add_output_0_splitncnn_1 /body/body.1/rdb2/Add_output_0_splitncnn_2 /body/body.1/rdb2/Add_output_0_splitncnn_3 /body/body.1/rdb2/Add_output_0_splitncnn_4 /body/body.1/rdb2/Add_output_0_splitncnn_5
Convolution              /body/body.1/rdb3/conv1/Conv 1 1 /body/body.1/rdb2/Add_output_0_splitncnn_5 /body/body.1/rdb3/lrelu/LeakyRelu_output_0 0=32 1=3 4=1 5=1 6=18432 9=2 -23310=1,2.000000e-01
Split                    splitncnn_21             1 4 /body/body.1/rdb3/lrelu/LeakyRelu_output_0 /body/body.1/rdb3/lrelu/LeakyRelu_output_0_splitncnn_0 /body/body.1/rdb3/lrelu/LeakyRelu_output_0_splitncnn_1 /body/body.1/rdb3/lrelu/LeakyRelu_output_0_splitncnn_2 /body/body.1/rdb3/lrelu/LeakyRelu_output_0_splitncnn_3
Concat                   /body/body.1/rdb3/Concat 2 1 /body/body.1/rdb2/Add_output_0_splitncnn_4 /body/body.1/rdb3/lrelu/LeakyRelu_output_0_splitncnn_3 /body/body.1/rdb3/Concat_output_0
Convolution              /body/body.1/rdb3/conv2/Conv 1 1 /body/body.1/rdb3/Concat_output_0 /body/body.1/rdb3/lrelu_1/LeakyRelu_output_0 0=32 1=3 4=1 5=1 6=27648 9=2 -23310=1,2.000000e-01
Split                    splitncnn_22             1 3 /body/body.1/rdb3/lrelu_1/LeakyRelu_output_0 /body/body.1/rdb3/lrelu_1/LeakyRelu_output_0_splitncnn_0 /body/body.1/rdb3/lrelu_1/LeakyRelu_output_0_splitncnn_1 /body/body.1/rdb3/lrelu_1/LeakyRelu_output_0_splitncnn_2
Concat                   /body/body.1/rdb3/Concat_1 3 1 /body/body.1/rdb2/Add_output_0_splitncnn_3 /body/body.1/rdb3/lrelu/LeakyRelu_output_0_splitncnn_2 /body/body.1/rdb3/lrelu_1/LeakyRelu_output_0_splitncnn_2 /body/body.1/rdb3/Concat_1_output_0
Convolution              /body/body.1/rdb3/conv3/Conv 1 1 /body/body.1/rdb3/Concat_1_output_0 /body/body.1/rdb3/lrelu_2/LeakyRelu_output_0 0=32 1=3 4=1 5=1 6=36864 9=2 -23310=1,2.000000e-01
Split                    splitncnn_23             1 2 /body/body.1/rdb3/lrelu_2/LeakyRelu_output_0 /body/body.1/rdb3/lrelu_2/LeakyRelu_output_0_splitncnn_0 /body/body.1/rdb3/lrelu_2/LeakyRelu_output_0_splitncnn_1
Concat                   /body/body.1/rdb3/Concat_2 4 1 /body/body.1/rdb2/Add_output_0_splitncnn_2 /body/body.1/rdb3/lrelu/LeakyRelu_output_0_splitncnn_1 /body/body.1/rdb3/lrelu_1/LeakyRelu_output_0_splitncnn_1 /body/body.1/rdb3/lrelu_2/LeakyRelu_output_0_splitncnn_1 /body/body.1/rdb3/Concat_2_output_0
Convolution              /body/body.1/rdb3/conv4/Conv 1 1 /body/body.1/rdb3/Concat_2_output_0 /body/body.1/rdb3/lrelu_3/LeakyRelu_output_0 0=32 1=3 4=1 5=1 6=46080 9=2 -23310=1,2.000000e-01
Concat                   /body/body.1/rdb3/Concat_3 5 1 /body/body.1/rdb2/Add_output_0_splitncnn_1 /body/body.1/rdb3/lrelu/LeakyRelu_output_0_splitncnn_0 /body/body.1/rdb3/lrelu_1/LeakyRelu_output_0_splitncnn_0 /body/body.1/rdb3/lrelu_2/LeakyRelu_output_0_splitncnn_0 /body/body.1/rdb3/lrelu_3/LeakyRelu_output_0 /body/body.1/rdb3/Concat_3_output_0
Convolution              /body/body.1/rdb3/conv5/Conv 1 1 /body/body.1/rdb3/Concat_3_output_0 /body/body.1/rdb3/conv5/Conv_output_0 0=64 1=3 4=1 5=1 6=110592
Eltwise                  /body/body.1/rdb3/Add    2 1 /body/body.1/rdb3/conv5/Conv_output_0 /body/body.1/rdb2/Add_output_0_splitncnn_0 /body/body.1/rdb3/Add_output_0 0=1 -23301=2,2.000000e-01,1.000000e+00
Eltwise                  /body/body.1/Add         2 1 /body/body.1/rdb3/Add_output_0 /body/body.0/Add_output_0_splitncnn_0 /body/body.1/Add_output_0 0=1 -23301=2,2.000000e-01,1.000000e+00
Split                    splitncnn_24             1 7 /body/body.1/Add_output_0 /body/body.1/Add_output_0_splitncnn_0 /body/body.1/Add_output_0_splitncnn_1 /body/body.1/Add_output_0_splitncnn_2 /body/body.1/Add_output_0_splitncnn_3 /body/body.1/Add_output_0_splitncnn_4 /body/body.1/Add_output_0_splitncnn_5 /body/body.1/Add_output_0_splitncnn_6
Convolution              /body/body.2/rdb1/conv1/Conv 1 1 /body/body.1/Add_output_0_splitncnn_6 /body/body.2/rdb1/lrelu/LeakyRelu_output_0 0=32 1=3 4=1 5=1 6=18432 9=2 -23310=1,2.000000e-01
Split                    splitncnn_25             1 4 /body/body.2/rdb1/lrelu/LeakyRelu_output_0 /body/body.2/rdb1/lrelu/LeakyRelu_output_0_splitncnn_0 /body/body.2/rdb1/lrelu/LeakyRelu_output_0_splitncnn_1 /body/body.2/rdb1/lrelu/LeakyRelu_output_0_splitncnn_2 /body/body.2/rdb1/lrelu/LeakyRelu_output_0_splitncnn_3
Concat                   /body/body.2/rdb1/Concat 2 1 /body/body.1/Add_output_0_splitncnn_5 /body/body.2/rdb1/lrelu/LeakyRelu_output_0_splitncnn_3 /body/body.2/rdb1/Concat_output_0
Convolution              /body/body.2/rdb1/conv2/Conv 1 1 /body/body.2/rdb1/Concat_output_0 /body/body.2/rdb1/lrelu_1/LeakyRelu_output_0 0=32 1=3 4=1 5=1 6=27648 9=2 -23310=1,2.000000e-01
Split                    splitncnn_26             1 3 /body/body.2/rdb1/lrelu_1/LeakyRelu_output_0 /body/body.2/rdb1/lrelu_1/LeakyRelu_output_0_splitncnn_0 /body/body.2/rdb1/lrelu_1/LeakyRelu_output_0_splitncnn_1 /body/body.2/rdb1/lrelu_1/LeakyRelu_output_0_splitncnn_2
Concat                   /body/body.2/rdb1/Concat_1 3 1 /body/body.1/Add_output_0_splitncnn_4 /body/body.2/rdb1/lrelu/LeakyRelu_output_0_splitncnn_2 /body/body.2/rdb1/lrelu_1/LeakyRelu_output_0_splitncnn_2 /body/body.2/rdb1/Concat_1_output_0
Convolution              /body/body.2/rdb1/conv3/Conv 1 1 /body/body.2/rdb1/Concat_1_output_0 /body/body.2/rdb1/lrelu_2/LeakyRelu_output_0 0=32 1=3 4=1 5=1 6=36864 9=2 -23310=1,2.000000e-01
Split                    splitncnn_27             1 2 /body/body.2/rdb1/lrelu_2/LeakyRelu_output_0 /body/body.2/rdb1/lrelu_2/LeakyRelu_output_0_splitncnn_0 /body/body.2/rdb1/lrelu_2/LeakyRelu_output_0_splitncnn_1
Concat                   /body/body.2/rdb1/Concat_2 4 1 /body/body.1/Add_output_0_splitncnn_3 /body/body.2/rdb1/lrelu/LeakyRelu_output_0_splitncnn_1 /body/body.2/rdb1/lrelu_1/LeakyRelu_output_0_splitncnn_1 /body/body.2/rdb1/lrelu_2/LeakyRelu_output_0_splitncnn_1 /body/body.2/rdb1/Concat_2_output_0
Convolution              /body/body.2/rdb1/conv4/Conv 1 1 /body/body.2/rdb1/Concat_2_output_0 /body/body.2/rdb1/lrelu_3/LeakyRelu_output_0 0=32 1=3 4=1 5=1 6=46080 9=2 -23310=1,2.000000e-01
Concat                   /body/body.2/rdb1/Concat_3 5 1 /body/body.1/Add_output_0_splitncnn_2 /body/body.2/rdb1/lrelu/LeakyRelu_output_0_splitncnn_0 /body/body.2/rdb1/lrelu_1/LeakyRelu_output_0_splitncnn_0 /body/body.2/rdb1/lrelu_2/LeakyRelu_output_0_splitncnn_0 /body/body.2/rdb1/lrelu_3/LeakyRelu_output_0 /body/body.2/rdb1/Concat_3_output_0
Convolution              /body/body.2/rdb1/conv5/Conv 1 1 /body/body.2/rdb1/Concat_3_output_0 /body/body.2/rdb1/conv5/Conv_output_0 0=64 1=3 4=1 5=1 6=110592
Eltwise                  /body/body.2/rdb1/Add    2 1 /body/body.2/rdb1/conv5/Conv_output_0 /body/body.1/Add_output_0_splitncnn_1 /body/body.2/rdb1/Add_output_0 0=1 -23301=2,2.000000e-01,1.000000e+00
Split                    splitncnn_28             1 6 /body/body.2/rdb1/Add_output_0 /body/body.2/rdb1/Add_output_0_splitncnn_0 /body/body.2/rdb1/Add_output_0_splitncnn_1 /body/body.2/rdb1/Add_output_0_splitncnn_2 /body/body.2/rdb1/Add_output_0_splitncnn_3 /body/body.2/rdb1/Add_output_0_splitncnn_4 /body/body.2/rdb1/Add_output_0_splitncnn_5
Convolution              /body/body.2/rdb2/conv1/Conv 1 1 /body/body.2/rdb1/Add_output_0_splitncnn_5 /body/body.2/rdb2/lrelu/LeakyRelu_output_0 0=32 1=3 4=1 5=1 6=18432 9=2 -23310=1,2.000000e-01
Split                    splitncnn_29             1 4 /body/body.2/rdb2/lrelu/LeakyRelu_output_0 /body/body.2/rdb2/lrelu/LeakyRelu_output_0_splitncnn_0 /body/body.2/rdb2/lrelu/LeakyRelu_output_0_splitncnn_1 /body/body.2/rdb2/lrelu/LeakyRelu_output_0_splitncnn_2 /body/body.2/rdb2/lrelu/LeakyRelu_output_0_splitncnn_3
Concat                   /body/body.2/rdb2/Concat 2 1 /body/body.2/rdb1/Add_output_0_splitncnn_4 /body/body.2/rdb2/lrelu/LeakyRelu_output_0_splitncnn_3 /body/body.2/rdb2/Concat_output_0
Convolution              /body/body.2/rdb2/conv2/Conv 1 1 /body/body.2/rdb2/Concat_output_0 /body/body.2/rdb2/lrelu_1/LeakyRelu_output_0 0=32 1=3 4=1 5=1 6=27648 9=2 -23310=1,2.000000e-01
Split                    splitncnn_30             1 3 /body/body.2/rdb2/lrelu_1/LeakyRelu_output_0 /body/body.2/rdb2/lrelu_1/LeakyRelu_output_0_splitncnn_0 /body/body.2/rdb2/lrelu_1/LeakyRelu_output_0_splitncnn_1 /body/body.2/rdb2/lrelu_1/LeakyRelu_output_0_splitncnn_2
Concat                   /body/body.2/rdb2/Concat_1 3 1 /body/body.2/rdb1/Add_output_0_splitncnn_3 /body/body.2/rdb2/lrelu/LeakyRelu_output_0_splitncnn_2 /body/body.2/rdb2/lrelu_1/LeakyRelu_output_0_splitncnn_2 /body/body.2/rdb2/Concat_1_output_0
Convolution              /body/body.2/rdb2/conv3/Conv 1 1 /body/body.2/rdb2/Concat_1_output_0 /body/body.2/rdb2/lrelu_2/LeakyRelu_output_0 0=32 1=3 4=1 5=1 6=36864 9=2 -23310=1,2.000000e-01
Split                    splitncnn_31             1 2 /body/body.2/rdb2/lrelu_2/LeakyRelu_output_0 /body/body.2/rdb2/lrelu_2/LeakyRelu_output_0_splitncnn_0 /body/body.2/rdb2/lrelu_2/LeakyRelu_output_0_splitncnn_1
Concat                   /body/body.2/rdb2/Concat_2 4 1 /body/body.2/rdb1/Add_output_0_splitncnn_2 /body/body.2/rdb2/lrelu/LeakyRelu_output_0_splitncnn_1 /body/body.2/rdb2/lrelu_1/LeakyRelu_output_0_splitncnn_1 /body/body.2/rdb2/lrelu_2/LeakyRelu_output_0_splitncnn_1 /body/body.2/rdb2/Concat_2_output_0
Convolution              /body/body.2/rdb2/conv4/Conv 1 1 /body/body.2/rdb2/Concat_2_output_0 /body/body.2/rdb2/lrelu_3/LeakyRelu_output_0 0=32 1=3 4=1 5=1 6=46080 9=2 -23310=1,2.000000e-01
Concat                   /body/body.2/rdb2/Concat_3 5 1 /body/body.2/rdb1/Add_output_0_splitncnn_1 /body/body.2/rdb2/lrelu/LeakyRelu_output_0_splitncnn_0 /body/body.2/rdb2/lrelu_1/LeakyRelu_output_0_splitncnn_0 /body/body.2/rdb2/lrelu_2/LeakyRelu_output_0_splitncnn_0 /body/body.2/rdb2/lrelu_3/LeakyRelu_output_0 /body/body.2/rdb2/Concat_3_output_0
Convolution              /body/body.2/rdb2/conv5/Conv 1 1 /body/body.2/rdb2/Concat_3_output_0 /body/body.2/rdb2/conv5/Conv_output_0 0=64 1=3 4=1 5=1 6=110592
Eltwise                  /body/body.2/rdb2/Add    2 1 /body/body.2/rdb2/conv5/Conv_output_0 /body/body.2/rdb1/Add_output_0_splitncnn_0 /body/body.2/rdb2/Add_output_0 0=1 -23301=2,2.000000e-01,1.000000e+00
Split                    splitncnn_32             1 6 /body/body.2/rdb2/Add_output_0 /body/body.2/rdb2/Add_output_0_splitncnn_0 /body/body.2/rdb2/Add_output_0_splitncnn_1 /body/body.2/rdb2/Add_output_0_splitncnn_2 /body/body.2/rdb2/Add_output_0_splitncnn_3 /body/body.2/rdb2/Add_output_0_splitncnn_4 /body/body.2/rdb2/Add_output_0_splitncnn_5
Convolution              /body/body.2/rdb3/conv1/Conv 1 1 /body/body.2/rdb2/Add_output_0_splitncnn_5 /body/body.2/rdb3/lrelu/LeakyRelu_output_0 0=32 1=3 4=1 5=1 6=18432 9=2 -23310=1,2.000000e-01
Split                    splitncnn_33             1 4 /body/body.2/rdb3/lrelu/LeakyRelu_output_0 /body/body.2/rdb3/lrelu/LeakyRelu_output_0_splitncnn_0 /body/body.2/rdb3/lrelu/LeakyRelu_output_0_splitncnn_1 /body/body.2/rdb3/lrelu/LeakyRelu_output_0_splitncnn_2 /body/body.2/rdb3/lrelu/LeakyRelu_output_0_splitncnn_3
Concat                   /body/body.2/rdb3/Concat 2 1 /body/body.2/rdb2/Add_output_0_splitncnn_4 /body/body.2/rdb3/lrelu/LeakyRelu_output_0_splitncnn_3 /body/body.2/rdb3/Concat_output_0
Convolution              /body/body.2/rdb3/conv2/Conv 1 1 /body/body.2/rdb3/Concat_output_0 /body/body.2/rdb3/lrelu_1/LeakyRelu_output_0 0=32 1=3 4=1 5=1 6=27648 9=2 -23310=1,2.000000e-01
Split                    splitncnn_34             1 3 /body/body.2/rdb3/lrelu_1/LeakyRelu_output_0 /body/body.2/rdb3/lrelu_1/LeakyRelu_output_0_splitncnn_0 /body/body.2/rdb3/lrelu_1/LeakyRelu_output_0_splitncnn_1 /body/body.2/rdb3/lrelu_1/LeakyRelu_output_0_splitncnn_2
Concat                   /body/body.2/rdb3/Concat_1 3 1 /body/body.2/rdb2/Add_output_0_splitncnn_3 /body/body.2/rdb3/lrelu/LeakyRelu_output_0_splitncnn_2 /body/body.2/rdb3/lrelu_1/LeakyRelu_output_0_splitncnn_2 /body/body.2/rdb3/Concat_1_output_0
Convolution              /body/body.2/rdb3/conv3/Conv 1 1 /body/body.2/rdb3/Concat_1_output_0 /body/body.2/rdb3/lrelu_2/LeakyRelu_output_0 0=32 1=3 4=1 5=1 6=36864 9=2 -23310=1,2.000000e-01
Split                    splitncnn_35             1 2 /body/body.2/rdb3/lrelu_2/LeakyRelu_output_0 /body/body.2/rdb3/lrelu_2/LeakyRelu_output_0_splitncnn_0 /body/body.2/rdb3/lrelu_2/LeakyRelu_output_0_splitncnn_1
Concat                   /body/body.2/rdb3/Concat_2 4 1 /body/body.2/rdb2/Add_output_0_splitncnn_2 /body/body.2/rdb3/lrelu/LeakyRelu_output_0_splitncnn_1 /body/body.2/rdb3/lrelu_1/LeakyRelu_output_0_splitncnn_1 /body/body.2/rdb3/lrelu_2/LeakyRelu_output_0_splitncnn_1 /body/body.2/rdb3/Concat_2_output_0
Convolution              /body/body.2/rdb3/conv4/Conv 1 1 /body/body.2/rdb3/Concat_2_output_0 /body/body.2/rdb3/lrelu_3/LeakyRelu_output_0 0=32 1=3 4=1 5=1 6=46080 9=2 -23310=1,2.000000e-01
Concat                   /body/body.2/rdb3/Concat_3 5 1 /body/body.2/rdb2/Add_output_0_splitncnn_1 /body/body.2/rdb3/lrelu/LeakyRelu_output_0_splitncnn_0 /body/body.2/rdb3/lrelu_1/LeakyRelu_output_0_splitncnn_0 /body/body.2/rdb3/lrelu_2/LeakyRelu_output_0_splitncnn_0 /body/body.2/rdb3/lrelu_3/LeakyRelu_output_0 /body/body.2/rdb3/Concat_3_output_0
Convolution              /body/body.2/rdb3/conv5/Conv 1 1 /body/body.2/rdb3/Concat_3_output_0 /body/body.2/rdb3/conv5/Conv_output_0 0=64 1=3 4=1 5=1 6=110592
Eltwise                  /body/body.2/rdb3/Add    2 1 /body/body.2/rdb3/conv5/Conv_output_0 /body/body.2/rdb2/Add_output_0_splitncnn_0 /body/body.2/rdb3/Add_output_0 0=1 -23301=2,2.000000e-01,1.000000e+00
Eltwise                  /body/body.2/Add         2 1 /body/body.2/rdb3/Add_output_0 /body/body.1/Add_output_0_splitncnn_0 /body/body.2/Add_output_0 0=1 -23301=2,2.000000e-01,1.000000e+00
Split                    splitncnn_36             1 7 /body/body.2/Add_output_0 /body/body.2/Add_output_0_splitncnn_0 /body/body.2/Add_output_0_splitncnn_1 /body/body.2/Add_output_0_splitncnn_2 /body/body.2/Add_output_0_splitncnn_3 /body/body.2/Add_output_0_splitncnn_4 /body/body.2/Add_output_0_splitncnn_5 /body/body.2/Add_output_0_splitncnn_6
Convolution              /body/body.3/rdb1/conv1/Conv 1 1 /body/body.2/Add_output_0_splitncnn_6 /body/body.3/rdb1/lrelu/LeakyRelu_output_0 0=32 1=3 4=1 5=1 6=18432 9=2 -23310=1,2.000000e-01
Split                    splitncnn_37             1 4 /body/body.3/rdb1/lrelu/LeakyRelu_output_0 /body/body.3/rdb1/lrelu/LeakyRelu_output_0_splitncnn_0 /body/body.3/rdb1/lrelu/LeakyRelu_output_0_splitncnn_1 /body/body.3/rdb1/lrelu/LeakyRelu_output_0_splitncnn_2 /body/body.3/rdb1/lrelu/LeakyRelu_output_0_splitncnn_3
Concat                   /body/body.3/rdb1/Concat 2 1 /body/body.2/Add_output_0_splitncnn_5 /body/body.3/rdb1/lrelu/LeakyRelu_output_0_splitncnn_3 /body/body.3/rdb1/Concat_output_0
Convolution              /body/body.3/rdb1/conv2/Conv 1 1 /body/body.3/rdb1/Concat_output_0 /body/body.3/rdb1/lrelu_1/LeakyRelu_output_0 0=32 1=3 4=1 5=1 6=27648 9=2 -23310=1,2.000000e-01
Split                    splitncnn_38             1 3 /body/body.3/rdb1/lrelu_1/LeakyRelu_output_0 /body/body.3/rdb1/lrelu_1/LeakyRelu_output_0_splitncnn_0 /body/body.3/rdb1/lrelu_1/LeakyRelu_output_0_splitncnn_1 /body/body.3/rdb1/lrelu_1/LeakyRelu_output_0_splitncnn_2
Concat                   /body/body.3/rdb1/Concat_1 3 1 /body/body.2/Add_output_0_splitncnn_4 /body/body.3/rdb1/lrelu/LeakyRelu_output_0_splitncnn_2 /body/body.3/rdb1/lrelu_1/LeakyRelu_output_0_splitncnn_2 /body/body.3/rdb1/Concat_1_output_0
Convolution              /body/body.3/rdb1/conv3/Conv 1 1 /body/body.3/rdb1/Concat_1_output_0 /body/body.3/rdb1/lrelu_2/LeakyRelu_output_0 0=32 1=3 4=1 5=1 6=36864 9=2 -23310=1,2.000000e-01
Split                    splitncnn_39             1 2 /body/body.3/rdb1/lrelu_2/LeakyRelu_output_0 /body/body.3/rdb1/lrelu_2/LeakyRelu_output_0_splitncnn_0 /body/body.3/rdb1/lrelu_2/LeakyRelu_output_0_splitncnn_1
Concat                   /body/body.3/rdb1/Concat_2 4 1 /body/body.2/Add_output_0_splitncnn_3 /body/body.3/rdb1/lrelu/LeakyRelu_output_0_splitncnn_1 /body/body.3/rdb1/lrelu_1/LeakyRelu_output_0_splitncnn_1 /body/body.3/rdb1/lrelu_2/LeakyRelu_output_0_splitncnn_1 /body/body.3/rdb1/Concat_2_output_0
Convolution              /body/body.3/rdb1/conv4/Conv 1 1 /body/body.3/rdb1/Concat_2_output_0 /body/body.3/rdb1/lrelu_3/LeakyRelu_output_0 0=32 1=3 4=1 5=1 6=46080 9=2 -23310=1,2.000000e-01
Concat                   /body/body.3/rdb1/Concat_3 5 1 /body/body.2/Add_output_0_splitncnn_2 /body/body.3/rdb1/lrelu/LeakyRelu_output_0_splitncnn_0 /body/body.3/rdb1/lrelu_1/LeakyRelu_output_0_splitncnn_0 /body/body.3/rdb1/lrelu_2/LeakyRelu_output_0_splitncnn_0 /body/body.3/rdb1/lrelu_3/LeakyRelu_output_0 /body/body.3/rdb1/Concat_3_output_0
Convolution              /body/body.3/rdb1/conv5/Conv 1 1 /body/body.3/rdb1/Concat_3_output_0 /body/body.3/rdb1/conv5/Conv_output_0 0=64 1=3 4=1 5=1 6=110592
Eltwise                  /body/body.3/rdb1/Add    2 1 /body/body.3/rdb1/conv5/Conv_output_0 /body/body.2/Add_output_0_splitncnn_1 /body/body.3/rdb1/Add_output_0 0=1 -23301=2,2.000000e-01,1.000000e+00
Split                    splitncnn_40             1 6 /body/body.3/rdb1/Add_output_0 /body/body.3/rdb1/Add_output_0_splitncnn_0 /body/body.3/rdb1/Add_output_0_splitncnn_1 /body/body.3/rdb1/Add_output_0_splitncnn_2 /body/body.3/rdb1/Add_output_0_splitncnn_3 /body/body.3/rdb1/Add_output_0_splitncnn_4 /body/body.3/rdb1/Add_output_0_splitncnn_5
Convolution              /body/body.3/rdb2/conv1/Conv 1 1 /body/body.3/rdb1/Add_output_0_splitncnn_5 /body/body.3/rdb2/lrelu/LeakyRelu_output_0 0=32 1=3 4=1 5=1 6=18432 9=2 -23310=1,2.000000e-01
Split                    splitncnn_41             1 4 /body/body.3/rdb2/lrelu/LeakyRelu_output_0 /body/body.3/rdb2/lrelu/LeakyRelu_output_0_splitncnn_0 /body/body.3/rdb2/lrelu/LeakyRelu_output_0_splitncnn_1 /body/body.3/rdb2/lrelu/LeakyRelu_output_0_splitncnn_2 /body/body.3/rdb2/lrelu/LeakyRelu_output_0_splitncnn_3
Concat                   /body/body.3/rdb2/Concat 2 1 /body/body.3/rdb1/Add_output_0_splitncnn_4 /body/body.3/rdb2/lrelu/LeakyRelu_output_0_splitncnn_3 /body/body.3/rdb2/Concat_output_0
Convolution              /body/body.3/rdb2/conv2/Conv 1 1 /body/body.3/rdb2/Concat_output_0 /body/body.3/rdb2/lrelu_1/LeakyRelu_output_0 0=32 1=3 4=1 5=1 6=27648 9=2 -23310=1,2.000000e-01
Split                    splitncnn_42             1 3 /body/body.3/rdb2/lrelu_1/LeakyRelu_output_0 /body/body.3/rdb2/lrelu_1/LeakyRelu_output_0_splitncnn_0 /body/body.3/rdb2/lrelu_1/LeakyRelu_output_0_splitncnn_1 /body/body.3/rdb2/lrelu_1/LeakyRelu_output_0_splitncnn_2
Concat                   /body/body.3/rdb2/Concat_1 3 1 /body/body.3/rdb1/Add_output_0_splitncnn_3 /body/body.3/rdb2/lrelu/LeakyRelu_output_0_splitncnn_2 /body/body.3/rdb2/lrelu_1/LeakyRelu_output_0_splitncnn_2 /body/body.3/rdb2/Concat_1_output_0
Convolution              /body/body.3/rdb2/conv3/Conv 1 1 /body/body.3/rdb2/Concat_1_output_0 /body/body.3/rdb2/lrelu_2/LeakyRelu_output_0 0=32 1=3 4=1 5=1 6=36864 9=2 -23310=1,2.000000e-01
Split                    splitncnn_43             1 2 /body/body.3/rdb2/lrelu_2/LeakyRelu_output_0 /body/body.3/rdb2/lrelu_2/LeakyRelu_output_0_splitncnn_0 /body/body.3/rdb2/lrelu_2/LeakyRelu_output_0_splitncnn_1
Concat                   /body/body.3/rdb2/Concat_2 4 1 /body/body.3/rdb1/Add_output_0_splitncnn_2 /body/body.3/rdb2/lrelu/LeakyRelu_output_0_splitncnn_1 /body/body.3/rdb2/lrelu_1/LeakyRelu_output_0_splitncnn_1 /body/body.3/rdb2/lrelu_2/LeakyRelu_output_0_splitncnn_1 /body/body.3/rdb2/Concat_2_output_0
Convolution              /body/body.3/rdb2/conv4/Conv 1 1 /body/body.3/rdb2/Concat_2_output_0 /body/body.3/rdb2/lrelu_3/LeakyRelu_output_0 0=32 1=3 4=1 5=1 6=46080 9=2 -23310=1,2.000000e-01
Concat                   /body/body.3/rdb2/Concat_3 5 1 /body/body.3/rdb1/Add_output_0_splitncnn_1 /body/body.3/rdb2/lrelu/LeakyRelu_output_0_splitncnn_0 /body/body.3/rdb2/lrelu_1/LeakyRelu_output_0_splitncnn_0 /body/body.3/rdb2/lrelu_2/LeakyRelu_output_0_splitncnn_0 /body/body.3/rdb2/lrelu_3/LeakyRelu_output_0 /body/body.3/rdb2/Concat_3_output_0
Convolution              /body/body.3/rdb2/conv5/Conv 1 1 /body/body.3/rdb2/Concat_3_output_0 /body/body.3/rdb2/conv5/Conv_output_0 0=64 1=3 4=1 5=1 6=110592
Eltwise                  /body/body.3/rdb2/Add    2 1 /body/body.3/rdb2/conv5/Conv_output_0 /body/body.3/rdb1/Add_output_0_splitncnn_0 /body/body.3/rdb2/Add_output_0 0=1 -23301=2,2.000000e-01,1.000000e+00
Split                    splitncnn_44             1 6 /body/body.3/rdb2/Add_output_0 /body/body.3/rdb2/Add_output_0_splitncnn_0 /body/body.3/rdb2/Add_output_0_splitncnn_1 /body/body.3/rdb2/Add_output_0_splitncnn_2 /body/body.3/rdb2/Add_output_0_splitncnn_3 /body/body.3/rdb2/Add_output_0_splitncnn_4 /body/body.3/rdb2/Add_output_0_splitncnn_5
Convolution              /body/body.3/rdb3/conv1/Conv 1 1 /body/body.3/rdb2/Add_output_0_splitncnn_5 /body/body.3/rdb3/lrelu/LeakyRelu_output_0 0=32 1=3 4=1 5=1 6=18432 9=2 -23310=1,2.000000e-01
Split                    splitncnn_45             1 4 /body/body.3/rdb3/lrelu/LeakyRelu_output_0 /body/body.3/rdb3/lrelu/LeakyRelu_output_0_splitncnn_0 /body/body.3/rdb3/lrelu/LeakyRelu_output_0_splitncnn_1 /body/body.3/rdb3/lrelu/LeakyRelu_output_0_splitncnn_2 /body/body.3/rdb3/lrelu/LeakyRelu_output_0_splitncnn_3
Concat                   /body/body.3/rdb3/Concat 2 1 /body/body.3/rdb2/Add_output_0_splitncnn_4 /body/body.3/rdb3/lrelu/LeakyRelu_output_0_splitncnn_3 /body/body.3/rdb3/Concat_output_0
Convolution              /body/body.3/rdb3/conv2/Conv 1 1 /body/body.3/rdb3/Concat_output_0 /body/body.3/rdb3/lrelu_1/LeakyRelu_output_0 0=32 1=3 4=1 5=1 6=27648 9=2 -23310=1,2.000000e-01
Split                    splitncnn_46             1 3 /body/body.3/rdb3/lrelu_1/LeakyRelu_output_0 /body/body.3/rdb3/lrelu_1/LeakyRelu_output_0_splitncnn_0 /body/body.3/rdb3/lrelu_1/LeakyRelu_output_0_splitncnn_1 /body/body.3/rdb3/lrelu_1/LeakyRelu_output_0_splitncnn_2
Concat                   /body/body.3/rdb3/Concat_1 3 1 /body/body.3/rdb2/Add_output_0_splitncnn_3 /body/body.3/rdb3/lrelu/LeakyRelu_output_0_splitncnn_2 /body/body.3/rdb3/lrelu_1/LeakyRelu_output_0_splitncnn_2 /body/body.3/rdb3/Concat_1_output_0
Convolution              /body/body.3/rdb3/conv3/Conv 1 1 /body/body.3/rdb3/Concat_1_output_0 /body/body.3/rdb3/lrelu_2/LeakyRelu_output_0 0=32 1=3 4=1 5=1 6=36864 9=2 -23310=1,2.000000e-01
Split                    splitncnn_47             1 2 /body/body.3/rdb3/lrelu_2/LeakyRelu_output_0 /body/body.3/rdb3/lrelu_2/LeakyRelu_output_0_splitncnn_0 /body/body.3/rdb3/lrelu_2/LeakyRelu_output_0_splitncnn_1
Concat                   /body/body.3/rdb3/Concat_2 4 1 /body/body.3/rdb2/Add_output_0_splitncnn_2 /body/body.3/rdb3/lrelu/LeakyRelu_output_0_splitncnn_1 /body/body.3/rdb3/lrelu_1/LeakyRelu_output_0_splitncnn_1 /body/body.3/rdb3/lrelu_2/LeakyRelu_output_0_splitncnn_1 /body/body.3/rdb3/Concat_2_output_0
Convolution              /body/body.3/rdb3/conv4/Conv 1 1 /body/body.3/rdb3/Concat_2_output_0 /body/body.3/rdb3/lrelu_3/LeakyRelu_output_0 0=32 1=3 4=1 5=1 6=46080 9=2 -23310=1,2.000000e-01
Concat                   /body/body.3/rdb3/Concat_3 5 1 /body/body.3/rdb2/Add_output_0_splitncnn_1 /body/body.3/rdb3/lrelu/LeakyRelu_output_0_splitncnn_0 /body/body.3/rdb3/lrelu_1/LeakyRelu_output_0_splitncnn_0 /body/body.3/rdb3/lrelu_2/LeakyRelu_output_0_splitncnn_0 /body/body.3/rdb3/lrelu_3/LeakyRelu_output_0 /body/body.3/rdb3/Concat_3_output_0
Convolution              /body/body.3/rdb3/conv5/Conv 1 1 /body/body.3/rdb3/Concat_3_output_0 /body/body.3/rdb3/conv5/Conv_output_0 0=64 1=3 4=1 5=1 6=110592
Eltwise                  /body/body.3/rdb3/Add    2 1 /body/body.3/rdb3/conv5/Conv_output_0 /body/body.3/rdb2/Add_output_0_splitncnn_0 /body/body.3/rdb3/Add_output_0 0=1 -23301=2,2.000000e-01,1.000000e+00
Eltwise                  /body/body.3/Add         2 1 /body/body.3/rdb3/Add_output_0 /body/body.2/Add_output_0_splitncnn_0 /body/body.3/Add_output_0 0=1 -23301=2,2.000000e-01,1.000000e+00
Split                    splitncnn_48             1 7 /body/body.3/Add_output_0 /body/body.3/Add_output_0_splitncnn_0 /body/body.3/Add_output_0_splitncnn_1 /body/body.3/Add_output_0_splitncnn_2 /body/body.3/Add_output_0_splitncnn_3 /body/body.3/Add_output_0_splitncnn_4 /body/body.3/Add_output_0_splitncnn_5 /body/body.3/Add_output_0_splitncnn_6
Convolution              /body/body.4/rdb1/conv1/Conv 1 1 /body/body.3/Add_output_0_splitncnn_6 /body/body.4/rdb1/lrelu/LeakyRelu_output_0 0=32 1=3 4=1 5=1 6=18432 9=2 -23310=1,2.000000e-01
Split                    splitncnn_49             1 4 /body/body.4/rdb1/lrelu/LeakyRelu_output_0 /body/body.4/rdb1/lrelu/LeakyRelu_output_0_splitncnn_0 /body/body.4/rdb1/lrelu/LeakyRelu_output_0_splitncnn_1 /body/body.4/rdb1/lrelu/LeakyRelu_output_0_splitncnn_2 /body/body.4/rdb1/lrelu/LeakyRelu_output_0_splitncnn_3
Concat                   /body/body.4/rdb1/Concat 2 1 /body/body.3/Add_output_0_splitncnn_5 /body/body.4/rdb1/lrelu/LeakyRelu_output_0_splitncnn_3 /body/body.4/rdb1/Concat_output_0
Convolution              /body/body.4/rdb1/conv2/Conv 1 1 /body/body.4/rdb1/Concat_output_0 /body/body.4/rdb1/lrelu_1/LeakyRelu_output_0 0=32 1=3 4=1 5=1 6=27648 9=2 -23310=1,2.000000e-01
Split                    splitncnn_50             1 3 /body/body.4/rdb1/lrelu_1/LeakyRelu_output_0 /body/body.4/rdb1/lrelu_1/LeakyRelu_output_0_splitncnn_0 /body/body.4/rdb1/lrelu_1/LeakyRelu_output_0_splitncnn_1 /body/body.4/rdb1/lrelu_1/LeakyRelu_output_0_splitncnn_2
Concat                   /body/body.4/rdb1/Concat_1 3 1 /body/body.3/Add_output_0_splitncnn_4 /body/body.4/rdb1/lrelu/LeakyRelu_output_0_splitncnn_2 /body/body.4/rdb1/lrelu_1/LeakyRelu_output_0_splitncnn_2 /body/body.4/rdb1/Concat_1_output_0
Convolution              /body/body.4/rdb1/conv3/Conv 1 1 /body/body.4/rdb1/Concat_1_output_0 /body/body.4/rdb1/lrelu_2/LeakyRelu_output_0 0=32 1=3 4=1 5=1 6=36864 9=2 -23310=1,2.000000e-01
Split                    splitncnn_51             1 2 /body/body.4/rdb1/lrelu_2/LeakyRelu_output_0 /body/body.4/rdb1/lrelu_2/LeakyRelu_output_0_splitncnn_0 /body/body.4/rdb1/lrelu_2/LeakyRelu_output_0_splitncnn_1
Concat                   /body/body.4/rdb1/Concat_2 4 1 /body/body.3/Add_output_0_splitncnn_3 /body/body.4/rdb1/lrelu/LeakyRelu_output_0_splitncnn_1 /body/body.4/rdb1/lrelu_1/LeakyRelu_output_0_splitncnn_1 /body/body.4/rdb1/lrelu_2/LeakyRelu_output_0_splitncnn_1 /body/body.4/rdb1/Concat_2_output_0
Convolution              /body/body.4/rdb1/conv4/Conv 1 1 /body/body.4/rdb1/Concat_2_output_0 /body/body.4/rdb1/lrelu_3/LeakyRelu_output_0 0=32 1=3 4=1 5=1 6=46080 9=2 -23310=1,2.000000e-01
Concat                   /body/body.4/rdb1/Concat_3 5 1 /body/body.3/Add_output_0_splitncnn_2 /body/body.4/rdb1/lrelu/LeakyRelu_output_0_splitncnn_0 /body/body.4/rdb1/lrelu_1/LeakyRelu_output_0_splitncnn_0 /body/body.4/rdb1/lrelu_2/LeakyRelu_output_0_splitncnn_0 /body/body.4/rdb1/lrelu_3/LeakyRelu_output_0 /body/body.4/rdb1/Concat_3_output_0
Convolution              /body/body.4/rdb1/conv5/Conv 1 1 /body/body.4/rdb1/Concat_3_output_0 /body/body.4/rdb1/conv5/Conv_output_0 0=64 1=3 4=1 5=1 6=110592
Eltwise                  /body/body.4/rdb1/Add    2 1 /body/body.4/rdb1/conv5/Conv_output_0 /body/body.3/Add_output_0_splitncnn_1 /body/body.4/rdb1/Add_output_0 0=1 -23301=2,2.000000e-01,1.000000e+00
Split                    splitncnn_52             1 6 /body/body.4/rdb1/Add_output_0 /body/body.4/rdb1/Add_output_0_splitncnn_0 /body/body.4/rdb1/Add_output_0_splitncnn_1 /body/body.4/rdb1/Add_output_0_splitncnn_2 /body/body.4/rdb1/Add_output_0_splitncnn_3 /body/body.4/rdb1/Add_output_0_splitncnn_4 /body/body.4/rdb1/Add_output_0_splitncnn_5
Convolution              /body/body.4/rdb2/conv1/Conv 1 1 /body/body.4/rdb1/Add_output_0_splitncnn_5 /body/body.4/rdb2/lrelu/LeakyRelu_output_0 0=32 1=3 4=1 5=1 6=18432 9=2 -23310=1,2.000000e-01
Split                    splitncnn_53             1 4 /body/body.4/rdb2/lrelu/LeakyRelu_output_0 /body/body.4/rdb2/lrelu/LeakyRelu_output_0_splitncnn_0 /body/body.4/rdb2/lrelu/LeakyRelu_output_0_splitncnn_1 /body/body.4/rdb2/lrelu/LeakyRelu_output_0_splitncnn_2 /body/body.4/rdb2/lrelu/LeakyRelu_output_0_splitncnn_3
Concat                   /body/body.4/rdb2/Concat 2 1 /body/body.4/rdb1/Add_output_0_splitncnn_4 /body/body.4/rdb2/lrelu/LeakyRelu_output_0_splitncnn_3 /body/body.4/rdb2/Concat_output_0
Convolution              /body/body.4/rdb2/conv2/Conv 1 1 /body/body.4/rdb2/Concat_output_0 /body/body.4/rdb2/lrelu_1/LeakyRelu_output_0 0=32 1=3 4=1 5=1 6=27648 9=2 -23310=1,2.000000e-01
Split                    splitncnn_54             1 3 /body/body.4/rdb2/lrelu_1/LeakyRelu_output_0 /body/body.4/rdb2/lrelu_1/LeakyRelu_output_0_splitncnn_0 /body/body.4/rdb2/lrelu_1/LeakyRelu_output_0_splitncnn_1 /body/body.4/rdb2/lrelu_1/LeakyRelu_output_0_splitncnn_2
Concat                   /body/body.4/rdb2/Concat_1 3 1 /body/body.4/rdb1/Add_output_0_splitncnn_3 /body/body.4/rdb2/lrelu/LeakyRelu_output_0_splitncnn_2 /body/body.4/rdb2/lrelu_1/LeakyRelu_output_0_splitncnn_2 /body/body.4/rdb2/Concat_1_output_0
Convolution              /body/body.4/rdb2/conv3/Conv 1 1 /body/body.4/rdb2/Concat_1_output_0 /body/body.4/rdb2/lrelu_2/LeakyRelu_output_0 0=32 1=3 4=1 5=1 6=36864 9=2 -23310=1,2.000000e-01
Split                    splitncnn_55             1 2 /body/body.4/rdb2/lrelu_2/LeakyRelu_output_0 /body/body.4/rdb2/lrelu_2/LeakyRelu_output_0_splitncnn_0 /body/body.4/rdb2/lrelu_2/LeakyRelu_output_0_splitncnn_1
Concat                   /body/body.4/rdb2/Concat_2 4 1 /body/body.4/rdb1/Add_output_0_splitncnn_2 /body/body.4/rdb2/lrelu/LeakyRelu_output_0_splitncnn_1 /body/body.4/rdb2/lrelu_1/LeakyRelu_output_0_splitncnn_1 /body/body.4/rdb2/lrelu_2/LeakyRelu_output_0_splitncnn_1 /body/body.4/rdb2/Concat_2_output_0
Convolution              /body/body.4/rdb2/conv4/Conv 1 1 /body/body.4/rdb2/Concat_2_output_0 /body/body.4/rdb2/lrelu_3/LeakyRelu_output_0 0=32 1=3 4=1 5=1 6=46080 9=2 -23310=1,2.000000e-01
Concat                   /body/body.4/rdb2/Concat_3 5 1 /body/body.4/rdb1/Add_output_0_splitncnn_1 /body/body.4/rdb2/lrelu/LeakyRelu_output_0_splitncnn_0 /body/body.4/rdb2/lrelu_1/LeakyRelu_output_0_splitncnn_0 /body/body.4/rdb2/lrelu_2/LeakyRelu_output_0_splitncnn_0 /body/body.4/rdb2/lrelu_3/LeakyRelu_output_0 /body/body.4/rdb2/Concat_3_output_0
Convolution              /body/body.4/rdb2/conv5/Conv 1 1 /body/body.4/rdb2/Concat_3_output_0 /body/body.4/rdb2/conv5/Conv_output_0 0=64 1=3 4=1 5=1 6=110592
Eltwise                  /body/body.4/rdb2/Add    2 1 /body/body.4/rdb2/conv5/Conv_output_0 /body/body.4/rdb1/Add_output_0_splitncnn_0 /body/body.4/rdb2/Add_output_0 0=1 -23301=2,2.000000e-01,1.000000e+00
Split                    splitncnn_56             1 6 /body/body.4/rdb2/Add_output_0 /body/body.4/rdb2/Add_output_0_splitncnn_0 /body/body.4/rdb2/Add_output_0_splitncnn_1 /body/body.4/rdb2/Add_output_0_splitncnn_2 /body/body.4/rdb2/Add_output_0_splitncnn_3 /body/body.4/rdb2/Add_output_0_splitncnn_4 /body/body.4/rdb2/Add_output_0_splitncnn_5
Convolution              /body/body.4/rdb3/conv1/Conv 1 1 /body/body.4/rdb2/Add_output_0_splitncnn_5 /body/body.4/rdb3/lrelu/LeakyRelu_output_0 0=32 1=3 4=1 5=1 6=18432 9=2 -23310=1,2.000000e-01
Split                    splitncnn_57             1 4 /body/body.4/rdb3/lrelu/LeakyRelu_output_0 /body/body.4/rdb3/lrelu/LeakyRelu_output_0_splitncnn_0 /body/body.4/rdb3/lrelu/LeakyRelu_output_0_splitncnn_1 /body/body.4/rdb3/lrelu/LeakyRelu_output_0_splitncnn_2 /body/body.4/rdb3/lrelu/LeakyRelu_output_0_splitncnn_3
Concat                   /body/body.4/rdb3/Concat 2 1 /body/body.4/rdb2/Add_output_0_splitncnn_4 /body/body.4/rdb3/lrelu/LeakyRelu_output_0_splitncnn_3 /body/body.4/rdb3/Concat_output_0
Convolution              /body/body.4/rdb3/conv2/Conv 1 1 /body/body.4/rdb3/Concat_output_0 /body/body.4/rdb3/lrelu_1/LeakyRelu_output_0 0=32 1=3 4=1 5=1 6=27648 9=2 -23310=1,2.000000e-01
Split                    splitncnn_58             1 3 /body/body.4/rdb3/lrelu_1/LeakyRelu_output_0 /body/body.4/rdb3/lrelu_1/LeakyRelu_output_0_splitncnn_0 /body/body.4/rdb3/lrelu_1/LeakyRelu_output_0_splitncnn_1 /body/body.4/rdb3/lrelu_1/LeakyRelu_output_0_splitncnn_2
Concat                   /body/body.4/rdb3/Concat_1 3 1 /body/body.4/rdb2/Add_output_0_splitncnn_3 /body/body.4/rdb3/lrelu/LeakyRelu_output_0_splitncnn_2 /body/body.4/rdb3/lrelu_1/LeakyRelu_output_0_splitncnn_2 /body/body.4/rdb3/Concat_1_output_0
Convolution              /body/body.4/rdb3/conv3/Conv 1 1 /body/body.4/rdb3/Concat_1_output_0 /body/body.4/rdb3/lrelu_2/LeakyRelu_output_0 0=32 1=3 4=1 5=1 6=36864 9=2 -23310=1,2.000000e-01
Split                    splitncnn_59             1 2 /body/body.4/rdb3/lrelu_2/LeakyRelu_output_0 /body/body.4/rdb3/lrelu_2/LeakyRelu_output_0_splitncnn_0 /body/body.4/rdb3/lrelu_2/LeakyRelu_output_0_splitncnn_1
Concat                   /body/body.4/rdb3/Concat_2 4 1 /body/body.4/rdb2/Add_output_0_splitncnn_2 /body/body.4/rdb3/lrelu/LeakyRelu_output_0_splitncnn_1 /body/body.4/rdb3/lrelu_1/LeakyRelu_output_0_splitncnn_1 /body/body.4/rdb3/lrelu_2/LeakyRelu_output_0_splitncnn_1 /body/body.4/rdb3/Concat_2_output_0
Convolution              /body/body.4/rdb3/conv4/Conv 1 1 /body/body.4/rdb3/Concat_2_output_0 /body/body.4/rdb3/lrelu_3/LeakyRelu_output_0 0=32 1=3 4=1 5=1 6=46080 9=2 -23310=1,2.000000e-01
Concat                   /body/body.4/rdb3/Concat_3 5 1 /body/body.4/rdb2/Add_output_0_splitncnn_1 /body/body.4/rdb3/lrelu/LeakyRelu_output_0_splitncnn_0 /body/body.4/rdb3/lrelu_1/LeakyRelu_output_0_splitncnn_0 /body/body.4/rdb3/lrelu_2/LeakyRelu_output_0_splitncnn_0 /body/body.4/rdb3/lrelu_3/LeakyRelu_output_0 /body/body.4/rdb3/Concat_3_output_0
Convolution              /body/body.4/rdb3/conv5/Conv 1 1 /body/body.4/rdb3/Concat_3_output_0 /body/body.4/rdb3/conv5/Conv_output_0 0=64 1=3 4=1 5=1 6=110592
Eltwise                  /body/body.4/rdb3/Add    2 1 /body/body.4/rdb3/conv5/Conv_output_0 /body/body.4/rdb2/Add_output_0_splitncnn_0 /body/body.4/rdb3/Add_output_0 0=1 -23301=2,2.000000e-01,1.000000e+00
Eltwise                  /body/body.4/Add         2 1 /body/body.4/rdb3/Add_output_0 /body/body.3/Add_output_0_splitncnn_0 /body/body.4/Add_output_0 0=1 -23301=2,2.000000e-01,1.000000e+00
Split                    splitncnn_60             1 7 /body/body.4/Add_output_0 /body/body.4/Add_output_0_splitncnn_0 /body/body.4/Add_output_0_splitncnn_1 /body/body.4/Add_output_0_splitncnn_2 /body/body.4/Add_output_0_splitncnn_3 /body/body.4/Add_output_0_splitncnn_4 /body/body.4/Add_output_0_splitncnn_5 /body/body.4/Add_output_0_splitncnn_6
Convolution              /body/body.5/rdb1/conv1/Conv 1 1 /body/body.4/Add_output_0_splitncnn_6 /body/body.5/rdb1/lrelu/LeakyRelu_output_0 0=32 1=3 4=1 5=1 6=18432 9=2 -23310=1,2.000000e-01
Split                    splitncnn_61             1 4 /body/body.5/rdb1/lrelu/LeakyRelu_output_0 /body/body.5/rdb1/lrelu/LeakyRelu_output_0_splitncnn_0 /body/body.5/rdb1/lrelu/LeakyRelu_output_0_splitncnn_1 /body/body.5/rdb1/lrelu/LeakyRelu_output_0_splitncnn_2 /body/body.5/rdb1/lrelu/LeakyRelu_output_0_splitncnn_3
Concat                   /body/body.5/rdb1/Concat 2 1 /body/body.4/Add_output_0_splitncnn_5 /body/body.5/rdb1/lrelu/LeakyRelu_output_0_splitncnn_3 /body/body.5/rdb1/Concat_output_0
Convolution              /body/body.5/rdb1/conv2/Conv 1 1 /body/body.5/rdb1/Concat_output_0 /body/body.5/rdb1/lrelu_1/LeakyRelu_output_0 0=32 1=3 4=1 5=1 6=27648 9=2 -23310=1,2.000000e-01
Split                    splitncnn_62             1 3 /body/body.5/rdb1/lrelu_1/LeakyRelu_output_0 /body/body.5/rdb1/lrelu_1/LeakyRelu_output_0_splitncnn_0 /body/body.5/rdb1/lrelu_1/LeakyRelu_output_0_splitncnn_1 /body/body.5/rdb1/lrelu_1/LeakyRelu_output_0_splitncnn_2
Concat                   /body/body.5/rdb1/Concat_1 3 1 /body/body.4/Add_output_0_splitncnn_4 /body/body.5/rdb1/lrelu/LeakyRelu_output_0_splitncnn_2 /body/body.5/rdb1/lrelu_1/LeakyRelu_output_0_splitncnn_2 /body/body.5/rdb1/Concat_1_output_0
Convolution              /body/body.5/rdb1/conv3/Conv 1 1 /body/body.5/rdb1/Concat_1_output_0 /body/body.5/rdb1/lrelu_2/LeakyRelu_output_0 0=32 1=3 4=1 5=1 6=36864 9=2 -23310=1,2.000000e-01
Split                    splitncnn_63             1 2 /body/body.5/rdb1/lrelu_2/LeakyRelu_output_0 /body/body.5/rdb1/lrelu_2/LeakyRelu_output_0_splitncnn_0 /body/body.5/rdb1/lrelu_2/LeakyRelu_output_0_splitncnn_1
Concat                   /body/body.5/rdb1/Concat_2 4 1 /body/body.4/Add_output_0_splitncnn_3 /body/body.5/rdb1/lrelu/LeakyRelu_output_0_splitncnn_1 /body/body.5/rdb1/lrelu_1/LeakyRelu_output_0_splitncnn_1 /body/body.5/rdb1/lrelu_2/LeakyRelu_output_0_splitncnn_1 /body/body.5/rdb1/Concat_2_output_0
Convolution              /body/body.5/rdb1/conv4/Conv 1 1 /body/body.5/rdb1/Concat_2_output_0 /body/body.5/rdb1/lrelu_3/LeakyRelu_output_0 0=32 1=3 4=1 5=1 6=46080 9=2 -23310=1,2.000000e-01
Concat                   /body/body.5/rdb1/Concat_3 5 1 /body/body.4/Add_output_0_splitncnn_2 /body/body.5/rdb1/lrelu/LeakyRelu_output_0_splitncnn_0 /body/body.5/rdb1/lrelu_1/LeakyRelu_output_0_splitncnn_0 /body/body.5/rdb1/lrelu_2/LeakyRelu_output_0_splitncnn_0 /body/body.5/rdb1/lrelu_3/LeakyRelu_output_0 /body/body.5/rdb1/Concat_3_output_0
Convolution              /body/body.5/rdb1/conv5/Conv 1 1 /body/body.5/rdb1/Concat_3_output_0 /body/body.5/rdb1/conv5/Conv_output_0 0=64 1=3 4=1 5=1 6=110592
Eltwise                  /body/body.5/rdb1/Add    2 1 /body/body.5/rdb1/conv5/Conv_output_0 /body/body.4/Add_output_0_splitncnn_1 /body/body.5/rdb1/Add_output_0 0=1 -23301=2,2.000000e-01,1.000000e+00
Split                    splitncnn_64             1 6 /body/body.5/rdb1/Add_output_0 /body/body.5/rdb1/Add_output_0_splitncnn_0 /body/body.5/rdb1/Add_output_0_splitncnn_1 /body/body.5/rdb1/Add_output_0_splitncnn_2 /body/body.5/rdb1/Add_output_0_splitncnn_3 /body/body.5/rdb1/Add_output_0_splitncnn_4 /body/body.5/rdb1/Add_output_0_splitncnn_5
Convolution              /body/body.5/rdb2/conv1/Conv 1 1 /body/body.5/rdb1/Add_output_0_splitncnn_5 /body/body.5/rdb2/lrelu/LeakyRelu_output_0 0=32 1=3 4=1 5=1 6=18432 9=2 -23310=1,2.000000e-01
Split                    splitncnn_65             1 4 /body/body.5/rdb2/lrelu/LeakyRelu_output_0 /body/body.5/rdb2/lrelu/LeakyRelu_output_0_splitncnn_0 /body/body.5/rdb2/lrelu/LeakyRelu_output_0_splitncnn_1 /body/body.5/rdb2/lrelu/LeakyRelu_output_0_splitncnn_2 /body/body.5/rdb2/lrelu/LeakyRelu_output_0_splitncnn_3
Concat                   /body/body.5/rdb2/Concat 2 1 /body/body.5/rdb1/Add_output_0_splitncnn_4 /body/body.5/rdb2/lrelu/LeakyRelu_output_0_splitncnn_3 /body/body.5/rdb2/Concat_output_0
Convolution              /body/body.5/rdb2/conv2/Conv 1 1 /body/body.5/rdb2/Concat_output_0 /body/body.5/rdb2/lrelu_1/LeakyRelu_output_0 0=32 1=3 4=1 5=1 6=27648 9=2 -23310=1,2.000000e-01
Split                    splitncnn_66             1 3 /body/body.5/rdb2/lrelu_1/LeakyRelu_output_0 /body/body.5/rdb2/lrelu_1/LeakyRelu_output_0_splitncnn_0 /body/body.5/rdb2/lrelu_1/LeakyRelu_output_0_splitncnn_1 /body/body.5/rdb2/lrelu_1/LeakyRelu_output_0_splitncnn_2
Concat                   /body/body.5/rdb2/Concat_1 3 1 /body/body.5/rdb1/Add_output_0_splitncnn_3 /body/body.5/rdb2/lrelu/LeakyRelu_output_0_splitncnn_2 /body/body.5/rdb2/lrelu_1/LeakyRelu_output_0_splitncnn_2 /body/body.5/rdb2/Concat_1_output_0
Convolution              /body/body.5/rdb2/conv3/Conv 1 1 /body/body.5/rdb2/Concat_1_output_0 /body/body.5/rdb2/lrelu_2/LeakyRelu_output_0 0=32 1=3 4=1 5=1 6=36864 9=2 -23310=1,2.000000e-01
Split                    splitncnn_67             1 2 /body/body.5/rdb2/lrelu_2/LeakyRelu_output_0 /body/body.5/rdb2/lrelu_2/LeakyRelu_output_0_splitncnn_0 /body/body.5/rdb2/lrelu_2/LeakyRelu_output_0_splitncnn_1
Concat                   /body/body.5/rdb2/Concat_2 4 1 /body/body.5/rdb1/Add_output_0_splitncnn_2 /body/body.5/rdb2/lrelu/LeakyRelu_output_0_splitncnn_1 /body/body.5/rdb2/lrelu_1/LeakyRelu_output_0_splitncnn_1 /body/body.5/rdb2/lrelu_2/LeakyRelu_output_0_splitncnn_1 /body/body.5/rdb2/Concat_2_output_0
Convolution              /body/body.5/rdb2/conv4/Conv 1 1 /body/body.5/rdb2/Concat_2_output_0 /body/body.5/rdb2/lrelu_3/LeakyRelu_output_0 0=32 1=3 4=1 5=1 6=46080 9=2 -23310=1,2.000000e-01
Concat                   /body/body.5/rdb2/Concat_3 5 1 /body/body.5/rdb1/Add_output_0_splitncnn_1 /body/body.5/rdb2/lrelu/LeakyRelu_output_0_splitncnn_0 /body/body.5/rdb2/lrelu_1/LeakyRelu_output_0_splitncnn_0 /body/body.5/rdb2/lrelu_2/LeakyRelu_output_0_splitncnn_0 /body/body.5/rdb2/lrelu_3/LeakyRelu_output_0 /body/body.5/rdb2/Concat_3_output_0
Convolution              /body/body.5/rdb2/conv5/Conv 1 1 /body/body.5/rdb2/Concat_3_output_0 /body/body.5/rdb2/conv5/Conv_output_0 0=64 1=3 4=1 5=1 6=110592
Eltwise                  /body/body.5/rdb2/Add    2 1 /body/body.5/rdb2/conv5/Conv_output_0 /body/body.5/rdb1/Add_output_0_splitncnn_0 /body/body.5/rdb2/Add_output_0 0=1 -23301=2,2.000000e-01,1.000000e+00
Split                    splitncnn_68             1 6 /body/body.5/rdb2/Add_output_0 /body/body.5/rdb2/Add_output_0_splitncnn_0 /body/body.5/rdb2/Add_output_0_splitncnn_1 /body/body.5/rdb2/Add_output_0_splitncnn_2 /body/body.5/rdb2/Add_output_0_splitncnn_3 /body/body.5/rdb2/Add_output_0_splitncnn_4 /body/body.5/rdb2/Add_output_0_splitncnn_5
Convolution              /body/body.5/rdb3/conv1/Conv 1 1 /body/body.5/rdb2/Add_output_0_splitncnn_5 /body/body.5/rdb3/lrelu/LeakyRelu_output_0 0=32 1=3 4=1 5=1 6=18432 9=2 -23310=1,2.000000e-01
Split                    splitncnn_69             1 4 /body/body.5/rdb3/lrelu/LeakyRelu_output_0 /body/body.5/rdb3/lrelu/LeakyRelu_output_0_splitncnn_0 /body/body.5/rdb3/lrelu/LeakyRelu_output_0_splitncnn_1 /body/body.5/rdb3/lrelu/LeakyRelu_output_0_splitncnn_2 /body/body.5/rdb3/lrelu/LeakyRelu_output_0_splitncnn_3
Concat                   /body/body.5/rdb3/Concat 2 1 /body/body.5/rdb2/Add_output_0_splitncnn_4 /body/body.5/rdb3/lrelu/LeakyRelu_output_0_splitncnn_3 /body/body.5/rdb3/Concat_output_0
Convolution              /body/body.5/rdb3/conv2/Conv 1 1 /body/body.5/rdb3/Concat_output_0 /body/body.5/rdb3/lrelu_1/LeakyRelu_output_0 0=32 1=3 4=1 5=1 6=27648 9=2 -23310=1,2.000000e-01
Split                    splitncnn_70             1 3 /body/body.5/rdb3/lrelu_1/LeakyRelu_output_0 /body/body.5/rdb3/lrelu_1/LeakyRelu_output_0_splitncnn_0 /body/body.5/rdb3/lrelu_1/LeakyRelu_output_0_splitncnn_1 /body/body.5/rdb3/lrelu_1/LeakyRelu_output_0_splitncnn_2
Concat                   /body/body.5/rdb3/Concat_1 3 1 /body/body.5/rdb2/Add_output_0_splitncnn_3 /body/body.5/rdb3/lrelu/LeakyRelu_output_0_splitncnn_2 /body/body.5/rdb3/lrelu_1/LeakyRelu_output_0_splitncnn_2 /body/body.5/rdb3/Concat_1_output_0
Convolution              /body/body.5/rdb3/conv3/Conv 1 1 /body/body.5/rdb3/Concat_1_output_0 /body/body.5/rdb3/lrelu_2/LeakyRelu_output_0 0=32 1=3 4=1 5=1 6=36864 9=2 -23310=1,2.000000e-01
Split                    splitncnn_71             1 2 /body/body.5/rdb3/lrelu_2/LeakyRelu_output_0 /body/body.5/rdb3/lrelu_2/LeakyRelu_output_0_splitncnn_0 /body/body.5/rdb3/lrelu_2/LeakyRelu_output_0_splitncnn_1
Concat                   /body/body.5/rdb3/Concat_2 4 1 /body/body.5/rdb2/Add_output_0_splitncnn_2 /body/body.5/rdb3/lrelu/LeakyRelu_output_0_splitncnn_1 /body/body.5/rdb3/lrelu_1/LeakyRelu_output_0_splitncnn_1 /body/body.5/rdb3/lrelu_2/LeakyRelu_output_0_splitncnn_1 /body/body.5/rdb3/Concat_2_output_0
Convolution              /body/body.5/rdb3/conv4/Conv 1 1 /body/body.5/rdb3/Concat_2_output_0 /body/body.5/rdb3/lrelu_3/LeakyRelu_output_0 0=32 1=3 4=1 5=1 6=46080 9=2 -23310=1,2.000000e-01
Concat                   /body/body.5/rdb3/Concat_3 5 1 /body/body.5/rdb2/Add_output_0_splitncnn_1 /body/body.5/rdb3/lrelu/LeakyRelu_output_0_splitncnn_0 /body/body.5/rdb3/lrelu_1/LeakyRelu_output_0_splitncnn_0 /body/body.5/rdb3/lrelu_2/LeakyRelu_output_0_splitncnn_0 /body/body.5/rdb3/lrelu_3/LeakyRelu_output_0 /body/body.5/rdb3/Concat_3_output_0
Convolution              /body/body.5/rdb3/conv5/Conv 1 1 /body/body.5/rdb3/Concat_3_output_0 /body/body.5/rdb3/conv5/Conv_output_0 0=64 1=3 4=1 5=1 6=110592
Eltwise                  /body/body.5/rdb3/Add    2 1 /body/body.5/rdb3/conv5/Conv_output_0 /body/body.5/rdb2/Add_output_0_splitncnn_0 /body/body.5/rdb3/Add_output_0 0=1 -23301=2,2.000000e-01,1.000000e+00
Eltwise                  /body/body.5/Add         2 1 /body/body.5/rdb3/Add_output_0 /body/body.4/Add_output_0_splitncnn_0 /body/body.5/Add_output_0 0=1 -23301=2,2.000000e-01,1.000000e+00
Split                    splitncnn_72             1 7 /body/body.5/Add_output_0 /body/body.5/Add_output_0_splitncnn_0 /body/body.5/Add_output_0_splitncnn_1 /body/body.5/Add_output_0_splitncnn_2 /body/body.5/Add_output_0_splitncnn_3 /body/body.5/Add_output_0_splitncnn_4 /body/body.5/Add_output_0_splitncnn_5 /body/body.5/Add_output_0_splitncnn_6
Convolution              /body/body.6/rdb1/conv1/Conv 1 1 /body/body.5/Add_output_0_splitncnn_6 /body/body.6/rdb1/lrelu/LeakyRelu_output_0 0=32 1=3 4=1 5=1 6=18432 9=2 -23310=1,2.000000e-01
Split                    splitncnn_73             1 4 /body/body.6/rdb1/lrelu/LeakyRelu_output_0 /body/body.6/rdb1/lrelu/LeakyRelu_output_0_splitncnn_0 /body/body.6/rdb1/lrelu/LeakyRelu_output_0_splitncnn_1 /body/body.6/rdb1/lrelu/LeakyRelu_output_0_splitncnn_2 /body/body.6/rdb1/lrelu/LeakyRelu_output_0_splitncnn_3
Concat                   /body/body.6/rdb1/Concat 2 1 /body/body.5/Add_output_0_splitncnn_5 /body/body.6/rdb1/lrelu/LeakyRelu_output_0_splitncnn_3 /body/body.6/rdb1/Concat_output_0
Convolution              /body/body.6/rdb1/conv2/Conv 1 1 /body/body.6/rdb1/Concat_output_0 /body/body.6/rdb1/lrelu_1/LeakyRelu_output_0 0=32 1=3 4=1 5=1 6=27648 9=2 -23310=1,2.000000e-01
Split                    splitncnn_74             1 3 /body/body.6/rdb1/lrelu_1/LeakyRelu_output_0 /body/body.6/rdb1/lrelu_1/LeakyRelu_output_0_splitncnn_0 /body/body.6/rdb1/lrelu_1/LeakyRelu_output_0_splitncnn_1 /body/body.6/rdb1/lrelu_1/LeakyRelu_output_0_splitncnn_2
Concat                   /body/body.6/rdb1/Concat_1 3 1 /body/body.5/Add_output_0_splitncnn_4 /body/body.6/rdb1/lrelu/LeakyRelu_output_0_splitncnn_2 /body/body.6/rdb1/lrelu_1/LeakyRelu_output_0_splitncnn_2 /body/body.6/rdb1/Concat_1_output_0
Convolution              /body/body.6/rdb1/conv3/Conv 1 1 /body/body.6/rdb1/Concat_1_output_0 /body/body.6/rdb1/lrelu_2/LeakyRelu_output_0 0=32 1=3 4=1 5=1 6=36864 9=2 -23310=1,2.000000e-01
Split                    splitncnn_75             1 2 /body/body.6/rdb1/lrelu_2/LeakyRelu_output_0 /body/body.6/rdb1/lrelu_2/LeakyRelu_output_0_splitncnn_0 /body/body.6/rdb1/lrelu_2/LeakyRelu_output_0_splitncnn_1
Concat                   /body/body.6/rdb1/Concat_2 4 1 /body/body.5/Add_output_0_splitncnn_3 /body/body.6/rdb1/lrelu/LeakyRelu_output_0_splitncnn_1 /body/body.6/rdb1/lrelu_1/LeakyRelu_output_0_splitncnn_1 /body/body.6/rdb1/lrelu_2/LeakyRelu_output_0_splitncnn_1 /body/body.6/rdb1/Concat_2_output_0
Convolution              /body/body.6/rdb1/conv4/Conv 1 1 /body/body.6/rdb1/Concat_2_output_0 /body/body.6/rdb1/lrelu_3/LeakyRelu_output_0 0=32 1=3 4=1 5=1 6=46080 9=2 -23310=1,2.000000e-01
Concat                   /body/body.6/rdb1/Concat_3 5 1 /body/body.5/Add_output_0_splitncnn_2 /body/body.6/rdb1/lrelu/LeakyRelu_output_0_splitncnn_0 /body/body.6/rdb1/lrelu_1/LeakyRelu_output_0_splitncnn_0 /body/body.6/rdb1/lrelu_2/LeakyRelu_output_0_splitncnn_0 /body/body.6/rdb1/lrelu_3/LeakyRelu_output_0 /body/body.6/rdb1/Concat_3_output_0
Convolution              /body/body.6/rdb1/conv5/Conv 1 1 /body/body.6/rdb1/Concat_3_output_0 /body/body.6/rdb1/conv5/Conv_output_0 0=64 1=3 4=1 5=1 6=110592
Eltwise                  /body/body.6/rdb1/Add    2 1 /body/body.6/rdb1/conv5/Conv_output_0 /body/body.5/Add_output_0_splitncnn_1 /body/body.6/rdb1/Add_output_0 0=1 -23301=2,2.000000e-01,1.000000e+00
Split                    splitncnn_76             1 6 /body/body.6/rdb1/Add_output_0 /body/body.6/rdb1/Add_output_0_splitncnn_0 /body/body.6/rdb1/Add_output_0_splitncnn_1 /body/body.6/rdb1/Add_output_0_splitncnn_2 /body/body.6/rdb1/Add_output_0_splitncnn_3 /body/body.6/rdb1/Add_output_0_splitncnn_4 /body/body.6/rdb1/Add_output_0_splitncnn_5
Convolution              /body/body.6/rdb2/conv1/Conv 1 1 /body/body.6/rdb1/Add_output_0_splitncnn_5 /body/body.6/rdb2/lrelu/LeakyRelu_output_0 0=32 1=3 4=1 5=1 6=18432 9=2 -23310=1,2.000000e-01
Split                    splitncnn_77             1 4 /body/body.6/rdb2/lrelu/LeakyRelu_output_0 /body/body.6/rdb2/lrelu/LeakyRelu_output_0_splitncnn_0 /body/body.6/rdb2/lrelu/LeakyRelu_output_0_splitncnn_1 /body/body.6/rdb2/lrelu/LeakyRelu_output_0_splitncnn_2 /body/body.6/rdb2/lrelu/LeakyRelu_output_0_splitncnn_3
Concat                   /body/body.6/rdb2/Concat 2 1 /body/body.6/rdb1/Add_output_0_splitncnn_4 /body/body.6/rdb2/lrelu/LeakyRelu_output_0_splitncnn_3 /body/body.6/rdb2/Concat_output_0
Convolution              /body/body.6/rdb2/conv2/Conv 1 1 /body/body.6/rdb2/Concat_output_0 /body/body.6/rdb2/lrelu_1/LeakyRelu_output_0 0=32 1=3 4=1 5=1 6=27648 9=2 -23310=1,2.000000e-01
Split                    splitncnn_78             1 3 /body/body.6/rdb2/lrelu_1/LeakyRelu_output_0 /body/body.6/rdb2/lrelu_1/LeakyRelu_output_0_splitncnn_0 /body/body.6/rdb2/lrelu_1/LeakyRelu_output_0_splitncnn_1 /body/body.6/rdb2/lrelu_1/LeakyRelu_output_0_splitncnn_2
Concat                   /body/body.6/rdb2/Concat_1 3 1 /body/body.6/rdb1/Add_output_0_splitncnn_3 /body/body.6/rdb2/lrelu/LeakyRelu_output_0_splitncnn_2 /body/body.6/rdb2/lrelu_1/LeakyRelu_output_0_splitncnn_2 /body/body.6/rdb2/Concat_1_output_0
Convolution              /body/body.6/rdb2/conv3/Conv 1 1 /body/body.6/rdb2/Concat_1_output_0 /body/body.6/rdb2/lrelu_2/LeakyRelu_output_0 0=32 1=3 4=1 5=1 6=36864 9=2 -23310=1,2.000000e-01
Split                    splitncnn_79             1 2 /body/body.6/rdb2/lrelu_2/LeakyRelu_output_0 /body/body.6/rdb2/lrelu_2/LeakyRelu_output_0_splitncnn_0 /body/body.6/rdb2/lrelu_2/LeakyRelu_output_0_splitncnn_1
Concat                   /body/body.6/rdb2/Concat_2 4 1 /body/body.6/rdb1/Add_output_0_splitncnn_2 /body/body.6/rdb2/lrelu/LeakyRelu_output_0_splitncnn_1 /body/body.6/rdb2/lrelu_1/LeakyRelu_output_0_splitncnn_1 /body/body.6/rdb2/lrelu_2/LeakyRelu_output_0_splitncnn_1 /body/body.6/rdb2/Concat_2_output_0
Convolution              /body/body.6/rdb2/conv4/Conv 1 1 /body/body.6/rdb2/Concat_2_output_0 /body/body.6/rdb2/lrelu_3/LeakyRelu_output_0 0=32 1=3 4=1 5=1 6=46080 9=2 -23310=1,2.000000e-01
Concat                   /body/body.6/rdb2/Concat_3 5 1 /body/body.6/rdb1/Add_output_0_splitncnn_1 /body/body.6/rdb2/lrelu/LeakyRelu_output_0_splitncnn_0 /body/body.6/rdb2/lrelu_1/LeakyRelu_output_0_splitncnn_0 /body/body.6/rdb2/lrelu_2/LeakyRelu_output_0_splitncnn_0 /body/body.6/rdb2/lrelu_3/LeakyRelu_output_0 /body/body.6/rdb2/Concat_3_output_0
Convolution              /body/body.6/rdb2/conv5/Conv 1 1 /body/body.6/rdb2/Concat_3_output_0 /body/body.6/rdb2/conv5/Conv_output_0 0=64 1=3 4=1 5=1 6=110592
Eltwise                  /body/body.6/rdb2/Add    2 1 /body/body.6/rdb2/conv5/Conv_output_0 /body/body.6/rdb1/Add_output_0_splitncnn_0 /body/body.6/rdb2/Add_output_0 0=1 -23301=2,2.000000e-01,1.000000e+00
Split                    splitncnn_80             1 6 /body/body.6/rdb2/Add_output_0 /body/body.6/rdb2/Add_output_0_splitncnn_0 /body/body.6/rdb2/Add_output_0_splitncnn_1 /body/body.6/rdb2/Add_output_0_splitncnn_2 /body/body.6/rdb2/Add_output_0_splitncnn_3 /body/body.6/rdb2/Add_output_0_splitncnn_4 /body/body.6/rdb2/Add_output_0_splitncnn_5
Convolution              /body/body.6/rdb3/conv1/Conv 1 1 /body/body.6/rdb2/Add_output_0_splitncnn_5 /body/body.6/rdb3/lrelu/LeakyRelu_output_0 0=32 1=3 4=1 5=1 6=18432 9=2 -23310=1,2.000000e-01
Split                    splitncnn_81             1 4 /body/body.6/rdb3/lrelu/LeakyRelu_output_0 /body/body.6/rdb3/lrelu/LeakyRelu_output_0_splitncnn_0 /body/body.6/rdb3/lrelu/LeakyRelu_output_0_splitncnn_1 /body/body.6/rdb3/lrelu/LeakyRelu_output_0_splitncnn_2 /body/body.6/rdb3/lrelu/LeakyRelu_output_0_splitncnn_3
Concat                   /body/body.6/rdb3/Concat 2 1 /body/body.6/rdb2/Add_output_0_splitncnn_4 /body/body.6/rdb3/lrelu/LeakyRelu_output_0_splitncnn_3 /body/body.6/rdb3/Concat_output_0
Convolution              /body/body.6/rdb3/conv2/Conv 1 1 /body/body.6/rdb3/Concat_output_0 /body/body.6/rdb3/lrelu_1/LeakyRelu_output_0 0=32 1=3 4=1 5=1 6=27648 9=2 -23310=1,2.000000e-01
Split                    splitncnn_82             1 3 /body/body.6/rdb3/lrelu_1/LeakyRelu_output_0 /body/body.6/rdb3/lrelu_1/LeakyRelu_output_0_splitncnn_0 /body/body.6/rdb3/lrelu_1/LeakyRelu_output_0_splitncnn_1 /body/body.6/rdb3/lrelu_1/LeakyRelu_output_0_splitncnn_2
Concat                   /body/body.6/rdb3/Concat_1 3 1 /body/body.6/rdb2/Add_output_0_splitncnn_3 /body/body.6/rdb3/lrelu/LeakyRelu_output_0_splitncnn_2 /body/body.6/rdb3/lrelu_1/LeakyRelu_output_0_splitncnn_2 /body/body.6/rdb3/Concat_1_output_0
Convolution              /body/body.6/rdb3/conv3/Conv 1 1 /body/body.6/rdb3/Concat_1_output_0 /body/body.6/rdb3/lrelu_2/LeakyRelu_output_0 0=32 1=3 4=1 5=1 6=36864 9=2 -23310=1,2.000000e-01
Split                    splitncnn_83             1 2 /body/body.6/rdb3/lrelu_2/LeakyRelu_output_0 /body/body.6/rdb3/lrelu_2/LeakyRelu_output_0_splitncnn_0 /body/body.6/rdb3/lrelu_2/LeakyRelu_output_0_splitncnn_1
Concat                   /body/body.6/rdb3/Concat_2 4 1 /body/body.6/rdb2/Add_output_0_splitncnn_2 /body/body.6/rdb3/lrelu/LeakyRelu_output_0_splitncnn_1 /body/body.6/rdb3/lrelu_1/LeakyRelu_output_0_splitncnn_1 /body/body.6/rdb3/lrelu_2/LeakyRelu_output_0_splitncnn_1 /body/body.6/rdb3/Concat_2_output_0
Convolution              /body/body.6/rdb3/conv4/Conv 1 1 /body/body.6/rdb3/Concat_2_output_0 /body/body.6/rdb3/lrelu_3/LeakyRelu_output_0 0=32 1=3 4=1 5=1 6=46080 9=2 -23310=1,2.000000e-01
Concat                   /body/body.6/rdb3/Concat_3 5 1 /body/body.6/rdb2/Add_output_0_splitncnn_1 /body/body.6/rdb3/lrelu/LeakyRelu_output_0_splitncnn_0 /body/body.6/rdb3/lrelu_1/LeakyRelu_output_0_splitncnn_0 /body/body.6/rdb3/lrelu_2/LeakyRelu_output_0_splitncnn_0 /body/body.6/rdb3/lrelu_3/LeakyRelu_output_0 /body/body.6/rdb3/Concat_3_output_0
Convolution              /body/body.6/rdb3/conv5/Conv 1 1 /body/body.6/rdb3/Concat_3_output_0 /body/body.6/rdb3/conv5/Conv_output_0 0=64 1=3 4=1 5=1 6=110592
Eltwise                  /body/body.6/rdb3/Add    2 1 /body/body.6/rdb3/conv5/Conv_output_0 /body/body.6/rdb2/Add_output_0_splitncnn_0 /body/body.6/rdb3/Add_output_0 0=1 -23301=2,2.000000e-01,1.000000e+00
Eltwise                  /body/body.6/Add         2 1 /body/body.6/rdb3/Add_output_0 /body/body.5/Add_output_0_splitncnn_0 /body/body.6/Add_output_0 0=1 -23301=2,2.000000e-01,1.000000e+00
Split                    splitncnn_84             1 7 /body/body.6/Add_output_0 /body/body.6/Add_output_0_splitncnn_0 /body/body.6/Add_output_0_splitncnn_1 /body/body.6/Add_output_0_splitncnn_2 /body/body.6/Add_output_0_splitncnn_3 /body/body.6/Add_output_0_splitncnn_4 /body/body.6/Add_output_0_splitncnn_5 /body/body.6/Add_output_0_splitncnn_6
Convolution              /body/body.7/rdb1/conv1/Conv 1 1 /body/body.6/Add_output_0_splitncnn_6 /body/body.7/rdb1/lrelu/LeakyRelu_output_0 0=32 1=3 4=1 5=1 6=18432 9=2 -23310=1,2.000000e-01
Split                    splitncnn_85             1 4 /body/body.7/rdb1/lrelu/LeakyRelu_output_0 /body/body.7/rdb1/lrelu/LeakyRelu_output_0_splitncnn_0 /body/body.7/rdb1/lrelu/LeakyRelu_output_0_splitncnn_1 /body/body.7/rdb1/lrelu/LeakyRelu_output_0_splitncnn_2 /body/body.7/rdb1/lrelu/LeakyRelu_output_0_splitncnn_3
Concat                   /body/body.7/rdb1/Concat 2 1 /body/body.6/Add_output_0_splitncnn_5 /body/body.7/rdb1/lrelu/LeakyRelu_output_0_splitncnn_3 /body/body.7/rdb1/Concat_output_0
Convolution              /body/body.7/rdb1/conv2/Conv 1 1 /body/body.7/rdb1/Concat_output_0 /body/body.7/rdb1/lrelu_1/LeakyRelu_output_0 0=32 1=3 4=1 5=1 6=27648 9=2 -23310=1,2.000000e-01
Split                    splitncnn_86             1 3 /body/body.7/rdb1/lrelu_1/LeakyRelu_output_0 /body/body.7/rdb1/lrelu_1/LeakyRelu_output_0_splitncnn_0 /body/body.7/rdb1/lrelu_1/LeakyRelu_output_0_splitncnn_1 /body/body.7/rdb1/lrelu_1/LeakyRelu_output_0_splitncnn_2
Concat                   /body/body.7/rdb1/Concat_1 3 1 /body/body.6/Add_output_0_splitncnn_4 /body/body.7/rdb1/lrelu/LeakyRelu_output_0_splitncnn_2 /body/body.7/rdb1/lrelu_1/LeakyRelu_output_0_splitncnn_2 /body/body.7/rdb1/Concat_1_output_0
Convolution              /body/body.7/rdb1/conv3/Conv 1 1 /body/body.7/rdb1/Concat_1_output_0 /body/body.7/rdb1/lrelu_2/LeakyRelu_output_0 0=32 1=3 4=1 5=1 6=36864 9=2 -23310=1,2.000000e-01
Split                    splitncnn_87             1 2 /body/body.7/rdb1/lrelu_2/LeakyRelu_output_0 /body/body.7/rdb1/lrelu_2/LeakyRelu_output_0_splitncnn_0 /body/body.7/rdb1/lrelu_2/LeakyRelu_output_0_splitncnn_1
Concat                   /body/body.7/rdb1/Concat_2 4 1 /body/body.6/Add_output_0_splitncnn_3 /body/body.7/rdb1/lrelu/LeakyRelu_output_0_splitncnn_1 /body/body.7/rdb1/lrelu_1/LeakyRelu_output_0_splitncnn_1 /body/body.7/rdb1/lrelu_2/LeakyRelu_output_0_splitncnn_1 /body/body.7/rdb1/Concat_2_output_0
Convolution              /body/body.7/rdb1/conv4/Conv 1 1 /body/body.7/rdb1/Concat_2_output_0 /body/body.7/rdb1/lrelu_3/LeakyRelu_output_0 0=32 1=3 4=1 5=1 6=46080 9=2 -23310=1,2.000000e-01
Concat                   /body/body.7/rdb1/Concat_3 5 1 /body/body.6/Add_output_0_splitncnn_2 /body/body.7/rdb1/lrelu/LeakyRelu_output_0_splitncnn_0 /body/body.7/rdb1/lrelu_1/LeakyRelu_output_0_splitncnn_0 /body/body.7/rdb1/lrelu_2/LeakyRelu_output_0_splitncnn_0 /body/body.7/rdb1/lrelu_3/LeakyRelu_output_0 /body/body.7/rdb1/Concat_3_output_0
Convolution              /body/body.7/rdb1/conv5/Conv 1 1 /body/body.7/rdb1/Concat_3_output_0 /body/body.7/rdb1/conv5/Conv_output_0 0=64 1=3 4=1 5=1 6=110592
Eltwise                  /body/body.7/rdb1/Add    2 1 /body/body.7/rdb1/conv5/Conv_output_0 /body/body.6/Add_output_0_splitncnn_1 /body/body.7/rdb1/Add_output_0 0=1 -23301=2,2.000000e-01,1.000000e+00
Split                    splitncnn_88             1 6 /body/body.7/rdb1/Add_output_0 /body/body.7/rdb1/Add_output_0_splitncnn_0 /body/body.7/rdb1/Add_output_0_splitncnn_1 /body/body.7/rdb1/Add_output_0_splitncnn_2 /body/body.7/rdb1/Add_output_0_splitncnn_3 /body/body.7/rdb1/Add_output_0_splitncnn_4 /body/body.7/rdb1/Add_output_0_splitncnn_5
Convolution              /body/body.7/rdb2/conv1/Conv 1 1 /body/body.7/rdb1/Add_output_0_splitncnn_5 /body/body.7/rdb2/lrelu/LeakyRelu_output_0 0=32 1=3 4=1 5=1 6=18432 9=2 -23310=1,2.000000e-01
Split                    splitncnn_89             1 4 /body/body.7/rdb2/lrelu/LeakyRelu_output_0 /body/body.7/rdb2/lrelu/LeakyRelu_output_0_splitncnn_0 /body/body.7/rdb2/lrelu/LeakyRelu_output_0_splitncnn_1 /body/body.7/rdb2/lrelu/LeakyRelu_output_0_splitncnn_2 /body/body.7/rdb2/lrelu/LeakyRelu_output_0_splitncnn_3
Concat                   /body/body.7/rdb2/Concat 2 1 /body/body.7/rdb1/Add_output_0_splitncnn_4 /body/body.7/rdb2/lrelu/LeakyRelu_output_0_splitncnn_3 /body/body.7/rdb2/Concat_output_0
Convolution              /body/body.7/rdb2/conv2/Conv 1 1 /body/body.7/rdb2/Concat_output_0 /body/body.7/rdb2/lrelu_1/LeakyRelu_output_0 0=32 1=3 4=1 5=1 6=27648 9=2 -23310=1,2.000000e-01
Split                    splitncnn_90             1 3 /body/body.7/rdb2/lrelu_1/LeakyRelu_output_0 /body/body.7/rdb2/lrelu_1/LeakyRelu_output_0_splitncnn_0 /body/body.7/rdb2/lrelu_1/LeakyRelu_output_0_splitncnn_1 /body/body.7/rdb2/lrelu_1/LeakyRelu_output_0_splitncnn_2
Concat                   /body/body.7/rdb2/Concat_1 3 1 /body/body.7/rdb1/Add_output_0_splitncnn_3 /body/body.7/rdb2/lrelu/LeakyRelu_output_0_splitncnn_2 /body/body.7/rdb2/lrelu_1/LeakyRelu_output_0_splitncnn_2 /body/body.7/rdb2/Concat_1_output_0
Convolution              /body/body.7/rdb2/conv3/Conv 1 1 /body/body.7/rdb2/Concat_1_output_0 /body/body.7/rdb2/lrelu_2/LeakyRelu_output_0 0=32 1=3 4=1 5=1 6=36864 9=2 -23310=1,2.000000e-01
Split                    splitncnn_91             1 2 /body/body.7/rdb2/lrelu_2/LeakyRelu_output_0 /body/body.7/rdb2/lrelu_2/LeakyRelu_output_0_splitncnn_0 /body/body.7/rdb2/lrelu_2/LeakyRelu_output_0_splitncnn_1
Concat                   /body/body.7/rdb2/Concat_2 4 1 /body/body.7/rdb1/Add_output_0_splitncnn_2 /body/body.7/rdb2/lrelu/LeakyRelu_output_0_splitncnn_1 /body/body.7/rdb2/lrelu_1/LeakyRelu_output_0_splitncnn_1 /body/body.7/rdb2/lrelu_2/LeakyRelu_output_0_splitncnn_1 /body/body.7/rdb2/Concat_2_output_0
Convolution              /body/body.7/rdb2/conv4/Conv 1 1 /body/body.7/rdb2/Concat_2_output_0 /body/body.7/rdb2/lrelu_3/LeakyRelu_output_0 0=32 1=3 4=1 5=1 6=46080 9=2 -23310=1,2.000000e-01
Concat                   /body/body.7/rdb2/Concat_3 5 1 /body/body.7/rdb1/Add_output_0_splitncnn_1 /body/body.7/rdb2/lrelu/LeakyRelu_output_0_splitncnn_0 /body/body.7/rdb2/lrelu_1/LeakyRelu_output_0_splitncnn_0 /body/body.7/rdb2/lrelu_2/LeakyRelu_output_0_splitncnn_0 /body/body.7/rdb2/lrelu_3/LeakyRelu_output_0 /body/body.7/rdb2/Concat_3_output_0
Convolution              /body/body.7/rdb2/conv5/Conv 1 1 /body/body.7/rdb2/Concat_3_output_0 /body/body.7/rdb2/conv5/Conv_output_0 0=64 1=3 4=1 5=1 6=110592
Eltwise                  /body/body.7/rdb2/Add    2 1 /body/body.7/rdb2/conv5/Conv_output_0 /body/body.7/rdb1/Add_output_0_splitncnn_0 /body/body.7/rdb2/Add_output_0 0=1 -23301=2,2.000000e-01,1.000000e+00
Split                    splitncnn_92             1 6 /body/body.7/rdb2/Add_output_0 /body/body.7/rdb2/Add_output_0_splitncnn_0 /body/body.7/rdb2/Add_output_0_splitncnn_1 /body/body.7/rdb2/Add_output_0_splitncnn_2 /body/body.7/rdb2/Add_output_0_splitncnn_3 /body/body.7/rdb2/Add_output_0_splitncnn_4 /body/body.7/rdb2/Add_output_0_splitncnn_5
Convolution              /body/body.7/rdb3/conv1/Conv 1 1 /body/body.7/rdb2/Add_output_0_splitncnn_5 /body/body.7/rdb3/lrelu/LeakyRelu_output_0 0=32 1=3 4=1 5=1 6=18432 9=2 -23310=1,2.000000e-01
Split                    splitncnn_93             1 4 /body/body.7/rdb3/lrelu/LeakyRelu_output_0 /body/body.7/rdb3/lrelu/LeakyRelu_output_0_splitncnn_0 /body/body.7/rdb3/lrelu/LeakyRelu_output_0_splitncnn_1 /body/body.7/rdb3/lrelu/LeakyRelu_output_0_splitncnn_2 /body/body.7/rdb3/lrelu/LeakyRelu_output_0_splitncnn_3
Concat                   /body/body.7/rdb3/Concat 2 1 /body/body.7/rdb2/Add_output_0_splitncnn_4 /body/body.7/rdb3/lrelu/LeakyRelu_output_0_splitncnn_3 /body/body.7/rdb3/Concat_output_0
Convolution              /body/body.7/rdb3/conv2/Conv 1 1 /body/body.7/rdb3/Concat_output_0 /body/body.7/rdb3/lrelu_1/LeakyRelu_output_0 0=32 1=3 4=1 5=1 6=27648 9=2 -23310=1,2.000000e-01
Split                    splitncnn_94             1 3 /body/body.7/rdb3/lrelu_1/LeakyRelu_output_0 /body/body.7/rdb3/lrelu_1/LeakyRelu_output_0_splitncnn_0 /body/body.7/rdb3/lrelu_1/LeakyRelu_output_0_splitncnn_1 /body/body.7/rdb3/lrelu_1/LeakyRelu_output_0_splitncnn_2
Concat                   /body/body.7/rdb3/Concat_1 3 1 /body/body.7/rdb2/Add_output_0_splitncnn_3 /body/body.7/rdb3/lrelu/LeakyRelu_output_0_splitncnn_2 /body/body.7/rdb3/lrelu_1/LeakyRelu_output_0_splitncnn_2 /body/body.7/rdb3/Concat_1_output_0
Convolution              /body/body.7/rdb3/conv3/Conv 1 1 /body/body.7/rdb3/Concat_1_output_0 /body/body.7/rdb3/lrelu_2/LeakyRelu_output_0 0=32 1=3 4=1 5=1 6=36864 9=2 -23310=1,2.000000e-01
Split                    splitncnn_95             1 2 /body/body.7/rdb3/lrelu_2/LeakyRelu_output_0 /body/body.7/rdb3/lrelu_2/LeakyRelu_output_0_splitncnn_0 /body/body.7/rdb3/lrelu_2/LeakyRelu_output_0_splitncnn_1
Concat                   /body/body.7/rdb3/Concat_2 4 1 /body/body.7/rdb2/Add_output_0_splitncnn_2 /body/body.7/rdb3/lrelu/LeakyRelu_output_0_splitncnn_1 /body/body.7/rdb3/lrelu_1/LeakyRelu_output_0_splitncnn_1 /body/body.7/rdb3/lrelu_2/LeakyRelu_output_0_splitncnn_1 /body/body.7/rdb3/Concat_2_output_0
Convolution              /body/body.7/rdb3/conv4/Conv 1 1 /body/body.7/rdb3/Concat_2_output_0 /body/body.7/rdb3/lrelu_3/LeakyRelu_output_0 0=32 1=3 4=1 5=1 6=46080 9=2 -23310=1,2.000000e-01
Concat                   /body/body.7/rdb3/Concat_3 5 1 /body/body.7/rdb2/Add_output_0_splitncnn_1 /body/body.7/rdb3/lrelu/LeakyRelu_output_0_splitncnn_0 /body/body.7/rdb3/lrelu_1/LeakyRelu_output_0_splitncnn_0 /body/body.7/rdb3/lrelu_2/LeakyRelu_output_0_splitncnn_0 /body/body.7/rdb3/lrelu_3/LeakyRelu_output_0 /body/body.7/rdb3/Concat_3_output_0
Convolution              /body/body.7/rdb3/conv5/Conv 1 1 /body/body.7/rdb3/Concat_3_output_0 /body/body.7/rdb3/conv5/Conv_output_0 0=64 1=3 4=1 5=1 6=110592
Eltwise                  /body/body.7/rdb3/Add    2 1 /body/body.7/rdb3/conv5/Conv_output_0 /body/body.7/rdb2/Add_output_0_splitncnn_0 /body/body.7/rdb3/Add_output_0 0=1 -23301=2,2.000000e-01,1.000000e+00
Eltwise                  /body/body.7/Add         2 1 /body/body.7/rdb3/Add_output_0 /body/body.6/Add_output_0_splitncnn_0 /body/body.7/Add_output_0 0=1 -23301=2,2.000000e-01,1.000000e+00
Split                    splitncnn_96             1 7 /body/body.7/Add_output_0 /body/body.7/Add_output_0_splitncnn_0 /body/body.7/Add_output_0_splitncnn_1 /body/body.7/Add_output_0_splitncnn_2 /body/body.7/Add_output_0_splitncnn_3 /body/body.7/Add_output_0_splitncnn_4 /body/body.7/Add_output_0_splitncnn_5 /body/body.7/Add_output_0_splitncnn_6
Convolution              /body/body.8/rdb1/conv1/Conv 1 1 /body/body.7/Add_output_0_splitncnn_6 /body/body.8/rdb1/lrelu/LeakyRelu_output_0 0=32 1=3 4=1 5=1 6=18432 9=2 -23310=1,2.000000e-01
Split                    splitncnn_97             1 4 /body/body.8/rdb1/lrelu/LeakyRelu_output_0 /body/body.8/rdb1/lrelu/LeakyRelu_output_0_splitncnn_0 /body/body.8/rdb1/lrelu/LeakyRelu_output_0_splitncnn_1 /body/body.8/rdb1/lrelu/LeakyRelu_output_0_splitncnn_2 /body/body.8/rdb1/lrelu/LeakyRelu_output_0_splitncnn_3
Concat                   /body/body.8/rdb1/Concat 2 1 /body/body.7/Add_output_0_splitncnn_5 /body/body.8/rdb1/lrelu/LeakyRelu_output_0_splitncnn_3 /body/body.8/rdb1/Concat_output_0
Convolution              /body/body.8/rdb1/conv2/Conv 1 1 /body/body.8/rdb1/Concat_output_0 /body/body.8/rdb1/lrelu_1/LeakyRelu_output_0 0=32 1=3 4=1 5=1 6=27648 9=2 -23310=1,2.000000e-01
Split                    splitncnn_98             1 3 /body/body.8/rdb1/lrelu_1/LeakyRelu_output_0 /body/body.8/rdb1/lrelu_1/LeakyRelu_output_0_splitncnn_0 /body/body.8/rdb1/lrelu_1/LeakyRelu_output_0_splitncnn_1 /body/body.8/rdb1/lrelu_1/LeakyRelu_output_0_splitncnn_2
Concat                   /body/body.8/rdb1/Concat_1 3 1 /body/body.7/Add_output_0_splitncnn_4 /body/body.8/rdb1/lrelu/LeakyRelu_output_0_splitncnn_2 /body/body.8/rdb1/lrelu_1/LeakyRelu_output_0_splitncnn_2 /body/body.8/rdb1/Concat_1_output_0
Convolution              /body/body.8/rdb1/conv3/Conv 1 1 /body/body.8/rdb1/Concat_1_output_0 /body/body.8/rdb1/lrelu_2/LeakyRelu_output_0 0=32 1=3 4=1 5=1 6=36864 9=2 -23310=1,2.000000e-01
Split                    splitncnn_99             1 2 /body/body.8/rdb1/lrelu_2/LeakyRelu_output_0 /body/body.8/rdb1/lrelu_2/LeakyRelu_output_0_splitncnn_0 /body/body.8/rdb1/lrelu_2/LeakyRelu_output_0_splitncnn_1
Concat                   /body/body.8/rdb1/Concat_2 4 1 /body/body.7/Add_output_0_splitncnn_3 /body/body.8/rdb1/lrelu/LeakyRelu_output_0_splitncnn_1 /body/body.8/rdb1/lrelu_1/LeakyRelu_output_0_splitncnn_1 /body/body.8/rdb1/lrelu_2/LeakyRelu_output_0_splitncnn_1 /body/body.8/rdb1/Concat_2_output_0
Convolution              /body/body.8/rdb1/conv4/Conv 1 1 /body/body.8/rdb1/Concat_2_output_0 /body/body.8/rdb1/lrelu_3/LeakyRelu_output_0 0=32 1=3 4=1 5=1 6=46080 9=2 -23310=1,2.000000e-01
Concat                   /body/body.8/rdb1/Concat_3 5 1 /body/body.7/Add_output_0_splitncnn_2 /body/body.8/rdb1/lrelu/LeakyRelu_output_0_splitncnn_0 /body/body.8/rdb1/lrelu_1/LeakyRelu_output_0_splitncnn_0 /body/body.8/rdb1/lrelu_2/LeakyRelu_output_0_splitncnn_0 /body/body.8/rdb1/lrelu_3/LeakyRelu_output_0 /body/body.8/rdb1/Concat_3_output_0
Convolution              /body/body.8/rdb1/conv5/Conv 1 1 /body/body.8/rdb1/Concat_3_output_0 /body/body.8/rdb1/conv5/Conv_output_0 0=64 1=3 4=1 5=1 6=110592
Eltwise                  /body/body.8/rdb1/Add    2 1 /body/body.8/rdb1/conv5/Conv_output_0 /body/body.7/Add_output_0_splitncnn_1 /body/body.8/rdb1/Add_output_0 0=1 -23301=2,2.000000e-01,1.000000e+00
Split                    splitncnn_100            1 6 /body/body.8/rdb1/Add_output_0 /body/body.8/rdb1/Add_output_0_splitncnn_0 /body/body.8/rdb1/Add_output_0_splitncnn_1 /body/body.8/rdb1/Add_output_0_splitncnn_2 /body/body.8/rdb1/Add_output_0_splitncnn_3 /body/body.8/rdb1/Add_output_0_splitncnn_4 /body/body.8/rdb1/Add_output_0_splitncnn_5
Convolution              /body/body.8/rdb2/conv1/Conv 1 1 /body/body.8/rdb1/Add_output_0_splitncnn_5 /body/body.8/rdb2/lrelu/LeakyRelu_output_0 0=32 1=3 4=1 5=1 6=18432 9=2 -23310=1,2.000000e-01
Split                    splitncnn_101            1 4 /body/body.8/rdb2/lrelu/LeakyRelu_output_0 /body/body.8/rdb2/lrelu/LeakyRelu_output_0_splitncnn_0 /body/body.8/rdb2/lrelu/LeakyRelu_output_0_splitncnn_1 /body/body.8/rdb2/lrelu/LeakyRelu_output_0_splitncnn_2 /body/body.8/rdb2/lrelu/LeakyRelu_output_0_splitncnn_3
Concat                   /body/body.8/rdb2/Concat 2 1 /body/body.8/rdb1/Add_output_0_splitncnn_4 /body/body.8/rdb2/lrelu/LeakyRelu_output_0_splitncnn_3 /body/body.8/rdb2/Concat_output_0
Convolution              /body/body.8/rdb2/conv2/Conv 1 1 /body/body.8/rdb2/Concat_output_0 /body/body.8/rdb2/lrelu_1/LeakyRelu_output_0 0=32 1=3 4=1 5=1 6=27648 9=2 -23310=1,2.000000e-01
Split                    splitncnn_102            1 3 /body/body.8/rdb2/lrelu_1/LeakyRelu_output_0 /body/body.8/rdb2/lrelu_1/LeakyRelu_output_0_splitncnn_0 /body/body.8/rdb2/lrelu_1/LeakyRelu_output_0_splitncnn_1 /body/body.8/rdb2/lrelu_1/LeakyRelu_output_0_splitncnn_2
Concat                   /body/body.8/rdb2/Concat_1 3 1 /body/body.8/rdb1/Add_output_0_splitncnn_3 /body/body.8/rdb2/lrelu/LeakyRelu_output_0_splitncnn_2 /body/body.8/rdb2/lrelu_1/LeakyRelu_output_0_splitncnn_2 /body/body.8/rdb2/Concat_1_output_0
Convolution              /body/body.8/rdb2/conv3/Conv 1 1 /body/body.8/rdb2/Concat_1_output_0 /body/body.8/rdb2/lrelu_2/LeakyRelu_output_0 0=32 1=3 4=1 5=1 6=36864 9=2 -23310=1,2.000000e-01
Split                    splitncnn_103            1 2 /body/body.8/rdb2/lrelu_2/LeakyRelu_output_0 /body/body.8/rdb2/lrelu_2/LeakyRelu_output_0_splitncnn_0 /body/body.8/rdb2/lrelu_2/LeakyRelu_output_0_splitncnn_1
Concat                   /body/body.8/rdb2/Concat_2 4 1 /body/body.8/rdb1/Add_output_0_splitncnn_2 /body/body.8/rdb2/lrelu/LeakyRelu_output_0_splitncnn_1 /body/body.8/rdb2/lrelu_1/LeakyRelu_output_0_splitncnn_1 /body/body.8/rdb2/lrelu_2/LeakyRelu_output_0_splitncnn_1 /body/body.8/rdb2/Concat_2_output_0
Convolution              /body/body.8/rdb2/conv4/Conv 1 1 /body/body.8/rdb2/Concat_2_output_0 /body/body.8/rdb2/lrelu_3/LeakyRelu_output_0 0=32 1=3 4=1 5=1 6=46080 9=2 -23310=1,2.000000e-01
Concat                   /body/body.8/rdb2/Concat_3 5 1 /body/body.8/rdb1/Add_output_0_splitncnn_1 /body/body.8/rdb2/lrelu/LeakyRelu_output_0_splitncnn_0 /body/body.8/rdb2/lrelu_1/LeakyRelu_output_0_splitncnn_0 /body/body.8/rdb2/lrelu_2/LeakyRelu_output_0_splitncnn_0 /body/body.8/rdb2/lrelu_3/LeakyRelu_output_0 /body/body.8/rdb2/Concat_3_output_0
Convolution              /body/body.8/rdb2/conv5/Conv 1 1 /body/body.8/rdb2/Concat_3_output_0 /body/body.8/rdb2/conv5/Conv_output_0 0=64 1=3 4=1 5=1 6=110592
Eltwise                  /body/body.8/rdb2/Add    2 1 /body/body.8/rdb2/conv5/Conv_output_0 /body/body.8/rdb1/Add_output_0_splitncnn_0 /body/body.8/rdb2/Add_output_0 0=1 -23301=2,2.000000e-01,1.000000e+00
Split                    splitncnn_104            1 6 /body/body.8/rdb2/Add_output_0 /body/body.8/rdb2/Add_output_0_splitncnn_0 /body/body.8/rdb2/Add_output_0_splitncnn_1 /body/body.8/rdb2/Add_output_0_splitncnn_2 /body/body.8/rdb2/Add_output_0_splitncnn_3 /body/body.8/rdb2/Add_output_0_splitncnn_4 /body/body.8/rdb2/Add_output_0_splitncnn_5
Convolution              /body/body.8/rdb3/conv1/Conv 1 1 /body/body.8/rdb2/Add_output_0_splitncnn_5 /body/body.8/rdb3/lrelu/LeakyRelu_output_0 0=32 1=3 4=1 5=1 6=18432 9=2 -23310=1,2.000000e-01
Split                    splitncnn_105            1 4 /body/body.8/rdb3/lrelu/LeakyRelu_output_0 /body/body.8/rdb3/lrelu/LeakyRelu_output_0_splitncnn_0 /body/body.8/rdb3/lrelu/LeakyRelu_output_0_splitncnn_1 /body/body.8/rdb3/lrelu/LeakyRelu_output_0_splitncnn_2 /body/body.8/rdb3/lrelu/LeakyRelu_output_0_splitncnn_3
Concat                   /body/body.8/rdb3/Concat 2 1 /body/body.8/rdb2/Add_output_0_splitncnn_4 /body/body.8/rdb3/lrelu/LeakyRelu_output_0_splitncnn_3 /body/body.8/rdb3/Concat_output_0
Convolution              /body/body.8/rdb3/conv2/Conv 1 1 /body/body.8/rdb3/Concat_output_0 /body/body.8/rdb3/lrelu_1/LeakyRelu_output_0 0=32 1=3 4=1 5=1 6=27648 9=2 -23310=1,2.000000e-01
Split                    splitncnn_106            1 3 /body/body.8/rdb3/lrelu_1/LeakyRelu_output_0 /body/body.8/rdb3/lrelu_1/LeakyRelu_output_0_splitncnn_0 /body/body.8/rdb3/lrelu_1/LeakyRelu_output_0_splitncnn_1 /body/body.8/rdb3/lrelu_1/LeakyRelu_output_0_splitncnn_2
Concat                   /body/body.8/rdb3/Concat_1 3 1 /body/body.8/rdb2/Add_output_0_splitncnn_3 /body/body.8/rdb3/lrelu/LeakyRelu_output_0_splitncnn_2 /body/body.8/rdb3/lrelu_1/LeakyRelu_output_0_splitncnn_2 /body/body.8/rdb3/Concat_1_output_0
Convolution              /body/body.8/rdb3/conv3/Conv 1 1 /body/body.8/rdb3/Concat_1_output_0 /body/body.8/rdb3/lrelu_2/LeakyRelu_output_0 0=32 1=3 4=1 5=1 6=36864 9=2 -23310=1,2.000000e-01
Split                    splitncnn_107            1 2 /body/body.8/rdb3/lrelu_2/LeakyRelu_output_0 /body/body.8/rdb3/lrelu_2/LeakyRelu_output_0_splitncnn_0 /body/body.8/rdb3/lrelu_2/LeakyRelu_output_0_splitncnn_1
Concat                   /body/body.8/rdb3/Concat_2 4 1 /body/body.8/rdb2/Add_output_0_splitncnn_2 /body/body.8/rdb3/lrelu/LeakyRelu_output_0_splitncnn_1 /body/body.8/rdb3/lrelu_1/LeakyRelu_output_0_splitncnn_1 /body/body.8/rdb3/lrelu_2/LeakyRelu_output_0_splitncnn_1 /body/body.8/rdb3/Concat_2_output_0
Convolution              /body/body.8/rdb3/conv4/Conv 1 1 /body/body.8/rdb3/Concat_2_output_0 /body/body.8/rdb3/lrelu_3/LeakyRelu_output_0 0=32 1=3 4=1 5=1 6=46080 9=2 -23310=1,2.000000e-01
Concat                   /body/body.8/rdb3/Concat_3 5 1 /body/body.8/rdb2/Add_output_0_splitncnn_1 /body/body.8/rdb3/lrelu/LeakyRelu_output_0_splitncnn_0 /body/body.8/rdb3/lrelu_1/LeakyRelu_output_0_splitncnn_0 /body/body.8/rdb3/lrelu_2/LeakyRelu_output_0_splitncnn_0 /body/body.8/rdb3/lrelu_3/LeakyRelu_output_0 /body/body.8/rdb3/Concat_3_output_0
Convolution              /body/body.8/rdb3/conv5/Conv 1 1 /body/body.8/rdb3/Concat_3_output_0 /body/body.8/rdb3/conv5/Conv_output_0 0=64 1=3 4=1 5=1 6=110592
Eltwise                  /body/body.8/rdb3/Add    2 1 /body/body.8/rdb3/conv5/Conv_output_0 /body/body.8/rdb2/Add_output_0_splitncnn_0 /body/body.8/rdb3/Add_output_0 0=1 -23301=2,2.000000e-01,1.000000e+00
Eltwise                  /body/body.8/Add         2 1 /body/body.8/rdb3/Add_output_0 /body/body.7/Add_output_0_splitncnn_0 /body/body.8/Add_output_0 0=1 -23301=2,2.000000e-01,1.000000e+00
Split                    splitncnn_108            1 7 /body/body.8/Add_output_0 /body/body.8/Add_output_0_splitncnn_0 /body/body.8/Add_output_0_splitncnn_1 /body/body.8/Add_output_0_splitncnn_2 /body/body.8/Add_output_0_splitncnn_3 /body/body.8/Add_output_0_splitncnn_4 /body/body.8/Add_output_0_splitncnn_5 /body/body.8/Add_output_0_splitncnn_6
Convolution              /body/body.9/rdb1/conv1/Conv 1 1 /body/body.8/Add_output_0_splitncnn_6 /body/body.9/rdb1/lrelu/LeakyRelu_output_0 0=32 1=3 4=1 5=1 6=18432 9=2 -23310=1,2.000000e-01
Split                    splitncnn_109            1 4 /body/body.9/rdb1/lrelu/LeakyRelu_output_0 /body/body.9/rdb1/lrelu/LeakyRelu_output_0_splitncnn_0 /body/body.9/rdb1/lrelu/LeakyRelu_output_0_splitncnn_1 /body/body.9/rdb1/lrelu/LeakyRelu_output_0_splitncnn_2 /body/body.9/rdb1/lrelu/LeakyRelu_output_0_splitncnn_3
Concat                   /body/body.9/rdb1/Concat 2 1 /body/body.8/Add_output_0_splitncnn_5 /body/body.9/rdb1/lrelu/LeakyRelu_output_0_splitncnn_3 /body/body.9/rdb1/Concat_output_0
Convolution              /body/body.9/rdb1/conv2/Conv 1 1 /body/body.9/rdb1/Concat_output_0 /body/body.9/rdb1/lrelu_1/LeakyRelu_output_0 0=32 1=3 4=1 5=1 6=27648 9=2 -23310=1,2.000000e-01
Split                    splitncnn_110            1 3 /body/body.9/rdb1/lrelu_1/LeakyRelu_output_0 /body/body.9/rdb1/lrelu_1/LeakyRelu_output_0_splitncnn_0 /body/body.9/rdb1/lrelu_1/LeakyRelu_output_0_splitncnn_1 /body/body.9/rdb1/lrelu_1/LeakyRelu_output_0_splitncnn_2
Concat                   /body/body.9/rdb1/Concat_1 3 1 /body/body.8/Add_output_0_splitncnn_4 /body/body.9/rdb1/lrelu/LeakyRelu_output_0_splitncnn_2 /body/body.9/rdb1/lrelu_1/LeakyRelu_output_0_splitncnn_2 /body/body.9/rdb1/Concat_1_output_0
Convolution              /body/body.9/rdb1/conv3/Conv 1 1 /body/body.9/rdb1/Concat_1_output_0 /body/body.9/rdb1/lrelu_2/LeakyRelu_output_0 0=32 1=3 4=1 5=1 6=36864 9=2 -23310=1,2.000000e-01
Split                    splitncnn_111            1 2 /body/body.9/rdb1/lrelu_2/LeakyRelu_output_0 /body/body.9/rdb1/lrelu_2/LeakyRelu_output_0_splitncnn_0 /body/body.9/rdb1/lrelu_2/LeakyRelu_output_0_splitncnn_1
Concat                   /body/body.9/rdb1/Concat_2 4 1 /body/body.8/Add_output_0_splitncnn_3 /body/body.9/rdb1/lrelu/LeakyRelu_output_0_splitncnn_1 /body/body.9/rdb1/lrelu_1/LeakyRelu_output_0_splitncnn_1 /body/body.9/rdb1/lrelu_2/LeakyRelu_output_0_splitncnn_1 /body/body.9/rdb1/Concat_2_output_0
Convolution              /body/body.9/rdb1/conv4/Conv 1 1 /body/body.9/rdb1/Concat_2_output_0 /body/body.9/rdb1/lrelu_3/LeakyRelu_output_0 0=32 1=3 4=1 5=1 6=46080 9=2 -23310=1,2.000000e-01
Concat                   /body/body.9/rdb1/Concat_3 5 1 /body/body.8/Add_output_0_splitncnn_2 /body/body.9/rdb1/lrelu/LeakyRelu_output_0_splitncnn_0 /body/body.9/rdb1/lrelu_1/LeakyRelu_output_0_splitncnn_0 /body/body.9/rdb1/lrelu_2/LeakyRelu_output_0_splitncnn_0 /body/body.9/rdb1/lrelu_3/LeakyRelu_output_0 /body/body.9/rdb1/Concat_3_output_0
Convolution              /body/body.9/rdb1/conv5/Conv 1 1 /body/body.9/rdb1/Concat_3_output_0 /body/body.9/rdb1/conv5/Conv_output_0 0=64 1=3 4=1 5=1 6=110592
Eltwise                  /body/body.9/rdb1/Add    2 1 /body/body.9/rdb1/conv5/Conv_output_0 /body/body.8/Add_output_0_splitncnn_1 /body/body.9/rdb1/Add_output_0 0=1 -23301=2,2.000000e-01,1.000000e+00
Split                    splitncnn_112            1 6 /body/body.9/rdb1/Add_output_0 /body/body.9/rdb1/Add_output_0_splitncnn_0 /body/body.9/rdb1/Add_output_0_splitncnn_1 /body/body.9/rdb1/Add_output_0_splitncnn_2 /body/body.9/rdb1/Add_output_0_splitncnn_3 /body/body.9/rdb1/Add_output_0_splitncnn_4 /body/body.9/rdb1/Add_output_0_splitncnn_5
Convolution              /body/body.9/rdb2/conv1/Conv 1 1 /body/body.9/rdb1/Add_output_0_splitncnn_5 /body/body.9/rdb2/lrelu/LeakyRelu_output_0 0=32 1=3 4=1 5=1 6=18432 9=2 -23310=1,2.000000e-01
Split                    splitncnn_113            1 4 /body/body.9/rdb2/lrelu/LeakyRelu_output_0 /body/body.9/rdb2/lrelu/LeakyRelu_output_0_splitncnn_0 /body/body.9/rdb2/lrelu/LeakyRelu_output_0_splitncnn_1 /body/body.9/rdb2/lrelu/LeakyRelu_output_0_splitncnn_2 /body/body.9/rdb2/lrelu/LeakyRelu_output_0_splitncnn_3
Concat                   /body/body.9/rdb2/Concat 2 1 /body/body.9/rdb1/Add_output_0_splitncnn_4 /body/body.9/rdb2/lrelu/LeakyRelu_output_0_splitncnn_3 /body/body.9/rdb2/Concat_output_0
Convolution              /body/body.9/rdb2/conv2/Conv 1 1 /body/body.9/rdb2/Concat_output_0 /body/body.9/rdb2/lrelu_1/LeakyRelu_output_0 0=32 1=3 4=1 5=1 6=27648 9=2 -23310=1,2.000000e-01
Split                    splitncnn_114            1 3 /body/body.9/rdb2/lrelu_1/LeakyRelu_output_0 /body/body.9/rdb2/lrelu_1/LeakyRelu_output_0_splitncnn_0 /body/body.9/rdb2/lrelu_1/LeakyRelu_output_0_splitncnn_1 /body/body.9/rdb2/lrelu_1/LeakyRelu_output_0_splitncnn_2
Concat                   /body/body.9/rdb2/Concat_1 3 1 /body/body.9/rdb1/Add_output_0_splitncnn_3 /body/body.9/rdb2/lrelu/LeakyRelu_output_0_splitncnn_2 /body/body.9/rdb2/lrelu_1/LeakyRelu_output_0_splitncnn_2 /body/body.9/rdb2/Concat_1_output_0
Convolution              /body/body.9/rdb2/conv3/Conv 1 1 /body/body.9/rdb2/Concat_1_output_0 /body/body.9/rdb2/lrelu_2/LeakyRelu_output_0 0=32 1=3 4=1 5=1 6=36864 9=2 -23310=1,2.000000e-01
Split                    splitncnn_115            1 2 /body/body.9/rdb2/lrelu_2/LeakyRelu_output_0 /body/body.9/rdb2/lrelu_2/LeakyRelu_output_0_splitncnn_0 /body/body.9/rdb2/lrelu_2/LeakyRelu_output_0_splitncnn_1
Concat                   /body/body.9/rdb2/Concat_2 4 1 /body/body.9/rdb1/Add_output_0_splitncnn_2 /body/body.9/rdb2/lrelu/LeakyRelu_output_0_splitncnn_1 /body/body.9/rdb2/lrelu_1/LeakyRelu_output_0_splitncnn_1 /body/body.9/rdb2/lrelu_2/LeakyRelu_output_0_splitncnn_1 /body/body.9/rdb2/Concat_2_output_0
Convolution              /body/body.9/rdb2/conv4/Conv 1 1 /body/body.9/rdb2/Concat_2_output_0 /body/body.9/rdb2/lrelu_3/LeakyRelu_output_0 0=32 1=3 4=1 5=1 6=46080 9=2 -23310=1,2.000000e-01
Concat                   /body/body.9/rdb2/Concat_3 5 1 /body/body.9/rdb1/Add_output_0_splitncnn_1 /body/body.9/rdb2/lrelu/LeakyRelu_output_0_splitncnn_0 /body/body.9/rdb2/lrelu_1/LeakyRelu_output_0_splitncnn_0 /body/body.9/rdb2/lrelu_2/LeakyRelu_output_0_splitncnn_0 /body/body.9/rdb2/lrelu_3/LeakyRelu_output_0 /body/body.9/rdb2/Concat_3_output_0
Convolution              /body/body.9/rdb2/conv5/Conv 1 1 /body/body.9/rdb2/Concat_3_output_0 /body/body.9/rdb2/conv5/Conv_output_0 0=64 1=3 4=1 5=1 6=110592
Eltwise                  /body/body.9/rdb2/Add    2 1 /body/body.9/rdb2/conv5/Conv_output_0 /body/body.9/rdb1/Add_output_0_splitncnn_0 /body/body.9/rdb2/Add_output_0 0=1 -23301=2,2.000000e-01,1.000000e+00
Split                    splitncnn_116            1 6 /body/body.9/rdb2/Add_output_0 /body/body.9/rdb2/Add_output_0_splitncnn_0 /body/body.9/rdb2/Add_output_0_splitncnn_1 /body/body.9/rdb2/Add_output_0_splitncnn_2 /body/body.9/rdb2/Add_output_0_splitncnn_3 /body/body.9/rdb2/Add_output_0_splitncnn_4 /body/body.9/rdb2/Add_output_0_splitncnn_5
Convolution              /body/body.9/rdb3/conv1/Conv 1 1 /body/body.9/rdb2/Add_output_0_splitncnn_5 /body/body.9/rdb3/lrelu/LeakyRelu_output_0 0=32 1=3 4=1 5=1 6=18432 9=2 -23310=1,2.000000e-01
Split                    splitncnn_117            1 4 /body/body.9/rdb3/lrelu/LeakyRelu_output_0 /body/body.9/rdb3/lrelu/LeakyRelu_output_0_splitncnn_0 /body/body.9/rdb3/lrelu/LeakyRelu_output_0_splitncnn_1 /body/body.9/rdb3/lrelu/LeakyRelu_output_0_splitncnn_2 /body/body.9/rdb3/lrelu/LeakyRelu_output_0_splitncnn_3
Concat                   /body/body.9/rdb3/Concat 2 1 /body/body.9/rdb2/Add_output_0_splitncnn_4 /body/body.9/rdb3/lrelu/LeakyRelu_output_0_splitncnn_3 /body/body.9/rdb3/Concat_output_0
Convolution              /body/body.9/rdb3/conv2/Conv 1 1 /body/body.9/rdb3/Concat_output_0 /body/body.9/rdb3/lrelu_1/LeakyRelu_output_0 0=32 1=3 4=1 5=1 6=27648 9=2 -23310=1,2.000000e-01
Split                    splitncnn_118            1 3 /body/body.9/rdb3/lrelu_1/LeakyRelu_output_0 /body/body.9/rdb3/lrelu_1/LeakyRelu_output_0_splitncnn_0 /body/body.9/rdb3/lrelu_1/LeakyRelu_output_0_splitncnn_1 /body/body.9/rdb3/lrelu_1/LeakyRelu_output_0_splitncnn_2
Concat                   /body/body.9/rdb3/Concat_1 3 1 /body/body.9/rdb2/Add_output_0_splitncnn_3 /body/body.9/rdb3/lrelu/LeakyRelu_output_0_splitncnn_2 /body/body.9/rdb3/lrelu_1/LeakyRelu_output_0_splitncnn_2 /body/body.9/rdb3/Concat_1_output_0
Convolution              /body/body.9/rdb3/conv3/Conv 1 1 /body/body.9/rdb3/Concat_1_output_0 /body/body.9/rdb3/lrelu_2/LeakyRelu_output_0 0=32 1=3 4=1 5=1 6=36864 9=2 -23310=1,2.000000e-01
Split                    splitncnn_119            1 2 /body/body.9/rdb3/lrelu_2/LeakyRelu_output_0 /body/body.9/rdb3/lrelu_2/LeakyRelu_output_0_splitncnn_0 /body/body.9/rdb3/lrelu_2/LeakyRelu_output_0_splitncnn_1
Concat                   /body/body.9/rdb3/Concat_2 4 1 /body/body.9/rdb2/Add_output_0_splitncnn_2 /body/body.9/rdb3/lrelu/LeakyRelu_output_0_splitncnn_1 /body/body.9/rdb3/lrelu_1/LeakyRelu_output_0_splitncnn_1 /body/body.9/rdb3/lrelu_2/LeakyRelu_output_0_splitncnn_1 /body/body.9/rdb3/Concat_2_output_0
Convolution              /body/body.9/rdb3/conv4/Conv 1 1 /body/body.9/rdb3/Concat_2_output_0 /body/body.9/rdb3/lrelu_3/LeakyRelu_output_0 0=32 1=3 4=1 5=1 6=46080 9=2 -23310=1,2.000000e-01
Concat                   /body/body.9/rdb3/Concat_3 5 1 /body/body.9/rdb2/Add_output_0_splitncnn_1 /body/body.9/rdb3/lrelu/LeakyRelu_output_0_splitncnn_0 /body/body.9/rdb3/lrelu_1/LeakyRelu_output_0_splitncnn_0 /body/body.9/rdb3/lrelu_2/LeakyRelu_output_0_splitncnn_0 /body/body.9/rdb3/lrelu_3/LeakyRelu_output_0 /body/body.9/rdb3/Concat_3_output_0
Convolution              /body/body.9/rdb3/conv5/Conv 1 1 /body/body.9/rdb3/Concat_3_output_0 /body/body.9/rdb3/conv5/Conv_output_0 0=64 1=3 4=1 5=1 6=110592
Eltwise                  /body/body.9/rdb3/Add    2 1 /body/body.9/rdb3/conv5/Conv_output_0 /body/body.9/rdb2/Add_output_0_splitncnn_0 /body/body.9/rdb3/Add_output_0 0=1 -23301=2,2.000000e-01,1.000000e+00
Eltwise                  /body/body.9/Add         2 1 /body/body.9/rdb3/Add_output_0 /body/body.8/Add_output_0_splitncnn_0 /body/body.9/Add_output_0 0=1 -23301=2,2.000000e-01,1.000000e+00
Split                    splitncnn_120            1 7 /body/body.9/Add_output_0 /body/body.9/Add_output_0_splitncnn_0 /body/body.9/Add_output_0_splitncnn_1 /body/body.9/Add_output_0_splitncnn_2 /body/body.9/Add_output_0_splitncnn_3 /body/body.9/Add_output_0_splitncnn_4 /body/body.9/Add_output_0_splitncnn_5 /body/body.9/Add_output_0_splitncnn_6
Convolution              /body/body.10/rdb1/conv1/Conv 1 1 /body/body.9/Add_output_0_splitncnn_6 /body/body.10/rdb1/lrelu/LeakyRelu_output_0 0=32 1=3 4=1 5=1 6=18432 9=2 -23310=1,2.000000e-01
Split                    splitncnn_121            1 4 /body/body.10/rdb1/lrelu/LeakyRelu_output_0 /body/body.10/rdb1/lrelu/LeakyRelu_output_0_splitncnn_0 /body/body.10/rdb1/lrelu/LeakyRelu_output_0_splitncnn_1 /body/body.10/rdb1/lrelu/LeakyRelu_output_0_splitncnn_2 /body/body.10/rdb1/lrelu/LeakyRelu_output_0_splitncnn_3
Concat                   /body/body.10/rdb1/Concat 2 1 /body/body.9/Add_output_0_splitncnn_5 /body/body.10/rdb1/lrelu/LeakyRelu_output_0_splitncnn_3 /body/body.10/rdb1/Concat_output_0
Convolution              /body/body.10/rdb1/conv2/Conv 1 1 /body/body.10/rdb1/Concat_output_0 /body/body.10/rdb1/lrelu_1/LeakyRelu_output_0 0=32 1=3 4=1 5=1 6=27648 9=2 -23310=1,2.000000e-01
Split                    splitncnn_122            1 3 /body/body.10/rdb1/lrelu_1/LeakyRelu_output_0 /body/body.10/rdb1/lrelu_1/LeakyRelu_output_0_splitncnn_0 /body/body.10/rdb1/lrelu_1/LeakyRelu_output_0_splitncnn_1 /body/body.10/rdb1/lrelu_1/LeakyRelu_output_0_splitncnn_2
Concat                   /body/body.10/rdb1/Concat_1 3 1 /body/body.9/Add_output_0_splitncnn_4 /body/body.10/rdb1/lrelu/LeakyRelu_output_0_splitncnn_2 /body/body.10/rdb1/lrelu_1/LeakyRelu_output_0_splitncnn_2 /body/body.10/rdb1/Concat_1_output_0
Convolution              /body/body.10/rdb1/conv3/Conv 1 1 /body/body.10/rdb1/Concat_1_output_0 /body/body.10/rdb1/lrelu_2/LeakyRelu_output_0 0=32 1=3 4=1 5=1 6=36864 9=2 -23310=1,2.000000e-01
Split                    splitncnn_123            1 2 /body/body.10/rdb1/lrelu_2/LeakyRelu_output_0 /body/body.10/rdb1/lrelu_2/LeakyRelu_output_0_splitncnn_0 /body/body.10/rdb1/lrelu_2/LeakyRelu_output_0_splitncnn_1
Concat                   /body/body.10/rdb1/Concat_2 4 1 /body/body.9/Add_output_0_splitncnn_3 /body/body.10/rdb1/lrelu/LeakyRelu_output_0_splitncnn_1 /body/body.10/rdb1/lrelu_1/LeakyRelu_output_0_splitncnn_1 /body/body.10/rdb1/lrelu_2/LeakyRelu_output_0_splitncnn_1 /body/body.10/rdb1/Concat_2_output_0
Convolution              /body/body.10/rdb1/conv4/Conv 1 1 /body/body.10/rdb1/Concat_2_output_0 /body/body.10/rdb1/lrelu_3/LeakyRelu_output_0 0=32 1=3 4=1 5=1 6=46080 9=2 -23310=1,2.000000e-01
Concat                   /body/body.10/rdb1/Concat_3 5 1 /body/body.9/Add_output_0_splitncnn_2 /body/body.10/rdb1/lrelu/LeakyRelu_output_0_splitncnn_0 /body/body.10/rdb1/lrelu_1/LeakyRelu_output_0_splitncnn_0 /body/body.10/rdb1/lrelu_2/LeakyRelu_output_0_splitncnn_0 /body/body.10/rdb1/lrelu_3/LeakyRelu_output_0 /body/body.10/rdb1/Concat_3_output_0
Convolution              /body/body.10/rdb1/conv5/Conv 1 1 /body/body.10/rdb1/Concat_3_output_0 /body/body.10/rdb1/conv5/Conv_output_0 0=64 1=3 4=1 5=1 6=110592
Eltwise                  /body/body.10/rdb1/Add   2 1 /body/body.10/rdb1/conv5/Conv_output_0 /body/body.9/Add_output_0_splitncnn_1 /body/body.10/rdb1/Add_output_0 0=1 -23301=2,2.000000e-01,1.000000e+00
Split                    splitncnn_124            1 6 /body/body.10/rdb1/Add_output_0 /body/body.10/rdb1/Add_output_0_splitncnn_0 /body/body.10/rdb1/Add_output_0_splitncnn_1 /body/body.10/rdb1/Add_output_0_splitncnn_2 /body/body.10/rdb1/Add_output_0_splitncnn_3 /body/body.10/rdb1/Add_output_0_splitncnn_4 /body/body.10/rdb1/Add_output_0_splitncnn_5
Convolution              /body/body.10/rdb2/conv1/Conv 1 1 /body/body.10/rdb1/Add_output_0_splitncnn_5 /body/body.10/rdb2/lrelu/LeakyRelu_output_0 0=32 1=3 4=1 5=1 6=18432 9=2 -23310=1,2.000000e-01
Split                    splitncnn_125            1 4 /body/body.10/rdb2/lrelu/LeakyRelu_output_0 /body/body.10/rdb2/lrelu/LeakyRelu_output_0_splitncnn_0 /body/body.10/rdb2/lrelu/LeakyRelu_output_0_splitncnn_1 /body/body.10/rdb2/lrelu/LeakyRelu_output_0_splitncnn_2 /body/body.10/rdb2/lrelu/LeakyRelu_output_0_splitncnn_3
Concat                   /body/body.10/rdb2/Concat 2 1 /body/body.10/rdb1/Add_output_0_splitncnn_4 /body/body.10/rdb2/lrelu/LeakyRelu_output_0_splitncnn_3 /body/body.10/rdb2/Concat_output_0
Convolution              /body/body.10/rdb2/conv2/Conv 1 1 /body/body.10/rdb2/Concat_output_0 /body/body.10/rdb2/lrelu_1/LeakyRelu_output_0 0=32 1=3 4=1 5=1 6=27648 9=2 -23310=1,2.000000e-01
Split                    splitncnn_126            1 3 /body/body.10/rdb2/lrelu_1/LeakyRelu_output_0 /body/body.10/rdb2/lrelu_1/LeakyRelu_output_0_splitncnn_0 /body/body.10/rdb2/lrelu_1/LeakyRelu_output_0_splitncnn_1 /body/body.10/rdb2/lrelu_1/LeakyRelu_output_0_splitncnn_2
Concat                   /body/body.10/rdb2/Concat_1 3 1 /body/body.10/rdb1/Add_output_0_splitncnn_3 /body/body.10/rdb2/lrelu/LeakyRelu_output_0_splitncnn_2 /body/body.10/rdb2/lrelu_1/LeakyRelu_output_0_splitncnn_2 /body/body.10/rdb2/Concat_1_output_0
Convolution              /body/body.10/rdb2/conv3/Conv 1 1 /body/body.10/rdb2/Concat_1_output_0 /body/body.10/rdb2/lrelu_2/LeakyRelu_output_0 0=32 1=3 4=1 5=1 6=36864 9=2 -23310=1,2.000000e-01
Split                    splitncnn_127            1 2 /body/body.10/rdb2/lrelu_2/LeakyRelu_output_0 /body/body.10/rdb2/lrelu_2/LeakyRelu_output_0_splitncnn_0 /body/body.10/rdb2/lrelu_2/LeakyRelu_output_0_splitncnn_1
Concat                   /body/body.10/rdb2/Concat_2 4 1 /body/body.10/rdb1/Add_output_0_splitncnn_2 /body/body.10/rdb2/lrelu/LeakyRelu_output_0_splitncnn_1 /body/body.10/rdb2/lrelu_1/LeakyRelu_output_0_splitncnn_1 /body/body.10/rdb2/lrelu_2/LeakyRelu_output_0_splitncnn_1 /body/body.10/rdb2/Concat_2_output_0
Convolution              /body/body.10/rdb2/conv4/Conv 1 1 /body/body.10/rdb2/Concat_2_output_0 /body/body.10/rdb2/lrelu_3/LeakyRelu_output_0 0=32 1=3 4=1 5=1 6=46080 9=2 -23310=1,2.000000e-01
Concat                   /body/body.10/rdb2/Concat_3 5 1 /body/body.10/rdb1/Add_output_0_splitncnn_1 /body/body.10/rdb2/lrelu/LeakyRelu_output_0_splitncnn_0 /body/body.10/rdb2/lrelu_1/LeakyRelu_output_0_splitncnn_0 /body/body.10/rdb2/lrelu_2/LeakyRelu_output_0_splitncnn_0 /body/body.10/rdb2/lrelu_3/LeakyRelu_output_0 /body/body.10/rdb2/Concat_3_output_0
Convolution              /body/body.10/rdb2/conv5/Conv 1 1 /body/body.10/rdb2/Concat_3_output_0 /body/body.10/rdb2/conv5/Conv_output_0 0=64 1=3 4=1 5=1 6=110592
Eltwise                  /body/body.10/rdb2/Add   2 1 /body/body.10/rdb2/conv5/Conv_output_0 /body/body.10/rdb1/Add_output_0_splitncnn_0 /body/body.10/rdb2/Add_output_0 0=1 -23301=2,2.000000e-01,1.000000e+00
Split                    splitncnn_128            1 6 /body/body.10/rdb2/Add_output_0 /body/body.10/rdb2/Add_output_0_splitncnn_0 /body/body.10/rdb2/Add_output_0_splitncnn_1 /body/body.10/rdb2/Add_output_0_splitncnn_2 /body/body.10/rdb2/Add_output_0_splitncnn_3 /body/body.10/rdb2/Add_output_0_splitncnn_4 /body/body.10/rdb2/Add_output_0_splitncnn_5
Convolution              /body/body.10/rdb3/conv1/Conv 1 1 /body/body.10/rdb2/Add_output_0_splitncnn_5 /body/body.10/rdb3/lrelu/LeakyRelu_output_0 0=32 1=3 4=1 5=1 6=18432 9=2 -23310=1,2.000000e-01
Split                    splitncnn_129            1 4 /body/body.10/rdb3/lrelu/LeakyRelu_output_0 /body/body.10/rdb3/lrelu/LeakyRelu_output_0_splitncnn_0 /body/body.10/rdb3/lrelu/LeakyRelu_output_0_splitncnn_1 /body/body.10/rdb3/lrelu/LeakyRelu_output_0_splitncnn_2 /body/body.10/rdb3/lrelu/LeakyRelu_output_0_splitncnn_3
Concat                   /body/body.10/rdb3/Concat 2 1 /body/body.10/rdb2/Add_output_0_splitncnn_4 /body/body.10/rdb3/lrelu/LeakyRelu_output_0_splitncnn_3 /body/body.10/rdb3/Concat_output_0
Convolution              /body/body.10/rdb3/conv2/Conv 1 1 /body/body.10/rdb3/Concat_output_0 /body/body.10/rdb3/lrelu_1/LeakyRelu_output_0 0=32 1=3 4=1 5=1 6=27648 9=2 -23310=1,2.000000e-01
Split                    splitncnn_130            1 3 /body/body.10/rdb3/lrelu_1/LeakyRelu_output_0 /body/body.10/rdb3/lrelu_1/LeakyRelu_output_0_splitncnn_0 /body/body.10/rdb3/lrelu_1/LeakyRelu_output_0_splitncnn_1 /body/body.10/rdb3/lrelu_1/LeakyRelu_output_0_splitncnn_2
Concat                   /body/body.10/rdb3/Concat_1 3 1 /body/body.10/rdb2/Add_output_0_splitncnn_3 /body/body.10/rdb3/lrelu/LeakyRelu_output_0_splitncnn_2 /body/body.10/rdb3/lrelu_1/LeakyRelu_output_0_splitncnn_2 /body/body.10/rdb3/Concat_1_output_0
Convolution              /body/body.10/rdb3/conv3/Conv 1 1 /body/body.10/rdb3/Concat_1_output_0 /body/body.10/rdb3/lrelu_2/LeakyRelu_output_0 0=32 1=3 4=1 5=1 6=36864 9=2 -23310=1,2.000000e-01
Split                    splitncnn_131            1 2 /body/body.10/rdb3/lrelu_2/LeakyRelu_output_0 /body/body.10/rdb3/lrelu_2/LeakyRelu_output_0_splitncnn_0 /body/body.10/rdb3/lrelu_2/LeakyRelu_output_0_splitncnn_1
Concat                   /body/body.10/rdb3/Concat_2 4 1 /body/body.10/rdb2/Add_output_0_splitncnn_2 /body/body.10/rdb3/lrelu/LeakyRelu_output_0_splitncnn_1 /body/body.10/rdb3/lrelu_1/LeakyRelu_output_0_splitncnn_1 /body/body.10/rdb3/lrelu_2/LeakyRelu_output_0_splitncnn_1 /body/body.10/rdb3/Concat_2_output_0
Convolution              /body/body.10/rdb3/conv4/Conv 1 1 /body/body.10/rdb3/Concat_2_output_0 /body/body.10/rdb3/lrelu_3/LeakyRelu_output_0 0=32 1=3 4=1 5=1 6=46080 9=2 -23310=1,2.000000e-01
Concat                   /body/body.10/rdb3/Concat_3 5 1 /body/body.10/rdb2/Add_output_0_splitncnn_1 /body/body.10/rdb3/lrelu/LeakyRelu_output_0_splitncnn_0 /body/body.10/rdb3/lrelu_1/LeakyRelu_output_0_splitncnn_0 /body/body.10/rdb3/lrelu_2/LeakyRelu_output_0_splitncnn_0 /body/body.10/rdb3/lrelu_3/LeakyRelu_output_0 /body/body.10/rdb3/Concat_3_output_0
Convolution              /body/body.10/rdb3/conv5/Conv 1 1 /body/body.10/rdb3/Concat_3_output_0 /body/body.10/rdb3/conv5/Conv_output_0 0=64 1=3 4=1 5=1 6=110592
Eltwise                  /body/body.10/rdb3/Add   2 1 /body/body.10/rdb3/conv5/Conv_output_0 /body/body.10/rdb2/Add_output_0_splitncnn_0 /body/body.10/rdb3/Add_output_0 0=1 -23301=2,2.000000e-01,1.000000e+00
Eltwise                  /body/body.10/Add        2 1 /body/body.10/rdb3/Add_output_0 /body/body.9/Add_output_0_splitncnn_0 /body/body.10/Add_output_0 0=1 -23301=2,2.000000e-01,1.000000e+00
Split                    splitncnn_132            1 7 /body/body.10/Add_output_0 /body/body.10/Add_output_0_splitncnn_0 /body/body.10/Add_output_0_splitncnn_1 /body/body.10/Add_output_0_splitncnn_2 /body/body.10/Add_output_0_splitncnn_3 /body/body.10/Add_output_0_splitncnn_4 /body/body.10/Add_output_0_splitncnn_5 /body/body.10/Add_output_0_splitncnn_6
Convolution              /body/body.11/rdb1/conv1/Conv 1 1 /body/body.10/Add_output_0_splitncnn_6 /body/body.11/rdb1/lrelu/LeakyRelu_output_0 0=32 1=3 4=1 5=1 6=18432 9=2 -23310=1,2.000000e-01
Split                    splitncnn_133            1 4 /body/body.11/rdb1/lrelu/LeakyRelu_output_0 /body/body.11/rdb1/lrelu/LeakyRelu_output_0_splitncnn_0 /body/body.11/rdb1/lrelu/LeakyRelu_output_0_splitncnn_1 /body/body.11/rdb1/lrelu/LeakyRelu_output_0_splitncnn_2 /body/body.11/rdb1/lrelu/LeakyRelu_output_0_splitncnn_3
Concat                   /body/body.11/rdb1/Concat 2 1 /body/body.10/Add_output_0_splitncnn_5 /body/body.11/rdb1/lrelu/LeakyRelu_output_0_splitncnn_3 /body/body.11/rdb1/Concat_output_0
Convolution              /body/body.11/rdb1/conv2/Conv 1 1 /body/body.11/rdb1/Concat_output_0 /body/body.11/rdb1/lrelu_1/LeakyRelu_output_0 0=32 1=3 4=1 5=1 6=27648 9=2 -23310=1,2.000000e-01
Split                    splitncnn_134            1 3 /body/body.11/rdb1/lrelu_1/LeakyRelu_output_0 /body/body.11/rdb1/lrelu_1/LeakyRelu_output_0_splitncnn_0 /body/body.11/rdb1/lrelu_1/LeakyRelu_output_0_splitncnn_1 /body/body.11/rdb1/lrelu_1/LeakyRelu_output_0_splitncnn_2
Concat                   /body/body.11/rdb1/Concat_1 3 1 /body/body.10/Add_output_0_splitncnn_4 /body/body.11/rdb1/lrelu/LeakyRelu_output_0_splitncnn_2 /body/body.11/rdb1/lrelu_1/LeakyRelu_output_0_splitncnn_2 /body/body.11/rdb1/Concat_1_output_0
Convolution              /body/body.11/rdb1/conv3/Conv 1 1 /body/body.11/rdb1/Concat_1_output_0 /body/body.11/rdb1/lrelu_2/LeakyRelu_output_0 0=32 1=3 4=1 5=1 6=36864 9=2 -23310=1,2.000000e-01
Split                    splitncnn_135            1 2 /body/body.11/rdb1/lrelu_2/LeakyRelu_output_0 /body/body.11/rdb1/lrelu_2/LeakyRelu_output_0_splitncnn_0 /body/body.11/rdb1/lrelu_2/LeakyRelu_output_0_splitncnn_1
Concat                   /body/body.11/rdb1/Concat_2 4 1 /body/body.10/Add_output_0_splitncnn_3 /body/body.11/rdb1/lrelu/LeakyRelu_output_0_splitncnn_1 /body/body.11/rdb1/lrelu_1/LeakyRelu_output_0_splitncnn_1 /body/body.11/rdb1/lrelu_2/LeakyRelu_output_0_splitncnn_1 /body/body.11/rdb1/Concat_2_output_0
Convolution              /body/body.11/rdb1/conv4/Conv 1 1 /body/body.11/rdb1/Concat_2_output_0 /body/body.11/rdb1/lrelu_3/LeakyRelu_output_0 0=32 1=3 4=1 5=1 6=46080 9=2 -23310=1,2.000000e-01
Concat                   /body/body.11/rdb1/Concat_3 5 1 /body/body.10/Add_output_0_splitncnn_2 /body/body.11/rdb1/lrelu/LeakyRelu_output_0_splitncnn_0 /body/body.11/rdb1/lrelu_1/LeakyRelu_output_0_splitncnn_0 /body/body.11/rdb1/lrelu_2/LeakyRelu_output_0_splitncnn_0 /body/body.11/rdb1/lrelu_3/LeakyRelu_output_0 /body/body.11/rdb1/Concat_3_output_0
Convolution              /body/body.11/rdb1/conv5/Conv 1 1 /body/body.11/rdb1/Concat_3_output_0 /body/body.11/rdb1/conv5/Conv_output_0 0=64 1=3 4=1 5=1 6=110592
Eltwise                  /body/body.11/rdb1/Add   2 1 /body/body.11/rdb1/conv5/Conv_output_0 /body/body.10/Add_output_0_splitncnn_1 /body/body.11/rdb1/Add_output_0 0=1 -23301=2,2.000000e-01,1.000000e+00
Split                    splitncnn_136            1 6 /body/body.11/rdb1/Add_output_0 /body/body.11/rdb1/Add_output_0_splitncnn_0 /body/body.11/rdb1/Add_output_0_splitncnn_1 /body/body.11/rdb1/Add_output_0_splitncnn_2 /body/body.11/rdb1/Add_output_0_splitncnn_3 /body/body.11/rdb1/Add_output_0_splitncnn_4 /body/body.11/rdb1/Add_output_0_splitncnn_5
Convolution              /body/body.11/rdb2/conv1/Conv 1 1 /body/body.11/rdb1/Add_output_0_splitncnn_5 /body/body.11/rdb2/lrelu/LeakyRelu_output_0 0=32 1=3 4=1 5=1 6=18432 9=2 -23310=1,2.000000e-01
Split                    splitncnn_137            1 4 /body/body.11/rdb2/lrelu/LeakyRelu_output_0 /body/body.11/rdb2/lrelu/LeakyRelu_output_0_splitncnn_0 /body/body.11/rdb2/lrelu/LeakyRelu_output_0_splitncnn_1 /body/body.11/rdb2/lrelu/LeakyRelu_output_0_splitncnn_2 /body/body.11/rdb2/lrelu/LeakyRelu_output_0_splitncnn_3
Concat                   /body/body.11/rdb2/Concat 2 1 /body/body.11/rdb1/Add_output_0_splitncnn_4 /body/body.11/rdb2/lrelu/LeakyRelu_output_0_splitncnn_3 /body/body.11/rdb2/Concat_output_0
Convolution              /body/body.11/rdb2/conv2/Conv 1 1 /body/body.11/rdb2/Concat_output_0 /body/body.11/rdb2/lrelu_1/LeakyRelu_output_0 0=32 1=3 4=1 5=1 6=27648 9=2 -23310=1,2.000000e-01
Split                    splitncnn_138            1 3 /body/body.11/rdb2/lrelu_1/LeakyRelu_output_0 /body/body.11/rdb2/lrelu_1/LeakyRelu_output_0_splitncnn_0 /body/body.11/rdb2/lrelu_1/LeakyRelu_output_0_splitncnn_1 /body/body.11/rdb2/lrelu_1/LeakyRelu_output_0_splitncnn_2
Concat                   /body/body.11/rdb2/Concat_1 3 1 /body/body.11/rdb1/Add_output_0_splitncnn_3 /body/body.11/rdb2/lrelu/LeakyRelu_output_0_splitncnn_2 /body/body.11/rdb2/lrelu_1/LeakyRelu_output_0_splitncnn_2 /body/body.11/rdb2/Concat_1_output_0
Convolution              /body/body.11/rdb2/conv3/Conv 1 1 /body/body.11/rdb2/Concat_1_output_0 /body/body.11/rdb2/lrelu_2/LeakyRelu_output_0 0=32 1=3 4=1 5=1 6=36864 9=2 -23310=1,2.000000e-01
Split                    splitncnn_139            1 2 /body/body.11/rdb2/lrelu_2/LeakyRelu_output_0 /body/body.11/rdb2/lrelu_2/LeakyRelu_output_0_splitncnn_0 /body/body.11/rdb2/lrelu_2/LeakyRelu_output_0_splitncnn_1
Concat                   /body/body.11/rdb2/Concat_2 4 1 /body/body.11/rdb1/Add_output_0_splitncnn_2 /body/body.11/rdb2/lrelu/LeakyRelu_output_0_splitncnn_1 /body/body.11/rdb2/lrelu_1/LeakyRelu_output_0_splitncnn_1 /body/body.11/rdb2/lrelu_2/LeakyRelu_output_0_splitncnn_1 /body/body.11/rdb2/Concat_2_output_0
Convolution              /body/body.11/rdb2/conv4/Conv 1 1 /body/body.11/rdb2/Concat_2_output_0 /body/body.11/rdb2/lrelu_3/LeakyRelu_output_0 0=32 1=3 4=1 5=1 6=46080 9=2 -23310=1,2.000000e-01
Concat                   /body/body.11/rdb2/Concat_3 5 1 /body/body.11/rdb1/Add_output_0_splitncnn_1 /body/body.11/rdb2/lrelu/LeakyRelu_output_0_splitncnn_0 /body/body.11/rdb2/lrelu_1/LeakyRelu_output_0_splitncnn_0 /body/body.11/rdb2/lrelu_2/LeakyRelu_output_0_splitncnn_0 /body/body.11/rdb2/lrelu_3/LeakyRelu_output_0 /body/body.11/rdb2/Concat_3_output_0
Convolution              /body/body.11/rdb2/conv5/Conv 1 1 /body/body.11/rdb2/Concat_3_output_0 /body/body.11/rdb2/conv5/Conv_output_0 0=64 1=3 4=1 5=1 6=110592
Eltwise                  /body/body.11/rdb2/Add   2 1 /body/body.11/rdb2/conv5/Conv_output_0 /body/body.11/rdb1/Add_output_0_splitncnn_0 /body/body.11/rdb2/Add_output_0 0=1 -23301=2,2.000000e-01,1.000000e+00
Split                    splitncnn_140            1 6 /body/body.11/rdb2/Add_output_0 /body/body.11/rdb2/Add_output_0_splitncnn_0 /body/body.11/rdb2/Add_output_0_splitncnn_1 /body/body.11/rdb2/Add_output_0_splitncnn_2 /body/body.11/rdb2/Add_output_0_splitncnn_3 /body/body.11/rdb2/Add_output_0_splitncnn_4 /body/body.11/rdb2/Add_output_0_splitncnn_5
Convolution              /body/body.11/rdb3/conv1/Conv 1 1 /body/body.11/rdb2/Add_output_0_splitncnn_5 /body/body.11/rdb3/lrelu/LeakyRelu_output_0 0=32 1=3 4=1 5=1 6=18432 9=2 -23310=1,2.000000e-01
Split                    splitncnn_141            1 4 /body/body.11/rdb3/lrelu/LeakyRelu_output_0 /body/body.11/rdb3/lrelu/LeakyRelu_output_0_splitncnn_0 /body/body.11/rdb3/lrelu/LeakyRelu_output_0_splitncnn_1 /body/body.11/rdb3/lrelu/LeakyRelu_output_0_splitncnn_2 /body/body.11/rdb3/lrelu/LeakyRelu_output_0_splitncnn_3
Concat                   /body/body.11/rdb3/Concat 2 1 /body/body.11/rdb2/Add_output_0_splitncnn_4 /body/body.11/rdb3/lrelu/LeakyRelu_output_0_splitncnn_3 /body/body.11/rdb3/Concat_output_0
Convolution              /body/body.11/rdb3/conv2/Conv 1 1 /body/body.11/rdb3/Concat_output_0 /body/body.11/rdb3/lrelu_1/LeakyRelu_output_0 0=32 1=3 4=1 5=1 6=27648 9=2 -23310=1,2.000000e-01
Split                    splitncnn_142            1 3 /body/body.11/rdb3/lrelu_1/LeakyRelu_output_0 /body/body.11/rdb3/lrelu_1/LeakyRelu_output_0_splitncnn_0 /body/body.11/rdb3/lrelu_1/LeakyRelu_output_0_splitncnn_1 /body/body.11/rdb3/lrelu_1/LeakyRelu_output_0_splitncnn_2
Concat                   /body/body.11/rdb3/Concat_1 3 1 /body/body.11/rdb2/Add_output_0_splitncnn_3 /body/body.11/rdb3/lrelu/LeakyRelu_output_0_splitncnn_2 /body/body.11/rdb3/lrelu_1/LeakyRelu_output_0_splitncnn_2 /body/body.11/rdb3/Concat_1_output_0
Convolution              /body/body.11/rdb3/conv3/Conv 1 1 /body/body.11/rdb3/Concat_1_output_0 /body/body.11/rdb3/lrelu_2/LeakyRelu_output_0 0=32 1=3 4=1 5=1 6=36864 9=2 -23310=1,2.000000e-01
Split                    splitncnn_143            1 2 /body/body.11/rdb3/lrelu_2/LeakyRelu_output_0 /body/body.11/rdb3/lrelu_2/LeakyRelu_output_0_splitncnn_0 /body/body.11/rdb3/lrelu_2/LeakyRelu_output_0_splitncnn_1
Concat                   /body/body.11/rdb3/Concat_2 4 1 /body/body.11/rdb2/Add_output_0_splitncnn_2 /body/body.11/rdb3/lrelu/LeakyRelu_output_0_splitncnn_1 /body/body.11/rdb3/lrelu_1/LeakyRelu_output_0_splitncnn_1 /body/body.11/rdb3/lrelu_2/LeakyRelu_output_0_splitncnn_1 /body/body.11/rdb3/Concat_2_output_0
Convolution              /body/body.11/rdb3/conv4/Conv 1 1 /body/body.11/rdb3/Concat_2_output_0 /body/body.11/rdb3/lrelu_3/LeakyRelu_output_0 0=32 1=3 4=1 5=1 6=46080 9=2 -23310=1,2.000000e-01
Concat                   /body/body.11/rdb3/Concat_3 5 1 /body/body.11/rdb2/Add_output_0_splitncnn_1 /body/body.11/rdb3/lrelu/LeakyRelu_output_0_splitncnn_0 /body/body.11/rdb3/lrelu_1/LeakyRelu_output_0_splitncnn_0 /body/body.11/rdb3/lrelu_2/LeakyRelu_output_0_splitncnn_0 /body/body.11/rdb3/lrelu_3/LeakyRelu_output_0 /body/body.11/rdb3/Concat_3_output_0
Convolution              /body/body.11/rdb3/conv5/Conv 1 1 /body/body.11/rdb3/Concat_3_output_0 /body/body.11/rdb3/conv5/Conv_output_0 0=64 1=3 4=1 5=1 6=110592
Eltwise                  /body/body.11/rdb3/Add   2 1 /body/body.11/rdb3/conv5/Conv_output_0 /body/body.11/rdb2/Add_output_0_splitncnn_0 /body/body.11/rdb3/Add_output_0 0=1 -23301=2,2.000000e-01,1.000000e+00
Eltwise                  /body/body.11/Add        2 1 /body/body.11/rdb3/Add_output_0 /body/body.10/Add_output_0_splitncnn_0 /body/body.11/Add_output_0 0=1 -23301=2,2.000000e-01,1.000000e+00
Split                    splitncnn_144            1 7 /body/body.11/Add_output_0 /body/body.11/Add_output_0_splitncnn_0 /body/body.11/Add_output_0_splitncnn_1 /body/body.11/Add_output_0_splitncnn_2 /body/body.11/Add_output_0_splitncnn_3 /body/body.11/Add_output_0_splitncnn_4 /body/body.11/Add_output_0_splitncnn_5 /body/body.11/Add_output_0_splitncnn_6
Convolution              /body/body.12/rdb1/conv1/Conv 1 1 /body/body.11/Add_output_0_splitncnn_6 /body/body.12/rdb1/lrelu/LeakyRelu_output_0 0=32 1=3 4=1 5=1 6=18432 9=2 -23310=1,2.000000e-01
Split                    splitncnn_145            1 4 /body/body.12/rdb1/lrelu/LeakyRelu_output_0 /body/body.12/rdb1/lrelu/LeakyRelu_output_0_splitncnn_0 /body/body.12/rdb1/lrelu/LeakyRelu_output_0_splitncnn_1 /body/body.12/rdb1/lrelu/LeakyRelu_output_0_splitncnn_2 /body/body.12/rdb1/lrelu/LeakyRelu_output_0_splitncnn_3
Concat                   /body/body.12/rdb1/Concat 2 1 /body/body.11/Add_output_0_splitncnn_5 /body/body.12/rdb1/lrelu/LeakyRelu_output_0_splitncnn_3 /body/body.12/rdb1/Concat_output_0
Convolution              /body/body.12/rdb1/conv2/Conv 1 1 /body/body.12/rdb1/Concat_output_0 /body/body.12/rdb1/lrelu_1/LeakyRelu_output_0 0=32 1=3 4=1 5=1 6=27648 9=2 -23310=1,2.000000e-01
Split                    splitncnn_146            1 3 /body/body.12/rdb1/lrelu_1/LeakyRelu_output_0 /body/body.12/rdb1/lrelu_1/LeakyRelu_output_0_splitncnn_0 /body/body.12/rdb1/lrelu_1/LeakyRelu_output_0_splitncnn_1 /body/body.12/rdb1/lrelu_1/LeakyRelu_output_0_splitncnn_2
Concat                   /body/body.12/rdb1/Concat_1 3 1 /body/body.11/Add_output_0_splitncnn_4 /body/body.12/rdb1/lrelu/LeakyRelu_output_0_splitncnn_2 /body/body.12/rdb1/lrelu_1/LeakyRelu_output_0_splitncnn_2 /body/body.12/rdb1/Concat_1_output_0
Convolution              /body/body.12/rdb1/conv3/Conv 1 1 /body/body.12/rdb1/Concat_1_output_0 /body/body.12/rdb1/lrelu_2/LeakyRelu_output_0 0=32 1=3 4=1 5=1 6=36864 9=2 -23310=1,2.000000e-01
Split                    splitncnn_147            1 2 /body/body.12/rdb1/lrelu_2/LeakyRelu_output_0 /body/body.12/rdb1/lrelu_2/LeakyRelu_output_0_splitncnn_0 /body/body.12/rdb1/lrelu_2/LeakyRelu_output_0_splitncnn_1
Concat                   /body/body.12/rdb1/Concat_2 4 1 /body/body.11/Add_output_0_splitncnn_3 /body/body.12/rdb1/lrelu/LeakyRelu_output_0_splitncnn_1 /body/body.12/rdb1/lrelu_1/LeakyRelu_output_0_splitncnn_1 /body/body.12/rdb1/lrelu_2/LeakyRelu_output_0_splitncnn_1 /body/body.12/rdb1/Concat_2_output_0
Convolution              /body/body.12/rdb1/conv4/Conv 1 1 /body/body.12/rdb1/Concat_2_output_0 /body/body.12/rdb1/lrelu_3/LeakyRelu_output_0 0=32 1=3 4=1 5=1 6=46080 9=2 -23310=1,2.000000e-01
Concat                   /body/body.12/rdb1/Concat_3 5 1 /body/body.11/Add_output_0_splitncnn_2 /body/body.12/rdb1/lrelu/LeakyRelu_output_0_splitncnn_0 /body/body.12/rdb1/lrelu_1/LeakyRelu_output_0_splitncnn_0 /body/body.12/rdb1/lrelu_2/LeakyRelu_output_0_splitncnn_0 /body/body.12/rdb1/lrelu_3/LeakyRelu_output_0 /body/body.12/rdb1/Concat_3_output_0
Convolution              /body/body.12/rdb1/conv5/Conv 1 1 /body/body.12/rdb1/Concat_3_output_0 /body/body.12/rdb1/conv5/Conv_output_0 0=64 1=3 4=1 5=1 6=110592
Eltwise                  /body/body.12/rdb1/Add   2 1 /body/body.12/rdb1/conv5/Conv_output_0 /body/body.11/Add_output_0_splitncnn_1 /body/body.12/rdb1/Add_output_0 0=1 -23301=2,2.000000e-01,1.000000e+00
Split                    splitncnn_148            1 6 /body/body.12/rdb1/Add_output_0 /body/body.12/rdb1/Add_output_0_splitncnn_0 /body/body.12/rdb1/Add_output_0_splitncnn_1 /body/body.12/rdb1/Add_output_0_splitncnn_2 /body/body.12/rdb1/Add_output_0_splitncnn_3 /body/body.12/rdb1/Add_output_0_splitncnn_4 /body/body.12/rdb1/Add_output_0_splitncnn_5
Convolution              /body/body.12/rdb2/conv1/Conv 1 1 /body/body.12/rdb1/Add_output_0_splitncnn_5 /body/body.12/rdb2/lrelu/LeakyRelu_output_0 0=32 1=3 4=1 5=1 6=18432 9=2 -23310=1,2.000000e-01
Split                    splitncnn_149            1 4 /body/body.12/rdb2/lrelu/LeakyRelu_output_0 /body/body.12/rdb2/lrelu/LeakyRelu_output_0_splitncnn_0 /body/body.12/rdb2/lrelu/LeakyRelu_output_0_splitncnn_1 /body/body.12/rdb2/lrelu/LeakyRelu_output_0_splitncnn_2 /body/body.12/rdb2/lrelu/LeakyRelu_output_0_splitncnn_3
Concat                   /body/body.12/rdb2/Concat 2 1 /body/body.12/rdb1/Add_output_0_splitncnn_4 /body/body.12/rdb2/lrelu/LeakyRelu_output_0_splitncnn_3 /body/body.12/rdb2/Concat_output_0
Convolution              /body/body.12/rdb2/conv2/Conv 1 1 /body/body.12/rdb2/Concat_output_0 /body/body.12/rdb2/lrelu_1/LeakyRelu_output_0 0=32 1=3 4=1 5=1 6=27648 9=2 -23310=1,2.000000e-01
Split                    splitncnn_150            1 3 /body/body.12/rdb2/lrelu_1/LeakyRelu_output_0 /body/body.12/rdb2/lrelu_1/LeakyRelu_output_0_splitncnn_0 /body/body.12/rdb2/lrelu_1/LeakyRelu_output_0_splitncnn_1 /body/body.12/rdb2/lrelu_1/LeakyRelu_output_0_splitncnn_2
Concat                   /body/body.12/rdb2/Concat_1 3 1 /body/body.12/rdb1/Add_output_0_splitncnn_3 /body/body.12/rdb2/lrelu/LeakyRelu_output_0_splitncnn_2 /body/body.12/rdb2/lrelu_1/LeakyRelu_output_0_splitncnn_2 /body/body.12/rdb2/Concat_1_output_0
Convolution              /body/body.12/rdb2/conv3/Conv 1 1 /body/body.12/rdb2/Concat_1_output_0 /body/body.12/rdb2/lrelu_2/LeakyRelu_output_0 0=32 1=3 4=1 5=1 6=36864 9=2 -23310=1,2.000000e-01
Split                    splitncnn_151            1 2 /body/body.12/rdb2/lrelu_2/LeakyRelu_output_0 /body/body.12/rdb2/lrelu_2/LeakyRelu_output_0_splitncnn_0 /body/body.12/rdb2/lrelu_2/LeakyRelu_output_0_splitncnn_1
Concat                   /body/body.12/rdb2/Concat_2 4 1 /body/body.12/rdb1/Add_output_0_splitncnn_2 /body/body.12/rdb2/lrelu/LeakyRelu_output_0_splitncnn_1 /body/body.12/rdb2/lrelu_1/LeakyRelu_output_0_splitncnn_1 /body/body.12/rdb2/lrelu_2/LeakyRelu_output_0_splitncnn_1 /body/body.12/rdb2/Concat_2_output_0
Convolution              /body/body.12/rdb2/conv4/Conv 1 1 /body/body.12/rdb2/Concat_2_output_0 /body/body.12/rdb2/lrelu_3/LeakyRelu_output_0 0=32 1=3 4=1 5=1 6=46080 9=2 -23310=1,2.000000e-01
Concat                   /body/body.12/rdb2/Concat_3 5 1 /body/body.12/rdb1/Add_output_0_splitncnn_1 /body/body.12/rdb2/lrelu/LeakyRelu_output_0_splitncnn_0 /body/body.12/rdb2/lrelu_1/LeakyRelu_output_0_splitncnn_0 /body/body.12/rdb2/lrelu_2/LeakyRelu_output_0_splitncnn_0 /body/body.12/rdb2/lrelu_3/LeakyRelu_output_0 /body/body.12/rdb2/Concat_3_output_0
Convolution              /body/body.12/rdb2/conv5/Conv 1 1 /body/body.12/rdb2/Concat_3_output_0 /body/body.12/rdb2/conv5/Conv_output_0 0=64 1=3 4=1 5=1 6=110592
Eltwise                  /body/body.12/rdb2/Add   2 1 /body/body.12/rdb2/conv5/Conv_output_0 /body/body.12/rdb1/Add_output_0_splitncnn_0 /body/body.12/rdb2/Add_output_0 0=1 -23301=2,2.000000e-01,1.000000e+00
Split                    splitncnn_152            1 6 /body/body.12/rdb2/Add_output_0 /body/body.12/rdb2/Add_output_0_splitncnn_0 /body/body.12/rdb2/Add_output_0_splitncnn_1 /body/body.12/rdb2/Add_output_0_splitncnn_2 /body/body.12/rdb2/Add_output_0_splitncnn_3 /body/body.12/rdb2/Add_output_0_splitncnn_4 /body/body.12/rdb2/Add_output_0_splitncnn_5
Convolution              /body/body.12/rdb3/conv1/Conv 1 1 /body/body.12/rdb2/Add_output_0_splitncnn_5 /body/body.12/rdb3/lrelu/LeakyRelu_output_0 0=32 1=3 4=1 5=1 6=18432 9=2 -23310=1,2.000000e-01
Split                    splitncnn_153            1 4 /body/body.12/rdb3/lrelu/LeakyRelu_output_0 /body/body.12/rdb3/lrelu/LeakyRelu_output_0_splitncnn_0 /body/body.12/rdb3/lrelu/LeakyRelu_output_0_splitncnn_1 /body/body.12/rdb3/lrelu/LeakyRelu_output_0_splitncnn_2 /body/body.12/rdb3/lrelu/LeakyRelu_output_0_splitncnn_3
Concat                   /body/body.12/rdb3/Concat 2 1 /body/body.12/rdb2/Add_output_0_splitncnn_4 /body/body.12/rdb3/lrelu/LeakyRelu_output_0_splitncnn_3 /body/body.12/rdb3/Concat_output_0
Convolution              /body/body.12/rdb3/conv2/Conv 1 1 /body/body.12/rdb3/Concat_output_0 /body/body.12/rdb3/lrelu_1/LeakyRelu_output_0 0=32 1=3 4=1 5=1 6=27648 9=2 -23310=1,2.000000e-01
Split                    splitncnn_154            1 3 /body/body.12/rdb3/lrelu_1/LeakyRelu_output_0 /body/body.12/rdb3/lrelu_1/LeakyRelu_output_0_splitncnn_0 /body/body.12/rdb3/lrelu_1/LeakyRelu_output_0_splitncnn_1 /body/body.12/rdb3/lrelu_1/LeakyRelu_output_0_splitncnn_2
Concat                   /body/body.12/rdb3/Concat_1 3 1 /body/body.12/rdb2/Add_output_0_splitncnn_3 /body/body.12/rdb3/lrelu/LeakyRelu_output_0_splitncnn_2 /body/body.12/rdb3/lrelu_1/LeakyRelu_output_0_splitncnn_2 /body/body.12/rdb3/Concat_1_output_0
Convolution              /body/body.12/rdb3/conv3/Conv 1 1 /body/body.12/rdb3/Concat_1_output_0 /body/body.12/rdb3/lrelu_2/LeakyRelu_output_0 0=32 1=3 4=1 5=1 6=36864 9=2 -23310=1,2.000000e-01
Split                    splitncnn_155            1 2 /body/body.12/rdb3/lrelu_2/LeakyRelu_output_0 /body/body.12/rdb3/lrelu_2/LeakyRelu_output_0_splitncnn_0 /body/body.12/rdb3/lrelu_2/LeakyRelu_output_0_splitncnn_1
Concat                   /body/body.12/rdb3/Concat_2 4 1 /body/body.12/rdb2/Add_output_0_splitncnn_2 /body/body.12/rdb3/lrelu/LeakyRelu_output_0_splitncnn_1 /body/body.12/rdb3/lrelu_1/LeakyRelu_output_0_splitncnn_1 /body/body.12/rdb3/lrelu_2/LeakyRelu_output_0_splitncnn_1 /body/body.12/rdb3/Concat_2_output_0
Convolution              /body/body.12/rdb3/conv4/Conv 1 1 /body/body.12/rdb3/Concat_2_output_0 /body/body.12/rdb3/lrelu_3/LeakyRelu_output_0 0=32 1=3 4=1 5=1 6=46080 9=2 -23310=1,2.000000e-01
Concat                   /body/body.12/rdb3/Concat_3 5 1 /body/body.12/rdb2/Add_output_0_splitncnn_1 /body/body.12/rdb3/lrelu/LeakyRelu_output_0_splitncnn_0 /body/body.12/rdb3/lrelu_1/LeakyRelu_output_0_splitncnn_0 /body/body.12/rdb3/lrelu_2/LeakyRelu_output_0_splitncnn_0 /body/body.12/rdb3/lrelu_3/LeakyRelu_output_0 /body/body.12/rdb3/Concat_3_output_0
Convolution              /body/body.12/rdb3/conv5/Conv 1 1 /body/body.12/rdb3/Concat_3_output_0 /body/body.12/rdb3/conv5/Conv_output_0 0=64 1=3 4=1 5=1 6=110592
Eltwise                  /body/body.12/rdb3/Add   2 1 /body/body.12/rdb3/conv5/Conv_output_0 /body/body.12/rdb2/Add_output_0_splitncnn_0 /body/body.12/rdb3/Add_output_0 0=1 -23301=2,2.000000e-01,1.000000e+00
Eltwise                  /body/body.12/Add        2 1 /body/body.12/rdb3/Add_output_0 /body/body.11/Add_output_0_splitncnn_0 /body/body.12/Add_output_0 0=1 -23301=2,2.000000e-01,1.000000e+00
Split                    splitncnn_156            1 7 /body/body.12/Add_output_0 /body/body.12/Add_output_0_splitncnn_0 /body/body.12/Add_output_0_splitncnn_1 /body/body.12/Add_output_0_splitncnn_2 /body/body.12/Add_output_0_splitncnn_3 /body/body.12/Add_output_0_splitncnn_4 /body/body.12/Add_output_0_splitncnn_5 /body/body.12/Add_output_0_splitncnn_6
Convolution              /body/body.13/rdb1/conv1/Conv 1 1 /body/body.12/Add_output_0_splitncnn_6 /body/body.13/rdb1/lrelu/LeakyRelu_output_0 0=32 1=3 4=1 5=1 6=18432 9=2 -23310=1,2.000000e-01
Split                    splitncnn_157            1 4 /body/body.13/rdb1/lrelu/LeakyRelu_output_0 /body/body.13/rdb1/lrelu/LeakyRelu_output_0_splitncnn_0 /body/body.13/rdb1/lrelu/LeakyRelu_output_0_splitncnn_1 /body/body.13/rdb1/lrelu/LeakyRelu_output_0_splitncnn_2 /body/body.13/rdb1/lrelu/LeakyRelu_output_0_splitncnn_3
Concat                   /body/body.13/rdb1/Concat 2 1 /body/body.12/Add_output_0_splitncnn_5 /body/body.13/rdb1/lrelu/LeakyRelu_output_0_splitncnn_3 /body/body.13/rdb1/Concat_output_0
Convolution              /body/body.13/rdb1/conv2/Conv 1 1 /body/body.13/rdb1/Concat_output_0 /body/body.13/rdb1/lrelu_1/LeakyRelu_output_0 0=32 1=3 4=1 5=1 6=27648 9=2 -23310=1,2.000000e-01
Split                    splitncnn_158            1 3 /body/body.13/rdb1/lrelu_1/LeakyRelu_output_0 /body/body.13/rdb1/lrelu_1/LeakyRelu_output_0_splitncnn_0 /body/body.13/rdb1/lrelu_1/LeakyRelu_output_0_splitncnn_1 /body/body.13/rdb1/lrelu_1/LeakyRelu_output_0_splitncnn_2
Concat                   /body/body.13/rdb1/Concat_1 3 1 /body/body.12/Add_output_0_splitncnn_4 /body/body.13/rdb1/lrelu/LeakyRelu_output_0_splitncnn_2 /body/body.13/rdb1/lrelu_1/LeakyRelu_output_0_splitncnn_2 /body/body.13/rdb1/Concat_1_output_0
Convolution              /body/body.13/rdb1/conv3/Conv 1 1 /body/body.13/rdb1/Concat_1_output_0 /body/body.13/rdb1/lrelu_2/LeakyRelu_output_0 0=32 1=3 4=1 5=1 6=36864 9=2 -23310=1,2.000000e-01
Split                    splitncnn_159            1 2 /body/body.13/rdb1/lrelu_2/LeakyRelu_output_0 /body/body.13/rdb1/lrelu_2/LeakyRelu_output_0_splitncnn_0 /body/body.13/rdb1/lrelu_2/LeakyRelu_output_0_splitncnn_1
Concat                   /body/body.13/rdb1/Concat_2 4 1 /body/body.12/Add_output_0_splitncnn_3 /body/body.13/rdb1/lrelu/LeakyRelu_output_0_splitncnn_1 /body/body.13/rdb1/lrelu_1/LeakyRelu_output_0_splitncnn_1 /body/body.13/rdb1/lrelu_2/LeakyRelu_output_0_splitncnn_1 /body/body.13/rdb1/Concat_2_output_0
Convolution              /body/body.13/rdb1/conv4/Conv 1 1 /body/body.13/rdb1/Concat_2_output_0 /body/body.13/rdb1/lrelu_3/LeakyRelu_output_0 0=32 1=3 4=1 5=1 6=46080 9=2 -23310=1,2.000000e-01
Concat                   /body/body.13/rdb1/Concat_3 5 1 /body/body.12/Add_output_0_splitncnn_2 /body/body.13/rdb1/lrelu/LeakyRelu_output_0_splitncnn_0 /body/body.13/rdb1/lrelu_1/LeakyRelu_output_0_splitncnn_0 /body/body.13/rdb1/lrelu_2/LeakyRelu_output_0_splitncnn_0 /body/body.13/rdb1/lrelu_3/LeakyRelu_output_0 /body/body.13/rdb1/Concat_3_output_0
Convolution              /body/body.13/rdb1/conv5/Conv 1 1 /body/body.13/rdb1/Concat_3_output_0 /body/body.13/rdb1/conv5/Conv_output_0 0=64 1=3 4=1 5=1 6=110592
Eltwise                  /body/body.13/rdb1/Add   2 1 /body/body.13/rdb1/conv5/Conv_output_0 /body/body.12/Add_output_0_splitncnn_1 /body/body.13/rdb1/Add_output_0 0=1 -23301=2,2.000000e-01,1.000000e+00
Split                    splitncnn_160            1 6 /body/body.13/rdb1/Add_output_0 /body/body.13/rdb1/Add_output_0_splitncnn_0 /body/body.13/rdb1/Add_output_0_splitncnn_1 /body/body.13/rdb1/Add_output_0_splitncnn_2 /body/body.13/rdb1/Add_output_0_splitncnn_3 /body/body.13/rdb1/Add_output_0_splitncnn_4 /body/body.13/rdb1/Add_output_0_splitncnn_5
Convolution              /body/body.13/rdb2/conv1/Conv 1 1 /body/body.13/rdb1/Add_output_0_splitncnn_5 /body/body.13/rdb2/lrelu/LeakyRelu_output_0 0=32 1=3 4=1 5=1 6=18432 9=2 -23310=1,2.000000e-01
Split                    splitncnn_161            1 4 /body/body.13/rdb2/lrelu/LeakyRelu_output_0 /body/body.13/rdb2/lrelu/LeakyRelu_output_0_splitncnn_0 /body/body.13/rdb2/lrelu/LeakyRelu_output_0_splitncnn_1 /body/body.13/rdb2/lrelu/LeakyRelu_output_0_splitncnn_2 /body/body.13/rdb2/lrelu/LeakyRelu_output_0_splitncnn_3
Concat                   /body/body.13/rdb2/Concat 2 1 /body/body.13/rdb1/Add_output_0_splitncnn_4 /body/body.13/rdb2/lrelu/LeakyRelu_output_0_splitncnn_3 /body/body.13/rdb2/Concat_output_0
Convolution              /body/body.13/rdb2/conv2/Conv 1 1 /body/body.13/rdb2/Concat_output_0 /body/body.13/rdb2/lrelu_1/LeakyRelu_output_0 0=32 1=3 4=1 5=1 6=27648 9=2 -23310=1,2.000000e-01
Split                    splitncnn_162            1 3 /body/body.13/rdb2/lrelu_1/LeakyRelu_output_0 /body/body.13/rdb2/lrelu_1/LeakyRelu_output_0_splitncnn_0 /body/body.13/rdb2/lrelu_1/LeakyRelu_output_0_splitncnn_1 /body/body.13/rdb2/lrelu_1/LeakyRelu_output_0_splitncnn_2
Concat                   /body/body.13/rdb2/Concat_1 3 1 /body/body.13/rdb1/Add_output_0_splitncnn_3 /body/body.13/rdb2/lrelu/LeakyRelu_output_0_splitncnn_2 /body/body.13/rdb2/lrelu_1/LeakyRelu_output_0_splitncnn_2 /body/body.13/rdb2/Concat_1_output_0
Convolution              /body/body.13/rdb2/conv3/Conv 1 1 /body/body.13/rdb2/Concat_1_output_0 /body/body.13/rdb2/lrelu_2/LeakyRelu_output_0 0=32 1=3 4=1 5=1 6=36864 9=2 -23310=1,2.000000e-01
Split                    splitncnn_163            1 2 /body/body.13/rdb2/lrelu_2/LeakyRelu_output_0 /body/body.13/rdb2/lrelu_2/LeakyRelu_output_0_splitncnn_0 /body/body.13/rdb2/lrelu_2/LeakyRelu_output_0_splitncnn_1
Concat                   /body/body.13/rdb2/Concat_2 4 1 /body/body.13/rdb1/Add_output_0_splitncnn_2 /body/body.13/rdb2/lrelu/LeakyRelu_output_0_splitncnn_1 /body/body.13/rdb2/lrelu_1/LeakyRelu_output_0_splitncnn_1 /body/body.13/rdb2/lrelu_2/LeakyRelu_output_0_splitncnn_1 /body/body.13/rdb2/Concat_2_output_0
Convolution              /body/body.13/rdb2/conv4/Conv 1 1 /body/body.13/rdb2/Concat_2_output_0 /body/body.13/rdb2/lrelu_3/LeakyRelu_output_0 0=32 1=3 4=1 5=1 6=46080 9=2 -23310=1,2.000000e-01
Concat                   /body/body.13/rdb2/Concat_3 5 1 /body/body.13/rdb1/Add_output_0_splitncnn_1 /body/body.13/rdb2/lrelu/LeakyRelu_output_0_splitncnn_0 /body/body.13/rdb2/lrelu_1/LeakyRelu_output_0_splitncnn_0 /body/body.13/rdb2/lrelu_2/LeakyRelu_output_0_splitncnn_0 /body/body.13/rdb2/lrelu_3/LeakyRelu_output_0 /body/body.13/rdb2/Concat_3_output_0
Convolution              /body/body.13/rdb2/conv5/Conv 1 1 /body/body.13/rdb2/Concat_3_output_0 /body/body.13/rdb2/conv5/Conv_output_0 0=64 1=3 4=1 5=1 6=110592
Eltwise                  /body/body.13/rdb2/Add   2 1 /body/body.13/rdb2/conv5/Conv_output_0 /body/body.13/rdb1/Add_output_0_splitncnn_0 /body/body.13/rdb2/Add_output_0 0=1 -23301=2,2.000000e-01,1.000000e+00
Split                    splitncnn_164            1 6 /body/body.13/rdb2/Add_output_0 /body/body.13/rdb2/Add_output_0_splitncnn_0 /body/body.13/rdb2/Add_output_0_splitncnn_1 /body/body.13/rdb2/Add_output_0_splitncnn_2 /body/body.13/rdb2/Add_output_0_splitncnn_3 /body/body.13/rdb2/Add_output_0_splitncnn_4 /body/body.13/rdb2/Add_output_0_splitncnn_5
Convolution              /body/body.13/rdb3/conv1/Conv 1 1 /body/body.13/rdb2/Add_output_0_splitncnn_5 /body/body.13/rdb3/lrelu/LeakyRelu_output_0 0=32 1=3 4=1 5=1 6=18432 9=2 -23310=1,2.000000e-01
Split                    splitncnn_165            1 4 /body/body.13/rdb3/lrelu/LeakyRelu_output_0 /body/body.13/rdb3/lrelu/LeakyRelu_output_0_splitncnn_0 /body/body.13/rdb3/lrelu/LeakyRelu_output_0_splitncnn_1 /body/body.13/rdb3/lrelu/LeakyRelu_output_0_splitncnn_2 /body/body.13/rdb3/lrelu/LeakyRelu_output_0_splitncnn_3
Concat                   /body/body.13/rdb3/Concat 2 1 /body/body.13/rdb2/Add_output_0_splitncnn_4 /body/body.13/rdb3/lrelu/LeakyRelu_output_0_splitncnn_3 /body/body.13/rdb3/Concat_output_0
Convolution              /body/body.13/rdb3/conv2/Conv 1 1 /body/body.13/rdb3/Concat_output_0 /body/body.13/rdb3/lrelu_1/LeakyRelu_output_0 0=32 1=3 4=1 5=1 6=27648 9=2 -23310=1,2.000000e-01
Split                    splitncnn_166            1 3 /body/body.13/rdb3/lrelu_1/LeakyRelu_output_0 /body/body.13/rdb3/lrelu_1/LeakyRelu_output_0_splitncnn_0 /body/body.13/rdb3/lrelu_1/LeakyRelu_output_0_splitncnn_1 /body/body.13/rdb3/lrelu_1/LeakyRelu_output_0_splitncnn_2
Concat                   /body/body.13/rdb3/Concat_1 3 1 /body/body.13/rdb2/Add_output_0_splitncnn_3 /body/body.13/rdb3/lrelu/LeakyRelu_output_0_splitncnn_2 /body/body.13/rdb3/lrelu_1/LeakyRelu_output_0_splitncnn_2 /body/body.13/rdb3/Concat_1_output_0
Convolution              /body/body.13/rdb3/conv3/Conv 1 1 /body/body.13/rdb3/Concat_1_output_0 /body/body.13/rdb3/lrelu_2/LeakyRelu_output_0 0=32 1=3 4=1 5=1 6=36864 9=2 -23310=1,2.000000e-01
Split                    splitncnn_167            1 2 /body/body.13/rdb3/lrelu_2/LeakyRelu_output_0 /body/body.13/rdb3/lrelu_2/LeakyRelu_output_0_splitncnn_0 /body/body.13/rdb3/lrelu_2/LeakyRelu_output_0_splitncnn_1
Concat                   /body/body.13/rdb3/Concat_2 4 1 /body/body.13/rdb2/Add_output_0_splitncnn_2 /body/body.13/rdb3/lrelu/LeakyRelu_output_0_splitncnn_1 /body/body.13/rdb3/lrelu_1/LeakyRelu_output_0_splitncnn_1 /body/body.13/rdb3/lrelu_2/LeakyRelu_output_0_splitncnn_1 /body/body.13/rdb3/Concat_2_output_0
Convolution              /body/body.13/rdb3/conv4/Conv 1 1 /body/body.13/rdb3/Concat_2_output_0 /body/body.13/rdb3/lrelu_3/LeakyRelu_output_0 0=32 1=3 4=1 5=1 6=46080 9=2 -23310=1,2.000000e-01
Concat                   /body/body.13/rdb3/Concat_3 5 1 /body/body.13/rdb2/Add_output_0_splitncnn_1 /body/body.13/rdb3/lrelu/LeakyRelu_output_0_splitncnn_0 /body/body.13/rdb3/lrelu_1/LeakyRelu_output_0_splitncnn_0 /body/body.13/rdb3/lrelu_2/LeakyRelu_output_0_splitncnn_0 /body/body.13/rdb3/lrelu_3/LeakyRelu_output_0 /body/body.13/rdb3/Concat_3_output_0
Convolution              /body/body.13/rdb3/conv5/Conv 1 1 /body/body.13/rdb3/Concat_3_output_0 /body/body.13/rdb3/conv5/Conv_output_0 0=64 1=3 4=1 5=1 6=110592
Eltwise                  /body/body.13/rdb3/Add   2 1 /body/body.13/rdb3/conv5/Conv_output_0 /body/body.13/rdb2/Add_output_0_splitncnn_0 /body/body.13/rdb3/Add_output_0 0=1 -23301=2,2.000000e-01,1.000000e+00
Eltwise                  /body/body.13/Add        2 1 /body/body.13/rdb3/Add_output_0 /body/body.12/Add_output_0_splitncnn_0 /body/body.13/Add_output_0 0=1 -23301=2,2.000000e-01,1.000000e+00
Split                    splitncnn_168            1 7 /body/body.13/Add_output_0 /body/body.13/Add_output_0_splitncnn_0 /body/body.13/Add_output_0_splitncnn_1 /body/body.13/Add_output_0_splitncnn_2 /body/body.13/Add_output_0_splitncnn_3 /body/body.13/Add_output_0_splitncnn_4 /body/body.13/Add_output_0_splitncnn_5 /body/body.13/Add_output_0_splitncnn_6
Convolution              /body/body.14/rdb1/conv1/Conv 1 1 /body/body.13/Add_output_0_splitncnn_6 /body/body.14/rdb1/lrelu/LeakyRelu_output_0 0=32 1=3 4=1 5=1 6=18432 9=2 -23310=1,2.000000e-01
Split                    splitncnn_169            1 4 /body/body.14/rdb1/lrelu/LeakyRelu_output_0 /body/body.14/rdb1/lrelu/LeakyRelu_output_0_splitncnn_0 /body/body.14/rdb1/lrelu/LeakyRelu_output_0_splitncnn_1 /body/body.14/rdb1/lrelu/LeakyRelu_output_0_splitncnn_2 /body/body.14/rdb1/lrelu/LeakyRelu_output_0_splitncnn_3
Concat                   /body/body.14/rdb1/Concat 2 1 /body/body.13/Add_output_0_splitncnn_5 /body/body.14/rdb1/lrelu/LeakyRelu_output_0_splitncnn_3 /body/body.14/rdb1/Concat_output_0
Convolution              /body/body.14/rdb1/conv2/Conv 1 1 /body/body.14/rdb1/Concat_output_0 /body/body.14/rdb1/lrelu_1/LeakyRelu_output_0 0=32 1=3 4=1 5=1 6=27648 9=2 -23310=1,2.000000e-01
Split                    splitncnn_170            1 3 /body/body.14/rdb1/lrelu_1/LeakyRelu_output_0 /body/body.14/rdb1/lrelu_1/LeakyRelu_output_0_splitncnn_0 /body/body.14/rdb1/lrelu_1/LeakyRelu_output_0_splitncnn_1 /body/body.14/rdb1/lrelu_1/LeakyRelu_output_0_splitncnn_2
Concat                   /body/body.14/rdb1/Concat_1 3 1 /body/body.13/Add_output_0_splitncnn_4 /body/body.14/rdb1/lrelu/LeakyRelu_output_0_splitncnn_2 /body/body.14/rdb1/lrelu_1/LeakyRelu_output_0_splitncnn_2 /body/body.14/rdb1/Concat_1_output_0
Convolution              /body/body.14/rdb1/conv3/Conv 1 1 /body/body.14/rdb1/Concat_1_output_0 /body/body.14/rdb1/lrelu_2/LeakyRelu_output_0 0=32 1=3 4=1 5=1 6=36864 9=2 -23310=1,2.000000e-01
Split                    splitncnn_171            1 2 /body/body.14/rdb1/lrelu_2/LeakyRelu_output_0 /body/body.14/rdb1/lrelu_2/LeakyRelu_output_0_splitncnn_0 /body/body.14/rdb1/lrelu_2/LeakyRelu_output_0_splitncnn_1
Concat                   /body/body.14/rdb1/Concat_2 4 1 /body/body.13/Add_output_0_splitncnn_3 /body/body.14/rdb1/lrelu/LeakyRelu_output_0_splitncnn_1 /body/body.14/rdb1/lrelu_1/LeakyRelu_output_0_splitncnn_1 /body/body.14/rdb1/lrelu_2/LeakyRelu_output_0_splitncnn_1 /body/body.14/rdb1/Concat_2_output_0
Convolution              /body/body.14/rdb1/conv4/Conv 1 1 /body/body.14/rdb1/Concat_2_output_0 /body/body.14/rdb1/lrelu_3/LeakyRelu_output_0 0=32 1=3 4=1 5=1 6=46080 9=2 -23310=1,2.000000e-01
Concat                   /body/body.14/rdb1/Concat_3 5 1 /body/body.13/Add_output_0_splitncnn_2 /body/body.14/rdb1/lrelu/LeakyRelu_output_0_splitncnn_0 /body/body.14/rdb1/lrelu_1/LeakyRelu_output_0_splitncnn_0 /body/body.14/rdb1/lrelu_2/LeakyRelu_output_0_splitncnn_0 /body/body.14/rdb1/lrelu_3/LeakyRelu_output_0 /body/body.14/rdb1/Concat_3_output_0
Convolution              /body/body.14/rdb1/conv5/Conv 1 1 /body/body.14/rdb1/Concat_3_output_0 /body/body.14/rdb1/conv5/Conv_output_0 0=64 1=3 4=1 5=1 6=110592
Eltwise                  /body/body.14/rdb1/Add   2 1 /body/body.14/rdb1/conv5/Conv_output_0 /body/body.13/Add_output_0_splitncnn_1 /body/body.14/rdb1/Add_output_0 0=1 -23301=2,2.000000e-01,1.000000e+00
Split                    splitncnn_172            1 6 /body/body.14/rdb1/Add_output_0 /body/body.14/rdb1/Add_output_0_splitncnn_0 /body/body.14/rdb1/Add_output_0_splitncnn_1 /body/body.14/rdb1/Add_output_0_splitncnn_2 /body/body.14/rdb1/Add_output_0_splitncnn_3 /body/body.14/rdb1/Add_output_0_splitncnn_4 /body/body.14/rdb1/Add_output_0_splitncnn_5
Convolution              /body/body.14/rdb2/conv1/Conv 1 1 /body/body.14/rdb1/Add_output_0_splitncnn_5 /body/body.14/rdb2/lrelu/LeakyRelu_output_0 0=32 1=3 4=1 5=1 6=18432 9=2 -23310=1,2.000000e-01
Split                    splitncnn_173            1 4 /body/body.14/rdb2/lrelu/LeakyRelu_output_0 /body/body.14/rdb2/lrelu/LeakyRelu_output_0_splitncnn_0 /body/body.14/rdb2/lrelu/LeakyRelu_output_0_splitncnn_1 /body/body.14/rdb2/lrelu/LeakyRelu_output_0_splitncnn_2 /body/body.14/rdb2/lrelu/LeakyRelu_output_0_splitncnn_3
Concat                   /body/body.14/rdb2/Concat 2 1 /body/body.14/rdb1/Add_output_0_splitncnn_4 /body/body.14/rdb2/lrelu/LeakyRelu_output_0_splitncnn_3 /body/body.14/rdb2/Concat_output_0
Convolution              /body/body.14/rdb2/conv2/Conv 1 1 /body/body.14/rdb2/Concat_output_0 /body/body.14/rdb2/lrelu_1/LeakyRelu_output_0 0=32 1=3 4=1 5=1 6=27648 9=2 -23310=1,2.000000e-01
Split                    splitncnn_174            1 3 /body/body.14/rdb2/lrelu_1/LeakyRelu_output_0 /body/body.14/rdb2/lrelu_1/LeakyRelu_output_0_splitncnn_0 /body/body.14/rdb2/lrelu_1/LeakyRelu_output_0_splitncnn_1 /body/body.14/rdb2/lrelu_1/LeakyRelu_output_0_splitncnn_2
Concat                   /body/body.14/rdb2/Concat_1 3 1 /body/body.14/rdb1/Add_output_0_splitncnn_3 /body/body.14/rdb2/lrelu/LeakyRelu_output_0_splitncnn_2 /body/body.14/rdb2/lrelu_1/LeakyRelu_output_0_splitncnn_2 /body/body.14/rdb2/Concat_1_output_0
Convolution              /body/body.14/rdb2/conv3/Conv 1 1 /body/body.14/rdb2/Concat_1_output_0 /body/body.14/rdb2/lrelu_2/LeakyRelu_output_0 0=32 1=3 4=1 5=1 6=36864 9=2 -23310=1,2.000000e-01
Split                    splitncnn_175            1 2 /body/body.14/rdb2/lrelu_2/LeakyRelu_output_0 /body/body.14/rdb2/lrelu_2/LeakyRelu_output_0_splitncnn_0 /body/body.14/rdb2/lrelu_2/LeakyRelu_output_0_splitncnn_1
…
Convolution              /body/body.18/rdb1/conv5/Conv 1 1 /body/body.18/rdb1/Concat_3_output_0 /body/body.18/rdb1/conv5/Conv_output_0 0=64 1=3 4=1 5=1 6=110592
Eltwise                  /body/body.18/rdb1/Add   2 1 /body/body.18/rdb1/conv5/Conv_output_0 /body/body.17/Add_output_0_splitncnn_1 /body/body.18/rdb1/Add_output_0 0=1 -23301=2,2.000000e-01,1.000000e+00
Split                    splitncnn_220            1 6 /body/body.18/rdb1/Add_output_0 /body/body.18/rdb1/Add_output_0_splitncnn_0 /body/body.18/rdb1/Add_output_0_splitncnn_1 /body/body.18/rdb1/Add_output_0_splitncnn_2 /body/body.18/rdb1/Add_output_0_splitncnn_3 /body/body.18/rdb1/Add_output_0_splitncnn_4 /body/body.18/rdb1/Add_output_0_splitncnn_5
Convolution              /body/body.18/rdb2/conv1/Conv 1 1 /body/body.18/rdb1/Add_output_0_splitncnn_5 /body/body.18/rdb2/lrelu/LeakyRelu_output_0 0=32 1=3 4=1 5=1 6=18432 9=2 -23310=1,2.000000e-01
Split                    splitncnn_221            1 4 /body/body.18/rdb2/lrelu/LeakyRelu_output_0 /body/body.18/rdb2/lrelu/LeakyRelu_output_0_splitncnn_0 /body/body.18/rdb2/lrelu/LeakyRelu_output_0_splitncnn_1 /body/body.18/rdb2/lrelu/LeakyRelu_output_0_splitncnn_2 /body/body.18/rdb2/lrelu/LeakyRelu_output_0_splitncnn_3
Concat                   /body/body.18/rdb2/Concat 2 1 /body/body.18/rdb1/Add_output_0_splitncnn_4 /body/body.18/rdb2/lrelu/LeakyRelu_output_0_splitncnn_3 /body/body.18/rdb2/Concat_output_0
Convolution              /body/body.18/rdb2/conv2/Conv 1 1 /body/body.18/rdb2/Concat_output_0 /body/body.18/rdb2/lrelu_1/LeakyRelu_output_0 0=32 1=3 4=1 5=1 6=27648 9=2 -23310=1,2.000000e-01
Split                    splitncnn_222            1 3 /body/body.18/rdb2/lrelu_1/LeakyRelu_output_0 /body/body.18/rdb2/lrelu_1/LeakyRelu_output_0_splitncnn_0 /body/body.18/rdb2/lrelu_1/LeakyRelu_output_0_splitncnn_1 /body/body.18/rdb2/lrelu_1/LeakyRelu_output_0_splitncnn_2
Concat                   /body/body.18/rdb2/Concat_1 3 1 /body/body.18/rdb1/Add_output_0_splitncnn_3 /body/body.18/rdb2/lrelu/LeakyRelu_output_0_splitncnn_2 /body/body.18/rdb2/lrelu_1/LeakyRelu_output_0_splitncnn_2 /body/body.18/rdb2/Concat_1_output_0
Convolution              /body/body.18/rdb2/conv3/Conv 1 1 /body/body.18/rdb2/Concat_1_output_0 /body/body.18/rdb2/lrelu_2/LeakyRelu_output_0 0=32 1=3 4=1 5=1 6=36864 9=2 -23310=1,2.000000e-01
Split                    splitncnn_223            1 2 /body/body.18/rdb2/lrelu_2/LeakyRelu_output_0 /body/body.18/rdb2/lrelu_2/LeakyRelu_output_0_splitncnn_0 /body/body.18/rdb2/lrelu_2/LeakyRelu_output_0_splitncnn_1
Concat                   /body/body.18/rdb2/Concat_2 4 1 /body/body.18/rdb1/Add_output_0_splitncnn_2 /body/body.18/rdb2/lrelu/LeakyRelu_output_0_splitncnn_1 /body/body.18/rdb2/lrelu_1/LeakyRelu_output_0_splitncnn_1 /body/body.18/rdb2/lrelu_2/LeakyRelu_output_0_splitncnn_1 /body/body.18/rdb2/Concat_2_output_0
Convolution              /body/body.18/rdb2/conv4/Conv 1 1 /body/body.18/rdb2/Concat_2_output_0 /body/body.18/rdb2/lrelu_3/LeakyRelu_output_0 0=32 1=3 4=1 5=1 6=46080 9=2 -23310=1,2.000000e-01
Concat                   /body/body.18/rdb2/Concat_3 5 1 /body/body.18/rdb1/Add_output_0_splitncnn_1 /body/body.18/rdb2/lrelu/LeakyRelu_output_0_splitncnn_0 /body/body.18/rdb2/lrelu_1/LeakyRelu_output_0_splitncnn_0 /body/body.18/rdb2/lrelu_2/LeakyRelu_output_0_splitncnn_0 /body/body.18/rdb2/lrelu_3/LeakyRelu_output_0 /body/body.18/rdb2/Concat_3_output_0
Convolution              /body/body.18/rdb2/conv5/Conv 1 1 /body/body.18/rdb2/Concat_3_output_0 /body/body.18/rdb2/conv5/Conv_output_0 0=64 1=3 4=1 5=1 6=110592
Eltwise                  /body/body.18/rdb2/Add   2 1 /body/body.18/rdb2/conv5/Conv_output_0 /body/body.18/rdb1/Add_output_0_splitncnn_0 /body/body.18/rdb2/Add_output_0 0=1 -23301=2,2.000000e-01,1.000000e+00
Split                    splitncnn_224            1 6 /body/body.18/rdb2/Add_output_0 /body/body.18/rdb2/Add_output_0_splitncnn_0 /body/body.18/rdb2/Add_output_0_splitncnn_1 /body/body.18/rdb2/Add_output_0_splitncnn_2 /body/body.18/rdb2/Add_output_0_splitncnn_3 /body/body.18/rdb2/Add_output_0_splitncnn_4 /body/body.18/rdb2/Add_output_0_splitncnn_5
Convolution              /body/body.18/rdb3/conv1/Conv 1 1 /body/body.18/rdb2/Add_output_0_splitncnn_5 /body/body.18/rdb3/lrelu/LeakyRelu_output_0 0=32 1=3 4=1 5=1 6=18432 9=2 -23310=1,2.000000e-01
Split                    splitncnn_225            1 4 /body/body.18/rdb3/lrelu/LeakyRelu_output_0 /body/body.18/rdb3/lrelu/LeakyRelu_output_0_splitncnn_0 /body/body.18/rdb3/lrelu/LeakyRelu_output_0_splitncnn_1 /body/body.18/rdb3/lrelu/LeakyRelu_output_0_splitncnn_2 /body/body.18/rdb3/lrelu/LeakyRelu_output_0_splitncnn_3
Concat                   /body/body.18/rdb3/Concat 2 1 /body/body.18/rdb2/Add_output_0_splitncnn_4 /body/body.18/rdb3/lrelu/LeakyRelu_output_0_splitncnn_3 /body/body.18/rdb3/Concat_output_0
Convolution              /body/body.18/rdb3/conv2/Conv 1 1 /body/body.18/rdb3/Concat_output_0 /body/body.18/rdb3/lrelu_1/LeakyRelu_output_0 0=32 1=3 4=1 5=1 6=27648 9=2 -23310=1,2.000000e-01
Split                    splitncnn_226            1 3 /body/body.18/rdb3/lrelu_1/LeakyRelu_output_0 /body/body.18/rdb3/lrelu_1/LeakyRelu_output_0_splitncnn_0 /body/body.18/rdb3/lrelu_1/LeakyRelu_output_0_splitncnn_1 /body/body.18/rdb3/lrelu_1/LeakyRelu_output_0_splitncnn_2
Concat                   /body/body.18/rdb3/Concat_1 3 1 /body/body.18/rdb2/Add_output_0_splitncnn_3 /body/body.18/rdb3/lrelu/LeakyRelu_output_0_splitncnn_2 /body/body.18/rdb3/lrelu_1/LeakyRelu_output_0_splitncnn_2 /body/body.18/rdb3/Concat_1_output_0
Convolution              /body/body.18/rdb3/conv3/Conv 1 1 /body/body.18/rdb3/Concat_1_output_0 /body/body.18/rdb3/lrelu_2/LeakyRelu_output_0 0=32 1=3 4=1 5=1 6=36864 9=2 -23310=1,2.000000e-01
Split                    splitncnn_227            1 2 /body/body.18/rdb3/lrelu_2/LeakyRelu_output_0 /body/body.18/rdb3/lrelu_2/LeakyRelu_output_0_splitncnn_0 /body/body.18/rdb3/lrelu_2/LeakyRelu_output_0_splitncnn_1
Concat                   /body/body.18/rdb3/Concat_2 4 1 /body/body.18/rdb2/Add_output_0_splitncnn_2 /body/body.18/rdb3/lrelu/LeakyRelu_output_0_splitncnn_1 /body/body.18/rdb3/lrelu_1/LeakyRelu_output_0_splitncnn_1 /body/body.18/rdb3/lrelu_2/LeakyRelu_output_0_splitncnn_1 /body/body.18/rdb3/Concat_2_output_0
Convolution              /body/body.18/rdb3/conv4/Conv 1 1 /body/body.18/rdb3/Concat_2_output_0 /body/body.18/rdb3/lrelu_3/LeakyRelu_output_0 0=32 1=3 4=1 5=1 6=46080 9=2 -23310=1,2.000000e-01
Concat                   /body/body.18/rdb3/Concat_3 5 1 /body/body.18/rdb2/Add_output_0_splitncnn_1 /body/body.18/rdb3/lrelu/LeakyRelu_output_0_splitncnn_0 /body/body.18/rdb3/lrelu_1/LeakyRelu_output_0_splitncnn_0 /body/body.18/rdb3/lrelu_2/LeakyRelu_output_0_splitncnn_0 /body/body.18/rdb3/lrelu_3/LeakyRelu_output_0 /body/body.18/rdb3/Concat_3_output_0
Convolution              /body/body.18/rdb3/conv5/Conv 1 1 /body/body.18/rdb3/Concat_3_output_0 /body/body.18/rdb3/conv5/Conv_output_0 0=64 1=3 4=1 5=1 6=110592
Eltwise                  /body/body.18/rdb3/Add   2 1 /body/body.18/rdb3/conv5/Conv_output_0 /body/body.18/rdb2/Add_output_0_splitncnn_0 /body/body.18/rdb3/Add_output_0 0=1 -23301=2,2.000000e-01,1.000000e+00
Eltwise                  /body/body.18/Add        2 1 /body/body.18/rdb3/Add_output_0 /body/body.17/Add_output_0_splitncnn_0 /body/body.18/Add_output_0 0=1 -23301=2,2.000000e-01,1.000000e+00
Split                    splitncnn_228            1 7 /body/body.18/Add_output_0 /body/body.18/Add_output_0_splitncnn_0 /body/body.18/Add_output_0_splitncnn_1 /body/body.18/Add_output_0_splitncnn_2 /body/body.18/Add_output_0_splitncnn_3 /body/body.18/Add_output_0_splitncnn_4 /body/body.18/Add_output_0_splitncnn_5 /body/body.18/Add_output_0_splitncnn_6
Convolution              /body/body.19/rdb1/conv1/Conv 1 1 /body/body.18/Add_output_0_splitncnn_6 /body/body.19/rdb1/lrelu/LeakyRelu_output_0 0=32 1=3 4=1 5=1 6=18432 9=2 -23310=1,2.000000e-01
Split                    splitncnn_229            1 4 /body/body.19/rdb1/lrelu/LeakyRelu_output_0 /body/body.19/rdb1/lrelu/LeakyRelu_output_0_splitncnn_0 /body/body.19/rdb1/lrelu/LeakyRelu_output_0_splitncnn_1 /body/body.19/rdb1/lrelu/LeakyRelu_output_0_splitncnn_2 /body/body.19/rdb1/lrelu/LeakyRelu_output_0_splitncnn_3
Concat                   /body/body.19/rdb1/Concat 2 1 /body/body.18/Add_output_0_splitncnn_5 /body/body.19/rdb1/lrelu/LeakyRelu_output_0_splitncnn_3 /body/body.19/rdb1/Concat_output_0
Convolution              /body/body.19/rdb1/conv2/Conv 1 1 /body/body.19/rdb1/Concat_output_0 /body/body.19/rdb1/lrelu_1/LeakyRelu_output_0 0=32 1=3 4=1 5=1 6=27648 9=2 -23310=1,2.000000e-01
Split                    splitncnn_230            1 3 /body/body.19/rdb1/lrelu_1/LeakyRelu_output_0 /body/body.19/rdb1/lrelu_1/LeakyRelu_output_0_splitncnn_0 /body/body.19/rdb1/lrelu_1/LeakyRelu_output_0_splitncnn_1 /body/body.19/rdb1/lrelu_1/LeakyRelu_output_0_splitncnn_2
Concat                   /body/body.19/rdb1/Concat_1 3 1 /body/body.18/Add_output_0_splitncnn_4 /body/body.19/rdb1/lrelu/LeakyRelu_output_0_splitncnn_2 /body/body.19/rdb1/lrelu_1/LeakyRelu_output_0_splitncnn_2 /body/body.19/rdb1/Concat_1_output_0
Convolution              /body/body.19/rdb1/conv3/Conv 1 1 /body/body.19/rdb1/Concat_1_output_0 /body/body.19/rdb1/lrelu_2/LeakyRelu_output_0 0=32 1=3 4=1 5=1 6=36864 9=2 -23310=1,2.000000e-01
Split                    splitncnn_231            1 2 /body/body.19/rdb1/lrelu_2/LeakyRelu_output_0 /body/body.19/rdb1/lrelu_2/LeakyRelu_output_0_splitncnn_0 /body/body.19/rdb1/lrelu_2/LeakyRelu_output_0_splitncnn_1
Concat                   /body/body.19/rdb1/Concat_2 4 1 /body/body.18/Add_output_0_splitncnn_3 /body/body.19/rdb1/lrelu/LeakyRelu_output_0_splitncnn_1 /body/body.19/rdb1/lrelu_1/LeakyRelu_output_0_splitncnn_1 /body/body.19/rdb1/lrelu_2/LeakyRelu_output_0_splitncnn_1 /body/body.19/rdb1/Concat_2_output_0
Convolution              /body/body.19/rdb1/conv4/Conv 1 1 /body/body.19/rdb1/Concat_2_output_0 /body/body.19/rdb1/lrelu_3/LeakyRelu_output_0 0=32 1=3 4=1 5=1 6=46080 9=2 -23310=1,2.000000e-01
Concat                   /body/body.19/rdb1/Concat_3 5 1 /body/body.18/Add_output_0_splitncnn_2 /body/body.19/rdb1/lrelu/LeakyRelu_output_0_splitncnn_0 /body/body.19/rdb1/lrelu_1/LeakyRelu_output_0_splitncnn_0 /body/body.19/rdb1/lrelu_2/LeakyRelu_output_0_splitncnn_0 /body/body.19/rdb1/lrelu_3/LeakyRelu_output_0 /body/body.19/rdb1/Concat_3_output_0
Convolution              /body/body.19/rdb1/conv5/Conv 1 1 /body/body.19/rdb1/Concat_3_output_0 /body/body.19/rdb1/conv5/Conv_output_0 0=64 1=3 4=1 5=1 6=110592
Eltwise                  /body/body.19/rdb1/Add   2 1 /body/body.19/rdb1/conv5/Conv_output_0 /body/body.18/Add_output_0_splitncnn_1 /body/body.19/rdb1/Add_output_0 0=1 -23301=2,2.000000e-01,1.000000e+00
Split                    splitncnn_232            1 6 /body/body.19/rdb1/Add_output_0 /body/body.19/rdb1/Add_output_0_splitncnn_0 /body/body.19/rdb1/Add_output_0_splitncnn_1 /body/body.19/rdb1/Add_output_0_splitncnn_2 /body/body.19/rdb1/Add_output_0_splitncnn_3 /body/body.19/rdb1/Add_output_0_splitncnn_4 /body/body.19/rdb1/Add_output_0_splitncnn_5
Convolution              /body/body.19/rdb2/conv1/Conv 1 1 /body/body.19/rdb1/Add_output_0_splitncnn_5 /body/body.19/rdb2/lrelu/LeakyRelu_output_0 0=32 1=3 4=1 5=1 6=18432 9=2 -23310=1,2.000000e-01
Split                    splitncnn_233            1 4 /body/body.19/rdb2/lrelu/LeakyRelu_output_0 /body/body.19/rdb2/lrelu/LeakyRelu_output_0_splitncnn_0 /body/body.19/rdb2/lrelu/LeakyRelu_output_0_splitncnn_1 /body/body.19/rdb2/lrelu/LeakyRelu_output_0_splitncnn_2 /body/body.19/rdb2/lrelu/LeakyRelu_output_0_splitncnn_3
Concat                   /body/body.19/rdb2/Concat 2 1 /body/body.19/rdb1/Add_output_0_splitncnn_4 /body/body.19/rdb2/lrelu/LeakyRelu_output_0_splitncnn_3 /body/body.19/rdb2/Concat_output_0
Convolution              /body/body.19/rdb2/conv2/Conv 1 1 /body/body.19/rdb2/Concat_output_0 /body/body.19/rdb2/lrelu_1/LeakyRelu_output_0 0=32 1=3 4=1 5=1 6=27648 9=2 -23310=1,2.000000e-01
Split                    splitncnn_234            1 3 /body/body.19/rdb2/lrelu_1/LeakyRelu_output_0 /body/body.19/rdb2/lrelu_1/LeakyRelu_output_0_splitncnn_0 /body/body.19/rdb2/lrelu_1/LeakyRelu_output_0_splitncnn_1 /body/body.19/rdb2/lrelu_1/LeakyRelu_output_0_splitncnn_2
Concat                   /body/body.19/rdb2/Concat_1 3 1 /body/body.19/rdb1/Add_output_0_splitncnn_3 /body/body.19/rdb2/lrelu/LeakyRelu_output_0_splitncnn_2 /body/body.19/rdb2/lrelu_1/LeakyRelu_output_0_splitncnn_2 /body/body.19/rdb2/Concat_1_output_0
Convolution              /body/body.19/rdb2/conv3/Conv 1 1 /body/body.19/rdb2/Concat_1_output_0 /body/body.19/rdb2/lrelu_2/LeakyRelu_output_0 0=32 1=3 4=1 5=1 6=36864 9=2 -23310=1,2.000000e-01
Split                    splitncnn_235            1 2 /body/body.19/rdb2/lrelu_2/LeakyRelu_output_0 /body/body.19/rdb2/lrelu_2/LeakyRelu_output_0_splitncnn_0 /body/body.19/rdb2/lrelu_2/LeakyRelu_output_0_splitncnn_1
Concat                   /body/body.19/rdb2/Concat_2 4 1 /body/body.19/rdb1/Add_output_0_splitncnn_2 /body/body.19/rdb2/lrelu/LeakyRelu_output_0_splitncnn_1 /body/body.19/rdb2/lrelu_1/LeakyRelu_output_0_splitncnn_1 /body/body.19/rdb2/lrelu_2/LeakyRelu_output_0_splitncnn_1 /body/body.19/rdb2/Concat_2_output_0
Convolution              /body/body.19/rdb2/conv4/Conv 1 1 /body/body.19/rdb2/Concat_2_output_0 /body/body.19/rdb2/lrelu_3/LeakyRelu_output_0 0=32 1=3 4=1 5=1 6=46080 9=2 -23310=1,2.000000e-01
Concat                   /body/body.19/rdb2/Concat_3 5 1 /body/body.19/rdb1/Add_output_0_splitncnn_1 /body/body.19/rdb2/lrelu/LeakyRelu_output_0_splitncnn_0 /body/body.19/rdb2/lrelu_1/LeakyRelu_output_0_splitncnn_0 /body/body.19/rdb2/lrelu_2/LeakyRelu_output_0_splitncnn_0 /body/body.19/rdb2/lrelu_3/LeakyRelu_output_0 /body/body.19/rdb2/Concat_3_output_0
Convolution              /body/body.19/rdb2/conv5/Conv 1 1 /body/body.19/rdb2/Concat_3_output_0 /body/body.19/rdb2/conv5/Conv_output_0 0=64 1=3 4=1 5=1 6=110592
Eltwise                  /body/body.19/rdb2/Add   2 1 /body/body.19/rdb2/conv5/Conv_output_0 /body/body.19/rdb1/Add_output_0_splitncnn_0 /body/body.19/rdb2/Add_output_0 0=1 -23301=2,2.000000e-01,1.000000e+00
Split                    splitncnn_236            1 6 /body/body.19/rdb2/Add_output_0 /body/body.19/rdb2/Add_output_0_splitncnn_0 /body/body.19/rdb2/Add_output_0_splitncnn_1 /body/body.19/rdb2/Add_output_0_splitncnn_2 /body/body.19/rdb2/Add_output_0_splitncnn_3 /body/body.19/rdb2/Add_output_0_splitncnn_4 /body/body.19/rdb2/Add_output_0_splitncnn_5
Convolution              /body/body.19/rdb3/conv1/Conv 1 1 /body/body.19/rdb2/Add_output_0_splitncnn_5 /body/body.19/rdb3/lrelu/LeakyRelu_output_0 0=32 1=3 4=1 5=1 6=18432 9=2 -23310=1,2.000000e-01
Split                    splitncnn_237            1 4 /body/body.19/rdb3/lrelu/LeakyRelu_output_0 /body/body.19/rdb3/lrelu/LeakyRelu_output_0_splitncnn_0 /body/body.19/rdb3/lrelu/LeakyRelu_output_0_splitncnn_1 /body/body.19/rdb3/lrelu/LeakyRelu_output_0_splitncnn_2 /body/body.19/rdb3/lrelu/LeakyRelu_output_0_splitncnn_3
Concat                   /body/body.19/rdb3/Concat 2 1 /body/body.19/rdb2/Add_output_0_splitncnn_4 /body/body.19/rdb3/lrelu/LeakyRelu_output_0_splitncnn_3 /body/body.19/rdb3/Concat_output_0
Convolution              /body/body.19/rdb3/conv2/Conv 1 1 /body/body.19/rdb3/Concat_output_0 /body/body.19/rdb3/lrelu_1/LeakyRelu_output_0 0=32 1=3 4=1 5=1 6=27648 9=2 -23310=1,2.000000e-01
Split                    splitncnn_238            1 3 /body/body.19/rdb3/lrelu_1/LeakyRelu_output_0 /body/body.19/rdb3/lrelu_1/LeakyRelu_output_0_splitncnn_0 /body/body.19/rdb3/lrelu_1/LeakyRelu_output_0_splitncnn_1 /body/body.19/rdb3/lrelu_1/LeakyRelu_output_0_splitncnn_2
Concat                   /body/body.19/rdb3/Concat_1 3 1 /body/body.19/rdb2/Add_output_0_splitncnn_3 /body/body.19/rdb3/lrelu/LeakyRelu_output_0_splitncnn_2 /body/body.19/rdb3/lrelu_1/LeakyRelu_output_0_splitncnn_2 /body/body.19/rdb3/Concat_1_output_0
Convolution              /body/body.19/rdb3/conv3/Conv 1 1 /body/body.19/rdb3/Concat_1_output_0 /body/body.19/rdb3/lrelu_2/LeakyRelu_output_0 0=32 1=3 4=1 5=1 6=36864 9=2 -23310=1,2.000000e-01
Split                    splitncnn_239            1 2 /body/body.19/rdb3/lrelu_2/LeakyRelu_output_0 /body/body.19/rdb3/lrelu_2/LeakyRelu_output_0_splitncnn_0 /body/body.19/rdb3/lrelu_2/LeakyRelu_output_0_splitncnn_1
Concat                   /body/body.19/rdb3/Concat_2 4 1 /body/body.19/rdb2/Add_output_0_splitncnn_2 /body/body.19/rdb3/lrelu/LeakyRelu_output_0_splitncnn_1 /body/body.19/rdb3/lrelu_1/LeakyRelu_output_0_splitncnn_1 /body/body.19/rdb3/lrelu_2/LeakyRelu_output_0_splitncnn_1 /body/body.19/rdb3/Concat_2_output_0
Convolution              /body/body.19/rdb3/conv4/Conv 1 1 /body/body.19/rdb3/Concat_2_output_0 /body/body.19/rdb3/lrelu_3/LeakyRelu_output_0 0=32 1=3 4=1 5=1 6=46080 9=2 -23310=1,2.000000e-01
Concat                   /body/body.19/rdb3/Concat_3 5 1 /body/body.19/rdb2/Add_output_0_splitncnn_1 /body/body.19/rdb3/lrelu/LeakyRelu_output_0_splitncnn_0 /body/body.19/rdb3/lrelu_1/LeakyRelu_output_0_splitncnn_0 /body/body.19/rdb3/lrelu_2/LeakyRelu_output_0_splitncnn_0 /body/body.19/rdb3/lrelu_3/LeakyRelu_output_0 /body/body.19/rdb3/Concat_3_output_0
Convolution              /body/body.19/rdb3/conv5/Conv 1 1 /body/body.19/rdb3/Concat_3_output_0 /body/body.19/rdb3/conv5/Conv_output_0 0=64 1=3 4=1 5=1 6=110592
Eltwise                  /body/body.19/rdb3/Add   2 1 /body/body.19/rdb3/conv5/Conv_output_0 /body/body.19/rdb2/Add_output_0_splitncnn_0 /body/body.19/rdb3/Add_output_0 0=1 -23301=2,2.000000e-01,1.000000e+00
Eltwise                  /body/body.19/Add        2 1 /body/body.19/rdb3/Add_output_0 /body/body.18/Add_output_0_splitncnn_0 /body/body.19/Add_output_0 0=1 -23301=2,2.000000e-01,1.000000e+00
Split                    splitncnn_240            1 7 /body/body.19/Add_output_0 /body/body.19/Add_output_0_splitncnn_0 /body/body.19/Add_output_0_splitncnn_1 /body/body.19/Add_output_0_splitncnn_2 /body/body.19/Add_output_0_splitncnn_3 /body/body.19/Add_output_0_splitncnn_4 /body/body.19/Add_output_0_splitncnn_5 /body/body.19/Add_output_0_splitncnn_6
Convolution              /body/body.20/rdb1/conv1/Conv 1 1 /body/body.19/Add_output_0_splitncnn_6 /body/body.20/rdb1/lrelu/LeakyRelu_output_0 0=32 1=3 4=1 5=1 6=18432 9=2 -23310=1,2.000000e-01
Split                    splitncnn_241            1 4 /body/body.20/rdb1/lrelu/LeakyRelu_output_0 /body/body.20/rdb1/lrelu/LeakyRelu_output_0_splitncnn_0 /body/body.20/rdb1/lrelu/LeakyRelu_output_0_splitncnn_1 /body/body.20/rdb1/lrelu/LeakyRelu_output_0_splitncnn_2 /body/body.20/rdb1/lrelu/LeakyRelu_output_0_splitncnn_3
Concat                   /body/body.20/rdb1/Concat 2 1 /body/body.19/Add_output_0_splitncnn_5 /body/body.20/rdb1/lrelu/LeakyRelu_output_0_splitncnn_3 /body/body.20/rdb1/Concat_output_0
Convolution              /body/body.20/rdb1/conv2/Conv 1 1 /body/body.20/rdb1/Concat_output_0 /body/body.20/rdb1/lrelu_1/LeakyRelu_output_0 0=32 1=3 4=1 5=1 6=27648 9=2 -23310=1,2.000000e-01
Split                    splitncnn_242            1 3 /body/body.20/rdb1/lrelu_1/LeakyRelu_output_0 /body/body.20/rdb1/lrelu_1/LeakyRelu_output_0_splitncnn_0 /body/body.20/rdb1/lrelu_1/LeakyRelu_output_0_splitncnn_1 /body/body.20/rdb1/lrelu_1/LeakyRelu_output_0_splitncnn_2
Concat                   /body/body.20/rdb1/Concat_1 3 1 /body/body.19/Add_output_0_splitncnn_4 /body/body.20/rdb1/lrelu/LeakyRelu_output_0_splitncnn_2 /body/body.20/rdb1/lrelu_1/LeakyRelu_output_0_splitncnn_2 /body/body.20/rdb1/Concat_1_output_0
Convolution              /body/body.20/rdb1/conv3/Conv 1 1 /body/body.20/rdb1/Concat_1_output_0 /body/body.20/rdb1/lrelu_2/LeakyRelu_output_0 0=32 1=3 4=1 5=1 6=36864 9=2 -23310=1,2.000000e-01
Split                    splitncnn_243            1 2 /body/body.20/rdb1/lrelu_2/LeakyRelu_output_0 /body/body.20/rdb1/lrelu_2/LeakyRelu_output_0_splitncnn_0 /body/body.20/rdb1/lrelu_2/LeakyRelu_output_0_splitncnn_1
Concat                   /body/body.20/rdb1/Concat_2 4 1 /body/body.19/Add_output_0_splitncnn_3 /body/body.20/rdb1/lrelu/LeakyRelu_output_0_splitncnn_1 /body/body.20/rdb1/lrelu_1/LeakyRelu_output_0_splitncnn_1 /body/body.20/rdb1/lrelu_2/LeakyRelu_output_0_splitncnn_1 /body/body.20/rdb1/Concat_2_output_0
Convolution              /body/body.20/rdb1/conv4/Conv 1 1 /body/body.20/rdb1/Concat_2_output_0 /body/body.20/rdb1/lrelu_3/LeakyRelu_output_0 0=32 1=3 4=1 5=1 6=46080 9=2 -23310=1,2.000000e-01
Concat                   /body/body.20/rdb1/Concat_3 5 1 /body/body.19/Add_output_0_splitncnn_2 /body/body.20/rdb1/lrelu/LeakyRelu_output_0_splitncnn_0 /body/body.20/rdb1/lrelu_1/LeakyRelu_output_0_splitncnn_0 /body/body.20/rdb1/lrelu_2/LeakyRelu_output_0_splitncnn_0 /body/body.20/rdb1/lrelu_3/LeakyRelu_output_0 /body/body.20/rdb1/Concat_3_output_0
Convolution              /body/body.20/rdb1/conv5/Conv 1 1 /body/body.20/rdb1/Concat_3_output_0 /body/body.20/rdb1/conv5/Conv_output_0 0=64 1=3 4=1 5=1 6=110592
Eltwise                  /body/body.20/rdb1/Add   2 1 /body/body.20/rdb1/conv5/Conv_output_0 /body/body.19/Add_output_0_splitncnn_1 /body/body.20/rdb1/Add_output_0 0=1 -23301=2,2.000000e-01,1.000000e+00
Split                    splitncnn_244            1 6 /body/body.20/rdb1/Add_output_0 /body/body.20/rdb1/Add_output_0_splitncnn_0 /body/body.20/rdb1/Add_output_0_splitncnn_1 /body/body.20/rdb1/Add_output_0_splitncnn_2 /body/body.20/rdb1/Add_output_0_splitncnn_3 /body/body.20/rdb1/Add_output_0_splitncnn_4 /body/body.20/rdb1/Add_output_0_splitncnn_5
Convolution              /body/body.20/rdb2/conv1/Conv 1 1 /body/body.20/rdb1/Add_output_0_splitncnn_5 /body/body.20/rdb2/lrelu/LeakyRelu_output_0 0=32 1=3 4=1 5=1 6=18432 9=2 -23310=1,2.000000e-01
Split                    splitncnn_245            1 4 /body/body.20/rdb2/lrelu/LeakyRelu_output_0 /body/body.20/rdb2/lrelu/LeakyRelu_output_0_splitncnn_0 /body/body.20/rdb2/lrelu/LeakyRelu_output_0_splitncnn_1 /body/body.20/rdb2/lrelu/LeakyRelu_output_0_splitncnn_2 /body/body.20/rdb2/lrelu/LeakyRelu_output_0_splitncnn_3
Concat                   /body/body.20/rdb2/Concat 2 1 /body/body.20/rdb1/Add_output_0_splitncnn_4 /body/body.20/rdb2/lrelu/LeakyRelu_output_0_splitncnn_3 /body/body.20/rdb2/Concat_output_0
Convolution              /body/body.20/rdb2/conv2/Conv 1 1 /body/body.20/rdb2/Concat_output_0 /body/body.20/rdb2/lrelu_1/LeakyRelu_output_0 0=32 1=3 4=1 5=1 6=27648 9=2 -23310=1,2.000000e-01
Split                    splitncnn_246            1 3 /body/body.20/rdb2/lrelu_1/LeakyRelu_output_0 /body/body.20/rdb2/lrelu_1/LeakyRelu_output_0_splitncnn_0 /body/body.20/rdb2/lrelu_1/LeakyRelu_output_0_splitncnn_1 /body/body.20/rdb2/lrelu_1/LeakyRelu_output_0_splitncnn_2
Concat                   /body/body.20/rdb2/Concat_1 3 1 /body/body.20/rdb1/Add_output_0_splitncnn_3 /body/body.20/rdb2/lrelu/LeakyRelu_output_0_splitncnn_2 /body/body.20/rdb2/lrelu_1/LeakyRelu_output_0_splitncnn_2 /body/body.20/rdb2/Concat_1_output_0
Convolution              /body/body.20/rdb2/conv3/Conv 1 1 /body/body.20/rdb2/Concat_1_output_0 /body/body.20/rdb2/lrelu_2/LeakyRelu_output_0 0=32 1=3 4=1 5=1 6=36864 9=2 -23310=1,2.000000e-01
Split                    splitncnn_247            1 2 /body/body.20/rdb2/lrelu_2/LeakyRelu_output_0 /body/body.20/rdb2/lrelu_2/LeakyRelu_output_0_splitncnn_0 /body/body.20/rdb2/lrelu_2/LeakyRelu_output_0_splitncnn_1
Concat                   /body/body.20/rdb2/Concat_2 4 1 /body/body.20/rdb1/Add_output_0_splitncnn_2 /body/body.20/rdb2/lrelu/LeakyRelu_output_0_splitncnn_1 /body/body.20/rdb2/lrelu_1/LeakyRelu_output_0_splitncnn_1 /body/body.20/rdb2/lrelu_2/LeakyRelu_output_0_splitncnn_1 /body/body.20/rdb2/Concat_2_output_0
Convolution              /body/body.20/rdb2/conv4/Conv 1 1 /body/body.20/rdb2/Concat_2_output_0 /body/body.20/rdb2/lrelu_3/LeakyRelu_output_0 0=32 1=3 4=1 5=1 6=46080 9=2 -23310=1,2.000000e-01
Concat                   /body/body.20/rdb2/Concat_3 5 1 /body/body.20/rdb1/Add_output_0_splitncnn_1 /body/body.20/rdb2/lrelu/LeakyRelu_output_0_splitncnn_0 /body/body.20/rdb2/lrelu_1/LeakyRelu_output_0_splitncnn_0 /body/body.20/rdb2/lrelu_2/LeakyRelu_output_0_splitncnn_0 /body/body.20/rdb2/lrelu_3/LeakyRelu_output_0 /body/body.20/rdb2/Concat_3_output_0
Convolution              /body/body.20/rdb2/conv5/Conv 1 1 /body/body.20/rdb2/Concat_3_output_0 /body/body.20/rdb2/conv5/Conv_output_0 0=64 1=3 4=1 5=1 6=110592
Eltwise                  /body/body.20/rdb2/Add   2 1 /body/body.20/rdb2/conv5/Conv_output_0 /body/body.20/rdb1/Add_output_0_splitncnn_0 /body/body.20/rdb2/Add_output_0 0=1 -23301=2,2.000000e-01,1.000000e+00
Split                    splitncnn_248            1 6 /body/body.20/rdb2/Add_output_0 /body/body.20/rdb2/Add_output_0_splitncnn_0 /body/body.20/rdb2/Add_output_0_splitncnn_1 /body/body.20/rdb2/Add_output_0_splitncnn_2 /body/body.20/rdb2/Add_output_0_splitncnn_3 /body/body.20/rdb2/Add_output_0_splitncnn_4 /body/body.20/rdb2/Add_output_0_splitncnn_5
Convolution              /body/body.20/rdb3/conv1/Conv 1 1 /body/body.20/rdb2/Add_output_0_splitncnn_5 /body/body.20/rdb3/lrelu/LeakyRelu_output_0 0=32 1=3 4=1 5=1 6=18432 9=2 -23310=1,2.000000e-01
Split                    splitncnn_249            1 4 /body/body.20/rdb3/lrelu/LeakyRelu_output_0 /body/body.20/rdb3/lrelu/LeakyRelu_output_0_splitncnn_0 /body/body.20/rdb3/lrelu/LeakyRelu_output_0_splitncnn_1 /body/body.20/rdb3/lrelu/LeakyRelu_output_0_splitncnn_2 /body/body.20/rdb3/lrelu/LeakyRelu_output_0_splitncnn_3
Concat                   /body/body.20/rdb3/Concat 2 1 /body/body.20/rdb2/Add_output_0_splitncnn_4 /body/body.20/rdb3/lrelu/LeakyRelu_output_0_splitncnn_3 /body/body.20/rdb3/Concat_output_0
Convolution              /body/body.20/rdb3/conv2/Conv 1 1 /body/body.20/rdb3/Concat_output_0 /body/body.20/rdb3/lrelu_1/LeakyRelu_output_0 0=32 1=3 4=1 5=1 6=27648 9=2 -23310=1,2.000000e-01
Split                    splitncnn_250            1 3 /body/body.20/rdb3/lrelu_1/LeakyRelu_output_0 /body/body.20/rdb3/lrelu_1/LeakyRelu_output_0_splitncnn_0 /body/body.20/rdb3/lrelu_1/LeakyRelu_output_0_splitncnn_1 /body/body.20/rdb3/lrelu_1/LeakyRelu_output_0_splitncnn_2
Concat                   /body/body.20/rdb3/Concat_1 3 1 /body/body.20/rdb2/Add_output_0_splitncnn_3 /body/body.20/rdb3/lrelu/LeakyRelu_output_0_splitncnn_2 /body/body.20/rdb3/lrelu_1/LeakyRelu_output_0_splitncnn_2 /body/body.20/rdb3/Concat_1_output_0
Convolution              /body/body.20/rdb3/conv3/Conv 1 1 /body/body.20/rdb3/Concat_1_output_0 /body/body.20/rdb3/lrelu_2/LeakyRelu_output_0 0=32 1=3 4=1 5=1 6=36864 9=2 -23310=1,2.000000e-01
Split                    splitncnn_251            1 2 /body/body.20/rdb3/lrelu_2/LeakyRelu_output_0 /body/body.20/rdb3/lrelu_2/LeakyRelu_output_0_splitncnn_0 /body/body.20/rdb3/lrelu_2/LeakyRelu_output_0_splitncnn_1
Concat                   /body/body.20/rdb3/Concat_2 4 1 /body/body.20/rdb2/Add_output_0_splitncnn_2 /body/body.20/rdb3/lrelu/LeakyRelu_output_0_splitncnn_1 /body/body.20/rdb3/lrelu_1/LeakyRelu_output_0_splitncnn_1 /body/body.20/rdb3/lrelu_2/LeakyRelu_output_0_splitncnn_1 /body/body.20/rdb3/Concat_2_output_0
Convolution              /body/body.20/rdb3/conv4/Conv 1 1 /body/body.20/rdb3/Concat_2_output_0 /body/body.20/rdb3/lrelu_3/LeakyRelu_output_0 0=32 1=3 4=1 5=1 6=46080 9=2 -23310=1,2.000000e-01
Concat                   /body/body.20/rdb3/Concat_3 5 1 /body/body.20/rdb2/Add_output_0_splitncnn_1 /body/body.20/rdb3/lrelu/LeakyRelu_output_0_splitncnn_0 /body/body.20/rdb3/lrelu_1/LeakyRelu_output_0_splitncnn_0 /body/body.20/rdb3/lrelu_2/LeakyRelu_output_0_splitncnn_0 /body/body.20/rdb3/lrelu_3/LeakyRelu_output_0 /body/body.20/rdb3/Concat_3_output_0
Convolution              /body/body.20/rdb3/conv5/Conv 1 1 /body/body.20/rdb3/Concat_3_output_0 /body/body.20/rdb3/conv5/Conv_output_0 0=64 1=3 4=1 5=1 6=110592
Eltwise                  /body/body.20/rdb3/Add   2 1 /body/body.20/rdb3/conv5/Conv_output_0 /body/body.20/rdb2/Add_output_0_splitncnn_0 /body/body.20/rdb3/Add_output_0 0=1 -23301=2,2.000000e-01,1.000000e+00
Eltwise                  /body/body.20/Add        2 1 /body/body.20/rdb3/Add_output_0 /body/body.19/Add_output_0_splitncnn_0 /body/body.20/Add_output_0 0=1 -23301=2,2.000000e-01,1.000000e+00
Split                    splitncnn_252            1 7 /body/body.20/Add_output_0 /body/body.20/Add_output_0_splitncnn_0 /body/body.20/Add_output_0_splitncnn_1 /body/body.20/Add_output_0_splitncnn_2 /body/body.20/Add_output_0_splitncnn_3 /body/body.20/Add_output_0_splitncnn_4 /body/body.20/Add_output_0_splitncnn_5 /body/body.20/Add_output_0_splitncnn_6
Convolution              /body/body.21/rdb1/conv1/Conv 1 1 /body/body.20/Add_output_0_splitncnn_6 /body/body.21/rdb1/lrelu/LeakyRelu_output_0 0=32 1=3 4=1 5=1 6=18432 9=2 -23310=1,2.000000e-01
Split                    splitncnn_253            1 4 /body/body.21/rdb1/lrelu/LeakyRelu_output_0 /body/body.21/rdb1/lrelu/LeakyRelu_output_0_splitncnn_0 /body/body.21/rdb1/lrelu/LeakyRelu_output_0_splitncnn_1 /body/body.21/rdb1/lrelu/LeakyRelu_output_0_splitncnn_2 /body/body.21/rdb1/lrelu/LeakyRelu_output_0_splitncnn_3
Concat                   /body/body.21/rdb1/Concat 2 1 /body/body.20/Add_output_0_splitncnn_5 /body/body.21/rdb1/lrelu/LeakyRelu_output_0_splitncnn_3 /body/body.21/rdb1/Concat_output_0
Convolution              /body/body.21/rdb1/conv2/Conv 1 1 /body/body.21/rdb1/Concat_output_0 /body/body.21/rdb1/lrelu_1/LeakyRelu_output_0 0=32 1=3 4=1 5=1 6=27648 9=2 -23310=1,2.000000e-01
Split                    splitncnn_254            1 3 /body/body.21/rdb1/lrelu_1/LeakyRelu_output_0 /body/body.21/rdb1/lrelu_1/LeakyRelu_output_0_splitncnn_0 /body/body.21/rdb1/lrelu_1/LeakyRelu_output_0_splitncnn_1 /body/body.21/rdb1/lrelu_1/LeakyRelu_output_0_splitncnn_2
Concat                   /body/body.21/rdb1/Concat_1 3 1 /body/body.20/Add_output_0_splitncnn_4 /body/body.21/rdb1/lrelu/LeakyRelu_output_0_splitncnn_2 /body/body.21/rdb1/lrelu_1/LeakyRelu_output_0_splitncnn_2 /body/body.21/rdb1/Concat_1_output_0
Convolution              /body/body.21/rdb1/conv3/Conv 1 1 /body/body.21/rdb1/Concat_1_output_0 /body/body.21/rdb1/lrelu_2/LeakyRelu_output_0 0=32 1=3 4=1 5=1 6=36864 9=2 -23310=1,2.000000e-01
Split                    splitncnn_255            1 2 /body/body.21/rdb1/lrelu_2/LeakyRelu_output_0 /body/body.21/rdb1/lrelu_2/LeakyRelu_output_0_splitncnn_0 /body/body.21/rdb1/lrelu_2/LeakyRelu_output_0_splitncnn_1
Concat                   /body/body.21/rdb1/Concat_2 4 1 /body/body.20/Add_output_0_splitncnn_3 /body/body.21/rdb1/lrelu/LeakyRelu_output_0_splitncnn_1 /body/body.21/rdb1/lrelu_1/LeakyRelu_output_0_splitncnn_1 /body/body.21/rdb1/lrelu_2/LeakyRelu_output_0_splitncnn_1 /body/body.21/rdb1/Concat_2_output_0
Convolution              /body/body.21/rdb1/conv4/Conv 1 1 /body/body.21/rdb1/Concat_2_output_0 /body/body.21/rdb1/lrelu_3/LeakyRelu_output_0 0=32 1=3 4=1 5=1 6=46080 9=2 -23310=1,2.000000e-01
Concat                   /body/body.21/rdb1/Concat_3 5 1 /body/body.20/Add_output_0_splitncnn_2 /body/body.21/rdb1/lrelu/LeakyRelu_output_0_splitncnn_0 /body/body.21/rdb1/lrelu_1/LeakyRelu_output_0_splitncnn_0 /body/body.21/rdb1/lrelu_2/LeakyRelu_output_0_splitncnn_0 /body/body.21/rdb1/lrelu_3/LeakyRelu_output_0 /body/body.21/rdb1/Concat_3_output_0
Convolution              /body/body.21/rdb1/conv5/Conv 1 1 /body/body.21/rdb1/Concat_3_output_0 /body/body.21/rdb1/conv5/Conv_output_0 0=64 1=3 4=1 5=1 6=110592
Eltwise                  /body/body.21/rdb1/Add   2 1 /body/body.21/rdb1/conv5/Conv_output_0 /body/body.20/Add_output_0_splitncnn_1 /body/body.21/rdb1/Add_output_0 0=1 -23301=2,2.000000e-01,1.000000e+00
Split                    splitncnn_256            1 6 /body/body.21/rdb1/Add_output_0 /body/body.21/rdb1/Add_output_0_splitncnn_0 /body/body.21/rdb1/Add_output_0_splitncnn_1 /body/body.21/rdb1/Add_output_0_splitncnn_2 /body/body.21/rdb1/Add_output_0_splitncnn_3 /body/body.21/rdb1/Add_output_0_splitncnn_4 /body/body.21/rdb1/Add_output_0_splitncnn_5
Convolution              /body/body.21/rdb2/conv1/Conv 1 1 /body/body.21/rdb1/Add_output_0_splitncnn_5 /body/body.21/rdb2/lrelu/LeakyRelu_output_0 0=32 1=3 4=1 5=1 6=18432 9=2 -23310=1,2.000000e-01
Split                    splitncnn_257            1 4 /body/body.21/rdb2/lrelu/LeakyRelu_output_0 /body/body.21/rdb2/lrelu/LeakyRelu_output_0_splitncnn_0 /body/body.21/rdb2/lrelu/LeakyRelu_output_0_splitncnn_1 /body/body.21/rdb2/lrelu/LeakyRelu_output_0_splitncnn_2 /body/body.21/rdb2/lrelu/LeakyRelu_output_0_splitncnn_3
Concat                   /body/body.21/rdb2/Concat 2 1 /body/body.21/rdb1/Add_output_0_splitncnn_4 /body/body.21/rdb2/lrelu/LeakyRelu_output_0_splitncnn_3 /body/body.21/rdb2/Concat_output_0
Convolution              /body/body.21/rdb2/conv2/Conv 1 1 /body/body.21/rdb2/Concat_output_0 /body/body.21/rdb2/lrelu_1/LeakyRelu_output_0 0=32 1=3 4=1 5=1 6=27648 9=2 -23310=1,2.000000e-01
Split                    splitncnn_258            1 3 /body/body.21/rdb2/lrelu_1/LeakyRelu_output_0 /body/body.21/rdb2/lrelu_1/LeakyRelu_output_0_splitncnn_0 /body/body.21/rdb2/lrelu_1/LeakyRelu_output_0_splitncnn_1 /body/body.21/rdb2/lrelu_1/LeakyRelu_output_0_splitncnn_2
Concat                   /body/body.21/rdb2/Concat_1 3 1 /body/body.21/rdb1/Add_output_0_splitncnn_3 /body/body.21/rdb2/lrelu/LeakyRelu_output_0_splitncnn_2 /body/body.21/rdb2/lrelu_1/LeakyRelu_output_0_splitncnn_2 /body/body.21/rdb2/Concat_1_output_0
Convolution              /body/body.21/rdb2/conv3/Conv 1 1 /body/body.21/rdb2/Concat_1_output_0 /body/body.21/rdb2/lrelu_2/LeakyRelu_output_0 0=32 1=3 4=1 5=1 6=36864 9=2 -23310=1,2.000000e-01
Split                    splitncnn_259            1 2 /body/body.21/rdb2/lrelu_2/LeakyRelu_output_0 /body/body.21/rdb2/lrelu_2/LeakyRelu_output_0_splitncnn_0 /body/body.21/rdb2/lrelu_2/LeakyRelu_output_0_splitncnn_1
Concat                   /body/body.21/rdb2/Concat_2 4 1 /body/body.21/rdb1/Add_output_0_splitncnn_2 /body/body.21/rdb2/lrelu/LeakyRelu_output_0_splitncnn_1 /body/body.21/rdb2/lrelu_1/LeakyRelu_output_0_splitncnn_1 /body/body.21/rdb2/lrelu_2/LeakyRelu_output_0_splitncnn_1 /body/body.21/rdb2/Concat_2_output_0
Convolution              /body/body.21/rdb2/conv4/Conv 1 1 /body/body.21/rdb2/Concat_2_output_0 /body/body.21/rdb2/lrelu_3/LeakyRelu_output_0 0=32 1=3 4=1 5=1 6=46080 9=2 -23310=1,2.000000e-01
Concat                   /body/body.21/rdb2/Concat_3 5 1 /body/body.21/rdb1/Add_output_0_splitncnn_1 /body/body.21/rdb2/lrelu/LeakyRelu_output_0_splitncnn_0 /body/body.21/rdb2/lrelu_1/LeakyRelu_output_0_splitncnn_0 /body/body.21/rdb2/lrelu_2/LeakyRelu_output_0_splitncnn_0 /body/body.21/rdb2/lrelu_3/LeakyRelu_output_0 /body/body.21/rdb2/Concat_3_output_0
Convolution              /body/body.21/rdb2/conv5/Conv 1 1 /body/body.21/rdb2/Concat_3_output_0 /body/body.21/rdb2/conv5/Conv_output_0 0=64 1=3 4=1 5=1 6=110592
Eltwise                  /body/body.21/rdb2/Add   2 1 /body/body.21/rdb2/conv5/Conv_output_0 /body/body.21/rdb1/Add_output_0_splitncnn_0 /body/body.21/rdb2/Add_output_0 0=1 -23301=2,2.000000e-01,1.000000e+00
Split                    splitncnn_260            1 6 /body/body.21/rdb2/Add_output_0 /body/body.21/rdb2/Add_output_0_splitncnn_0 /body/body.21/rdb2/Add_output_0_splitncnn_1 /body/body.21/rdb2/Add_output_0_splitncnn_2 /body/body.21/rdb2/Add_output_0_splitncnn_3 /body/body.21/rdb2/Add_output_0_splitncnn_4 /body/body.21/rdb2/Add_output_0_splitncnn_5
Convolution              /body/body.21/rdb3/conv1/Conv 1 1 /body/body.21/rdb2/Add_output_0_splitncnn_5 /body/body.21/rdb3/lrelu/LeakyRelu_output_0 0=32 1=3 4=1 5=1 6=18432 9=2 -23310=1,2.000000e-01
Split                    splitncnn_261            1 4 /body/body.21/rdb3/lrelu/LeakyRelu_output_0 /body/body.21/rdb3/lrelu/LeakyRelu_output_0_splitncnn_0 /body/body.21/rdb3/lrelu/LeakyRelu_output_0_splitncnn_1 /body/body.21/rdb3/lrelu/LeakyRelu_output_0_splitncnn_2 /body/body.21/rdb3/lrelu/LeakyRelu_output_0_splitncnn_3
Concat                   /body/body.21/rdb3/Concat 2 1 /body/body.21/rdb2/Add_output_0_splitncnn_4 /body/body.21/rdb3/lrelu/LeakyRelu_output_0_splitncnn_3 /body/body.21/rdb3/Concat_output_0
Convolution              /body/body.21/rdb3/conv2/Conv 1 1 /body/body.21/rdb3/Concat_output_0 /body/body.21/rdb3/lrelu_1/LeakyRelu_output_0 0=32 1=3 4=1 5=1 6=27648 9=2 -23310=1,2.000000e-01
Split                    splitncnn_262            1 3 /body/body.21/rdb3/lrelu_1/LeakyRelu_output_0 /body/body.21/rdb3/lrelu_1/LeakyRelu_output_0_splitncnn_0 /body/body.21/rdb3/lrelu_1/LeakyRelu_output_0_splitncnn_1 /body/body.21/rdb3/lrelu_1/LeakyRelu_output_0_splitncnn_2
Concat                   /body/body.21/rdb3/Concat_1 3 1 /body/body.21/rdb2/Add_output_0_splitncnn_3 /body/body.21/rdb3/lrelu/LeakyRelu_output_0_splitncnn_2 /body/body.21/rdb3/lrelu_1/LeakyRelu_output_0_splitncnn_2 /body/body.21/rdb3/Concat_1_output_0
Convolution              /body/body.21/rdb3/conv3/Conv 1 1 /body/body.21/rdb3/Concat_1_output_0 /body/body.21/rdb3/lrelu_2/LeakyRelu_output_0 0=32 1=3 4=1 5=1 6=36864 9=2 -23310=1,2.000000e-01
Split                    splitncnn_263            1 2 /body/body.21/rdb3/lrelu_2/LeakyRelu_output_0 /body/body.21/rdb3/lrelu_2/LeakyRelu_output_0_splitncnn_0 /body/body.21/rdb3/lrelu_2/LeakyRelu_output_0_splitncnn_1
Concat                   /body/body.21/rdb3/Concat_2 4 1 /body/body.21/rdb2/Add_output_0_splitncnn_2 /body/body.21/rdb3/lrelu/LeakyRelu_output_0_splitncnn_1 /body/body.21/rdb3/lrelu_1/LeakyRelu_output_0_splitncnn_1 /body/body.21/rdb3/lrelu_2/LeakyRelu_output_0_splitncnn_1 /body/body.21/rdb3/Concat_2_output_0
Convolution              /body/body.21/rdb3/conv4/Conv 1 1 /body/body.21/rdb3/Concat_2_output_0 /body/body.21/rdb3/lrelu_3/LeakyRelu_output_0 0=32 1=3 4=1 5=1 6=46080 9=2 -23310=1,2.000000e-01
Concat                   /body/body.21/rdb3/Concat_3 5 1 /body/body.21/rdb2/Add_output_0_splitncnn_1 /body/body.21/rdb3/lrelu/LeakyRelu_output_0_splitncnn_0 /body/body.21/rdb3/lrelu_1/LeakyRelu_output_0_splitncnn_0 /body/body.21/rdb3/lrelu_2/LeakyRelu_output_0_splitncnn_0 /body/body.21/rdb3/lrelu_3/LeakyRelu_output_0 /body/body.21/rdb3/Concat_3_output_0
Convolution              /body/body.21/rdb3/conv5/Conv 1 1 /body/body.21/rdb3/Concat_3_output_0 /body/body.21/rdb3/conv5/Conv_output_0 0=64 1=3 4=1 5=1 6=110592
Eltwise                  /body/body.21/rdb3/Add   2 1 /body/body.21/rdb3/conv5/Conv_output_0 /body/body.21/rdb2/Add_output_0_splitncnn_0 /body/body.21/rdb3/Add_output_0 0=1 -23301=2,2.000000e-01,1.000000e+00
Eltwise                  /body/body.21/Add        2 1 /body/body.21/rdb3/Add_output_0 /body/body.20/Add_output_0_splitncnn_0 /body/body.21/Add_output_0 0=1 -23301=2,2.000000e-01,1.000000e+00
Split                    splitncnn_264            1 7 /body/body.21/Add_output_0 /body/body.21/Add_output_0_splitncnn_0 /body/body.21/Add_output_0_splitncnn_1 /body/body.21/Add_output_0_splitncnn_2 /body/body.21/Add_output_0_splitncnn_3 /body/body.21/Add_output_0_splitncnn_4 /body/body.21/Add_output_0_splitncnn_5 /body/body.21/Add_output_0_splitncnn_6
Convolution              /body/body.22/rdb1/conv1/Conv 1 1 /body/body.21/Add_output_0_splitncnn_6 /body/body.22/rdb1/lrelu/LeakyRelu_output_0 0=32 1=3 4=1 5=1 6=18432 9=2 -23310=1,2.000000e-01
Split                    splitncnn_265            1 4 /body/body.22/rdb1/lrelu/LeakyRelu_output_0 /body/body.22/rdb1/lrelu/LeakyRelu_output_0_splitncnn_0 /body/body.22/rdb1/lrelu/LeakyRelu_output_0_splitncnn_1 /body/body.22/rdb1/lrelu/LeakyRelu_output_0_splitncnn_2 /body/body.22/rdb1/lrelu/LeakyRelu_output_0_splitncnn_3
Concat                   /body/body.22/rdb1/Concat 2 1 /body/body.21/Add_output_0_splitncnn_5 /body/body.22/rdb1/lrelu/LeakyRelu_output_0_splitncnn_3 /body/body.22/rdb1/Concat_output_0
Convolution              /body/body.22/rdb1/conv2/Conv 1 1 /body/body.22/rdb1/Concat_output_0 /body/body.22/rdb1/lrelu_1/LeakyRelu_output_0 0=32 1=3 4=1 5=1 6=27648 9=2 -23310=1,2.000000e-01
Split                    splitncnn_266            1 3 /body/body.22/rdb1/lrelu_1/LeakyRelu_output_0 /body/body.22/rdb1/lrelu_1/LeakyRelu_output_0_splitncnn_0 /body/body.22/rdb1/lrelu_1/LeakyRelu_output_0_splitncnn_1 /body/body.22/rdb1/lrelu_1/LeakyRelu_output_0_splitncnn_2
Concat                   /body/body.22/rdb1/Concat_1 3 1 /body/body.21/Add_output_0_splitncnn_4 /body/body.22/rdb1/lrelu/LeakyRelu_output_0_splitncnn_2 /body/body.22/rdb1/lrelu_1/LeakyRelu_output_0_splitncnn_2 /body/body.22/rdb1/Concat_1_output_0
Convolution              /body/body.22/rdb1/conv3/Conv 1 1 /body/body.22/rdb1/Concat_1_output_0 /body/body.22/rdb1/lrelu_2/LeakyRelu_output_0 0=32 1=3 4=1 5=1 6=36864 9=2 -23310=1,2.000000e-01
Split                    splitncnn_267            1 2 /body/body.22/rdb1/lrelu_2/LeakyRelu_output_0 /body/body.22/rdb1/lrelu_2/LeakyRelu_output_0_splitncnn_0 /body/body.22/rdb1/lrelu_2/LeakyRelu_output_0_splitncnn_1
Concat                   /body/body.22/rdb1/Concat_2 4 1 /body/body.21/Add_output_0_splitncnn_3 /body/body.22/rdb1/lrelu/LeakyRelu_output_0_splitncnn_1 /body/body.22/rdb1/lrelu_1/LeakyRelu_output_0_splitncnn_1 /body/body.22/rdb1/lrelu_2/LeakyRelu_output_0_splitncnn_1 /body/body.22/rdb1/Concat_2_output_0
Convolution              /body/body.22/rdb1/conv4/Conv 1 1 /body/body.22/rdb1/Concat_2_output_0 /body/body.22/rdb1/lrelu_3/LeakyRelu_output_0 0=32 1=3 4=1 5=1 6=46080 9=2 -23310=1,2.000000e-01
Concat                   /body/body.22/rdb1/Concat_3 5 1 /body/body.21/Add_output_0_splitncnn_2 /body/body.22/rdb1/lrelu/LeakyRelu_output_0_splitncnn_0 /body/body.22/rdb1/lrelu_1/LeakyRelu_output_0_splitncnn_0 /body/body.22/rdb1/lrelu_2/LeakyRelu_output_0_splitncnn_0 /body/body.22/rdb1/lrelu_3/LeakyRelu_output_0 /body/body.22/rdb1/Concat_3_output_0
Convolution              /body/body.22/rdb1/conv5/Conv 1 1 /body/body.22/rdb1/Concat_3_output_0 /body/body.22/rdb1/conv5/Conv_output_0 0=64 1=3 4=1 5=1 6=110592
Eltwise                  /body/body.22/rdb1/Add   2 1 /body/body.22/rdb1/conv5/Conv_output_0 /body/body.21/Add_output_0_splitncnn_1 /body/body.22/rdb1/Add_output_0 0=1 -23301=2,2.000000e-01,1.000000e+00
Split                    splitncnn_268            1 6 /body/body.22/rdb1/Add_output_0 /body/body.22/rdb1/Add_output_0_splitncnn_0 /body/body.22/rdb1/Add_output_0_splitncnn_1 /body/body.22/rdb1/Add_output_0_splitncnn_2 /body/body.22/rdb1/Add_output_0_splitncnn_3 /body/body.22/rdb1/Add_output_0_splitncnn_4 /body/body.22/rdb1/Add_output_0_splitncnn_5
Convolution              /body/body.22/rdb2/conv1/Conv 1 1 /body/body.22/rdb1/Add_output_0_splitncnn_5 /body/body.22/rdb2/lrelu/LeakyRelu_output_0 0=32 1=3 4=1 5=1 6=18432 9=2 -23310=1,2.000000e-01
Split                    splitncnn_269            1 4 /body/body.22/rdb2/lrelu/LeakyRelu_output_0 /body/body.22/rdb2/lrelu/LeakyRelu_output_0_splitncnn_0 /body/body.22/rdb2/lrelu/LeakyRelu_output_0_splitncnn_1 /body/body.22/rdb2/lrelu/LeakyRelu_output_0_splitncnn_2 /body/body.22/rdb2/lrelu/LeakyRelu_output_0_splitncnn_3
Concat                   /body/body.22/rdb2/Concat 2 1 /body/body.22/rdb1/Add_output_0_splitncnn_4 /body/body.22/rdb2/lrelu/LeakyRelu_output_0_splitncnn_3 /body/body.22/rdb2/Concat_output_0
Convolution              /body/body.22/rdb2/conv2/Conv 1 1 /body/body.22/rdb2/Concat_output_0 /body/body.22/rdb2/lrelu_1/LeakyRelu_output_0 0=32 1=3 4=1 5=1 6=27648 9=2 -23310=1,2.000000e-01
Split                    splitncnn_270            1 3 /body/body.22/rdb2/lrelu_1/LeakyRelu_output_0 /body/body.22/rdb2/lrelu_1/LeakyRelu_output_0_splitncnn_0 /body/body.22/rdb2/lrelu_1/LeakyRelu_output_0_splitncnn_1 /body/body.22/rdb2/lrelu_1/LeakyRelu_output_0_splitncnn_2
Concat                   /body/body.22/rdb2/Concat_1 3 1 /body/body.22/rdb1/Add_output_0_splitncnn_3 /body/body.22/rdb2/lrelu/LeakyRelu_output_0_splitncnn_2 /body/body.22/rdb2/lrelu_1/LeakyRelu_output_0_splitncnn_2 /body/body.22/rdb2/Concat_1_output_0
Convolution              /body/body.22/rdb2/conv3/Conv 1 1 /body/body.22/rdb2/Concat_1_output_0 /body/body.22/rdb2/lrelu_2/LeakyRelu_output_0 0=32 1=3 4=1 5=1 6=36864 9=2 -23310=1,2.000000e-01
Split                    splitncnn_271            1 2 /body/body.22/rdb2/lrelu_2/LeakyRelu_output_0 /body/body.22/rdb2/lrelu_2/LeakyRelu_output_0_splitncnn_0 /body/body.22/rdb2/lrelu_2/LeakyRelu_output_0_splitncnn_1
Concat                   /body/body.22/rdb2/Concat_2 4 1 /body/body.22/rdb1/Add_output_0_splitncnn_2 /body/body.22/rdb2/lrelu/LeakyRelu_output_0_splitncnn_1 /body/body.22/rdb2/lrelu_1/LeakyRelu_output_0_splitncnn_1 /body/body.22/rdb2/lrelu_2/LeakyRelu_output_0_splitncnn_1 /body/body.22/rdb2/Concat_2_output_0
Convolution              /body/body.22/rdb2/conv4/Conv 1 1 /body/body.22/rdb2/Concat_2_output_0 /body/body.22/rdb2/lrelu_3/LeakyRelu_output_0 0=32 1=3 4=1 5=1 6=46080 9=2 -23310=1,2.000000e-01
Concat                   /body/body.22/rdb2/Concat_3 5 1 /body/body.22/rdb1/Add_output_0_splitncnn_1 /body/body.22/rdb2/lrelu/LeakyRelu_output_0_splitncnn_0 /body/body.22/rdb2/lrelu_1/LeakyRelu_output_0_splitncnn_0 /body/body.22/rdb2/lrelu_2/LeakyRelu_output_0_splitncnn_0 /body/body.22/rdb2/lrelu_3/LeakyRelu_output_0 /body/body.22/rdb2/Concat_3_output_0
Convolution              /body/body.22/rdb2/conv5/Conv 1 1 /body/body.22/rdb2/Concat_3_output_0 /body/body.22/rdb2/conv5/Conv_output_0 0=64 1=3 4=1 5=1 6=110592
Eltwise                  /body/body.22/rdb2/Add   2 1 /body/body.22/rdb2/conv5/Conv_output_0 /body/body.22/rdb1/Add_output_0_splitncnn_0 /body/body.22/rdb2/Add_output_0 0=1 -23301=2,2.000000e-01,1.000000e+00
Split                    splitncnn_272            1 6 /body/body.22/rdb2/Add_output_0 /body/body.22/rdb2/Add_output_0_splitncnn_0 /body/body.22/rdb2/Add_output_0_splitncnn_1 /body/body.22/rdb2/Add_output_0_splitncnn_2 /body/body.22/rdb2/Add_output_0_splitncnn_3 /body/body.22/rdb2/Add_output_0_splitncnn_4 /body/body.22/rdb2/Add_output_0_splitncnn_5
Convolution              /body/body.22/rdb3/conv1/Conv 1 1 /body/body.22/rdb2/Add_output_0_splitncnn_5 /body/body.22/rdb3/lrelu/LeakyRelu_output_0 0=32 1=3 4=1 5=1 6=18432 9=2 -23310=1,2.000000e-01
Split                    splitncnn_273            1 4 /body/body.22/rdb3/lrelu/LeakyRelu_output_0 /body/body.22/rdb3/lrelu/LeakyRelu_output_0_splitncnn_0 /body/body.22/rdb3/lrelu/LeakyRelu_output_0_splitncnn_1 /body/body.22/rdb3/lrelu/LeakyRelu_output_0_splitncnn_2 /body/body.22/rdb3/lrelu/LeakyRelu_output_0_splitncnn_3
Concat                   /body/body.22/rdb3/Concat 2 1 /body/body.22/rdb2/Add_output_0_splitncnn_4 /body/body.22/rdb3/lrelu/LeakyRelu_output_0_splitncnn_3 /body/body.22/rdb3/Concat_output_0
Convolution              /body/body.22/rdb3/conv2/Conv 1 1 /body/body.22/rdb3/Concat_output_0 /body/body.22/rdb3/lrelu_1/LeakyRelu_output_0 0=32 1=3 4=1 5=1 6=27648 9=2 -23310=1,2.000000e-01
Split                    splitncnn_274            1 3 /body/body.22/rdb3/lrelu_1/LeakyRelu_output_0 /body/body.22/rdb3/lrelu_1/LeakyRelu_output_0_splitncnn_0 /body/body.22/rdb3/lrelu_1/LeakyRelu_output_0_splitncnn_1 /body/body.22/rdb3/lrelu_1/LeakyRelu_output_0_splitncnn_2
Concat                   /body/body.22/rdb3/Concat_1 3 1 /body/body.22/rdb2/Add_output_0_splitncnn_3 /body/body.22/rdb3/lrelu/LeakyRelu_output_0_splitncnn_2 /body/body.22/rdb3/lrelu_1/LeakyRelu_output_0_splitncnn_2 /body/body.22/rdb3/Concat_1_output_0
Convolution              /body/body.22/rdb3/conv3/Conv 1 1 /body/body.22/rdb3/Concat_1_output_0 /body/body.22/rdb3/lrelu_2/LeakyRelu_output_0 0=32 1=3 4=1 5=1 6=36864 9=2 -23310=1,2.000000e-01
Split                    splitncnn_275            1 2 /body/body.22/rdb3/lrelu_2/LeakyRelu_output_0 /body/body.22/rdb3/lrelu_2/LeakyRelu_output_0_splitncnn_0 /body/body.22/rdb3/lrelu_2/LeakyRelu_output_0_splitncnn_1
Concat                   /body/body.22/rdb3/Concat_2 4 1 /body/body.22/rdb2/Add_output_0_splitncnn_2 /body/body.22/rdb3/lrelu/LeakyRelu_output_0_splitncnn_1 /body/body.22/rdb3/lrelu_1/LeakyRelu_output_0_splitncnn_1 /body/body.22/rdb3/lrelu_2/LeakyRelu_output_0_splitncnn_1 /body/body.22/rdb3/Concat_2_output_0
Convolution              /body/body.22/rdb3/conv4/Conv 1 1 /body/body.22/rdb3/Concat_2_output_0 /body/body.22/rdb3/lrelu_3/LeakyRelu_output_0 0=32 1=3 4=1 5=1 6=46080 9=2 -23310=1,2.000000e-01
Concat                   /body/body.22/rdb3/Concat_3 5 1 /body/body.22/rdb2/Add_output_0_splitncnn_1 /body/body.22/rdb3/lrelu/LeakyRelu_output_0_splitncnn_0 /body/body.22/rdb3/lrelu_1/LeakyRelu_output_0_splitncnn_0 /body/body.22/rdb3/lrelu_2/LeakyRelu_output_0_splitncnn_0 /body/body.22/rdb3/lrelu_3/LeakyRelu_output_0 /body/body.22/rdb3/Concat_3_output_0
Convolution              /body/body.22/rdb3/conv5/Conv 1 1 /body/body.22/rdb3/Concat_3_output_0 /body/body.22/rdb3/conv5/Conv_output_0 0=64 1=3 4=1 5=1 6=110592
Eltwise                  /body/body.22/rdb3/Add   2 1 /body/body.22/rdb3/conv5/Conv_output_0 /body/body.22/rdb2/Add_output_0_splitncnn_0 /body/body.22/rdb3/Add_output_0 0=1 -23301=2,2.000000e-01,1.000000e+00
Eltwise                  /body/body.22/Add        2 1 /body/body.22/rdb3/Add_output_0 /body/body.21/Add_output_0_splitncnn_0 /body/body.22/Add_output_0 0=1 -23301=2,2.000000e-01,1.000000e+00
Convolution              /conv_body/Conv          1 1 /body/body.22/Add_output_0 /conv_body/Conv_output_0 0=64 1=3 4=1 5=1 6=36864
BinaryOp                 /Add                     2 1 /conv_first/Conv_output_0_splitncnn_0 /conv_body/Conv_output_0 /Add_output_0
Interp                   /Resize                  1 1 /Add_output_0 /Resize_output_0 0=1 1=2.000000e+00 2=2.000000e+00
Convolution              /conv_up1/Conv           1 1 /Resize_output_0 /lrelu/LeakyRelu_output_0 0=64 1=3 4=1 5=1 6=36864 9=2 -23310=1,2.000000e-01
Interp                   /Resize_1                1 1 /lrelu/LeakyRelu_output_0 /Resize_1_output_0 0=1 1=2.000000e+00 2=2.000000e+00
Convolution              /conv_up2/Conv           1 1 /Resize_1_output_0 /lrelu_1/LeakyRelu_output_0 0=64 1=3 4=1 5=1 6=36864 9=2 -23310=1,2.000000e-01
Convolution              /conv_hr/Conv            1 1 /lrelu_1/LeakyRelu_output_0 /lrelu_2/LeakyRelu_output_0 0=64 1=3 4=1 5=1 6=36864 9=2 -23310=1,2.000000e-01
Convolution              /conv_last/Conv          1 1 /lrelu_2/LeakyRelu_output_0 output 0=3 1=3 4=1 5=1 6=1728